temp_model.pth (torch, 328309 bytes, 30 tensors)

conv1.weight f4 [64, 1, 3, 3]
0	0xbe8b9e96	-0.2726943
1	0xbb1d78ab	-0.0024028223
2	0xbe3c30b8	-0.1837796
3	0x3e32ace8	0.17448771
4	0x3e64e306	0.22352228
5	0x3defae9b	0.11703225
6	0xbe5462d8	-0.20740831
7	0xbe833aec	-0.2563089
8	0xbe43ded3	-0.1912797
9	0x3d98c716	0.07459848
10	0xbdf8f8db	-0.121568404
11	0xbc9b1cab	-0.018934568
12	0xbe7a4fb3	-0.24444465
13	0x3d13e4e0	0.036106944
14	0xbdc91546	-0.09818511
15	0x3e170bc0	0.14750576
16	0xbe65d98b	-0.22446267
17	0xbe503068	-0.20330966
18	0x3da21c66	0.07915573
19	0x3e74ecc6	0.23918447
20	0xbea9b826	-0.33148307
21	0xbe2ecacb	-0.17069547
22	0x3dfdd3b6	0.12393896
23	0xbdfd6a3b	-0.123737775
24	0xbea54a98	-0.32283473
25	0xbe104e58	-0.14092386
26	0xbe665926	-0.22494945
27	0xbe4bb5ab	-0.1989352
28	0xbb96f856	-0.0046072407
29	0x3dda5c8b	0.106621824
30	0x3c24f92b	0.010069172
31	0x3e8e990f	0.2785115
32	0xbe87af47	-0.26500914
33	0x3e9a1cf0	0.30100203
34	0x3cfaf56b	0.030634603
35	0xbe88f4bc	-0.26749218
36	0x3bf00656	0.007324974
37	0x3ea50c16	0.32235783
38	0x3dbb2250	0.09137404
39	0xbe587448	-0.21138108
40	0xbdd100e0	-0.10205245
41	0xbe787fe0	-0.2426753
42	0xbc8b8a56	-0.017033737
43	0xbe12ef56	-0.14349112
44	0x3e660ec8	0.22466576
45	0xbe75e54e	-0.24013254
46	0xbe030ad3	-0.12797098
47	0xbea9732c	-0.33095682
48	0xbda14006	-0.078735396
49	0x3d1d122b	0.038347404
50	0xbe830728	-0.25591397
51	0x3ea10b58	0.31453967
52	0x3e7319b8	0.2374028
53	0x3e715cc6	0.23570547
54	0xbe295a6e	-0.16538402
55	0xbe97785f	-0.29584023
56	0x3d789f2b	0.06069867
57	0x3d2a0c80	0.041515827
58	0xbeaa5fb7	-0.3327615
59	0x3d8619bb	0.065478764
60	0x3e8795fe	0.26481622
61	0x3db948a0	0.09047055
62	0x3e07414e	0.13208506
63	0xbddda200	-0.10821915
64	0xbe572073	-0.21008472
65	0x3e181100	0.14850235
66	0x3d9020f6	0.07037537
67	0x3d522f36	0.051314555
68	0xbd9b8b20	-0.07594895
69	0x3e361d4b	0.17784612
70	0x3e7290be	0.23688027
71	0x3e061b73	0.13096409
72	0x3cf0e0eb	0.029404124
73	0x3dba7f10	0.091062665
74	0xbe8c376a	-0.27386028
75	0xbe8feb67	-0.28109285
76	0x3de02f4b	0.109465204
77	0xbe88d538	-0.26725173
78	0xbe186aab	-0.1488444
79	0x3e5e9506	0.21736535
80	0xbdd689c6	-0.10475497
81	0x3df6696b	0.12031826
82	0xbe23a806	-0.15982065
83	0xbe6682fb	-0.22510903
84	0xbe9fe514	-0.3122946
85	0xbe685468	-0.22688448
86	0x3ea47a82	0.32124716
87	0xbe02c428	-0.1277014
88	0x3ea1d70e	0.31609386
89	0x3b7dfeab	0.003875653
90	0xbdba32d6	-0.090917274
91	0xbe5c6cf3	-0.21525936
92	0xbe4dc23b	-0.20093624
93	0xbea5a4c2	-0.32352263
94	0x3dbbe770	0.091750026
95	0x3e03c82e	0.12869331
96	0xbdc5517b	-0.09634682
97	0x3d349e16	0.044096075
98	0xbe0149a3	-0.12625746
99	0x3e9053bb	0.2818888
100	0x3e77ae4e	0.24187586
101	0xbda14c00	-0.07875824
102	0x3e84c7e0	0.25933743
103	0x3ea04db4	0.31309283
104	0x3cb692d6	0.022286814
105	0x3e23360e	0.15938589
106	0xbe8287af	-0.25494143
107	0xbea0a184	-0.31373227
108	0xbe337550	-0.1752522
109	0xbe413586	-0.18868074
110	0x3e5d4230	0.2160728
111	0xbe517dc6	-0.20458135
112	0x3e8f6bdc	0.28011978
113	0xbd748820	-0.05970013
114	0xbe80e742	-0.25176436
115	0xbe80597a	-0.25068265
116	0xbcc9f2c0	-0.024651885
117	0x3e12d0f3	0.1433752
118	0xbe8c7068	-0.2742951
119	0xbe381c03	-0.17979436
120	0x3e4d9c9e	0.20079276
121	0x3da952e6	0.08267765
122	0x3df69860	0.12040782
123	0x3e57714e	0.21039316
124	0xbe0f533e	-0.13996598
125	0xbe8e3fb6	-0.27782983
126	0xbe91f48b	-0.28506884
127	0x3e98134f	0.2970223
128	0xbe66c3eb	-0.22535674
129	0xbdbd1ae6	-0.09233646
130	0x3d929b6b	0.0715855
131	0xbe8baa77	-0.27278492
132	0x3c128856	0.008943638
133	0x3e755006	0.23956308
134	0xbd36490b	-0.044503253
135	0xbe2f5b3e	-0.1712465
136	0x3e964b16	0.2935416
137	0xbea8c1ab	-0.32960257
138	0x3e22689e	0.15860221
139	0x3e08272b	0.13296191
140	0x3e9bff52	0.3046823
141	0xbe4bd193	-0.19904165
142	0xbe947a02	-0.28999335
143	0xbe1bc6a8	-0.152125
144	0xbe27be83	-0.16381268
145	0x3db91a86	0.09038262
146	0xbe2a5a7b	-0.16636078
147	0x3e4134e6	0.18867835
148	0x3db4988b	0.08818158
149	0xbde0f42b	-0.10984071
150	0xbe723226	-0.23651943
151	0x3e1f8c18	0.15580785
152	0x3ccc0016	0.024902385
153	0xbe654090	-0.2238791
154	0x3c7ff380	0.01562202
155	0x3e08c8c3	0.13357835
156	0xbe796770	-0.24355865
157	0x3d9a9d60	0.07549548
158	0x3e5bff58	0.21484125
159	0xbe37dce6	-0.1795536
160	0xbe97f5a2	-0.2967959
161	0x3e127678	0.14303005
162	0xbdc7d2d6	-0.09757011
163	0x3ded96d0	0.11601031
164	0xbe6032a3	-0.21894316
165	0xbe8e9f88	-0.27856088
166	0x3d19a256	0.03750833
167	0x3e96ad53	0.2942911
168	0x3e7f11b3	0.24909095
169	0xbe56b7c3	-0.20968537
170	0xbc15eaab	-0.0091501875
171	0xbe57f5d6	-0.21089873
172	0xbdf24030	-0.11828649
173	0x3d892010	0.066955686
174	0x3e899f13	0.26879176
175	0x3e8fd5bf	0.28092763
176	0x3e55efb6	0.20892224
177	0x3e6feab3	0.23429374
178	0xbeaa207c	-0.3322791
179	0x3e41faa8	0.18943274
180	0xbcce1d56	-0.025160473
181	0xbe82d130	-0.25550222
182	0xbe86ee4b	-0.26353678
183	0x3cf22316	0.029557746
184	0x3e69ec16	0.22843966
185	0xbe98f3d3	-0.29873523
186	0xbe879723	-0.26482496
187	0x3dcfc966	0.101458356
188	0x3cf2beeb	0.029632052
189	0x3e1069e0	0.14102888
190	0x3d8d970b	0.06913575
191	0x3e93acdc	0.2884282
192	0xbd7c4acb	-0.061594766
193	0x3e51aa88	0.20475209
194	0xbe8ff50c	-0.28116643
195	0xbdbd058b	-0.09229573
196	0xbe34e248	-0.17664444
197	0xbe23302b	-0.15936343
198	0xbea9f677	-0.3319585
199	0xbe84d722	-0.25945383
200	0xbe29fc48	-0.16600144
201	0x3e32034e	0.17384073
202	0x3db51fa0	0.088439226
203	0x3c4d4580	0.012528777
204	0x3c0de22b	0.00865988
205	0x3dd6c8f0	0.104875445
206	0x3e6db966	0.23215255
207	0x3e4595bb	0.19295399
208	0xbd88935b	-0.06668731
209	0xbe9b8b54	-0.30379736
210	0x3e4462ae	0.19178268
211	0x3d869dfb	0.06573101
212	0x3df10f20	0.11770463
213	0xbe98354e	-0.29728168
214	0x3e820a20	0.2539835
215	0x3e94ec1a	0.2908638
216	0x3e9651db	0.29359326
217	0x3d21d500	0.039509773
218	0xbe268ad0	-0.1626389
219	0x3d9dc806	0.07704167
220	0xbdc50336	-0.09619753
221	0x3d80c376	0.06287281
222	0x3e2c4080	0.1682148
223	0x3da1f526	0.079080865
224	0xbe409b26	-0.18809184
225	0x3e799d5b	0.24376433
226	0xbe80a336	-0.2512452
227	0x3e83fdd7	0.25779602
228	0xbe199f10	-0.15002084
229	0xbe9d8474	-0.30765116
230	0x3e85f3b3	0.2616249
231	0xbe8a80dc	-0.27051437
232	0x3e3a751b	0.18208735
233	0x3e3d1cc3	0.18468003
234	0xbe738ffb	-0.23785393
235	0x3e2e6bfe	0.17033383
236	0x3d5dbe40	0.054136515
237	0xbca2682b	-0.019825062
238	0x3e1823d6	0.1485742
239	0xbe7f821e	-0.2495198
240	0xbe8eac32	-0.2786575
241	0x3e830918	0.25592875
242	0xbe06d9be	-0.13169
243	0xbd842a80	-0.06453419
244	0xbea7503a	-0.32678396
245	0x3e296ae3	0.1654468
246	0xbdd1d3db	-0.10245486
247	0x3e40ab86	0.18815431
248	0x3da7a40b	0.081855856
249	0x3de18c06	0.110130355
250	0xbe7eaf78	-0.24871624
251	0x3e77114e	0.24127695
252	0x3e7cf67b	0.247034
253	0xbe3dcaae	-0.18534347
254	0x3d56aa4b	0.052408498
255	0xbe951db3	-0.2912422

conv1.bias f4 [64]
0	0xbe3e15fb	-0.18563072
1	0xbe44d1e6	-0.19220695
2	0x3e073cbb	0.1320676
3	0xbe96638e	-0.2937283
4	0x3e180176	0.14844307
5	0x3cb850eb	0.022499522
6	0xbe827a5e	-0.25483984
7	0xbdc599eb	-0.09648498
8	0x3e5d4600	0.21608734
9	0xbe87ac6c	-0.26498735
10	0x3dd2bd30	0.10289991
11	0x3ea505f4	0.32231104
12	0xbd068cb6	-0.032849036
13	0x3ddb5a90	0.10710633
14	0x3e8ec674	0.27885783
15	0x3e2ea176	0.1705378
16	0x3ea0a130	0.31372976
17	0x3d5c048b	0.05371527
18	0xbcf516c0	-0.029918075
19	0xbe50ef58	-0.20403802
20	0x3d449f0b	0.048003238
21	0x3e85e424	0.2615062
22	0xbea6c276	-0.32570237
23	0xbe52c036	-0.20581135
24	0x3d4bb7a0	0.049735665
25	0x3ce2b856	0.027675789
26	0x3e124e8e	0.14287779
27	0xbe1d7d58	-0.15379846
28	0x3d043496	0.032276712
29	0x3e5741b6	0.2102116
30	0xbe2118ab	-0.15732066
31	0xbdb807fb	-0.08985897
32	0xbd6700ab	-0.05639712
33	0xbe969893	-0.2941328
34	0xbe9f1678	-0.3107183
35	0xbdc9453b	-0.09827658
36	0xbe9ecc33	-0.31015167
37	0x3e819bb8	0.25314116
38	0xbe94c70e	-0.29058117
39	0xbd016d0b	-0.031598132
40	0x3d3e31e0	0.046434283
41	0xbe9a3103	-0.30115518
42	0xbdfacea0	-0.12246442
43	0x3e35fe9e	0.1777291
44	0x3e841033	0.2579361
45	0x3dace9db	0.08443042
46	0xbea98488	-0.33108926
47	0x3e852224	0.2600261
48	0xbdcf7006	-0.10128789
49	0x3e79d3cb	0.24397199
50	0x3e3b23a0	0.18275309
51	0xbe59f66b	-0.21285407
52	0xbe40f218	-0.18842351
53	0x3db23fe0	0.087035894
54	0x3e99400e	0.29931682
55	0xbdf32980	-0.1187315
56	0xbe7ebf98	-0.24877775
57	0xbdd43b00	-0.10362816
58	0xbe9ec147	-0.31006834
59	0x3c3b23d6	0.011422118
60	0xbe165463	-0.14680628
61	0xbe77fc86	-0.24217424
62	0xbda0f0d6	-0.07858436
63	0xbe52cfce	-0.20587084

bn1.weight f4 [64]
0	0x3f800000	1.0
1	0x3f800000	1.0
2	0x3f800000	1.0
3	0x3f800000	1.0
4	0x3f800000	1.0
5	0x3f800000	1.0
6	0x3f800000	1.0
7	0x3f800000	1.0
8	0x3f800000	1.0
9	0x3f800000	1.0
10	0x3f800000	1.0
11	0x3f800000	1.0
12	0x3f800000	1.0
13	0x3f800000	1.0
14	0x3f800000	1.0
15	0x3f800000	1.0
16	0x3f800000	1.0
17	0x3f800000	1.0
18	0x3f800000	1.0
19	0x3f800000	1.0
20	0x3f800000	1.0
21	0x3f800000	1.0
22	0x3f800000	1.0
23	0x3f800000	1.0
24	0x3f800000	1.0
25	0x3f800000	1.0
26	0x3f800000	1.0
27	0x3f800000	1.0
28	0x3f800000	1.0
29	0x3f800000	1.0
30	0x3f800000	1.0
31	0x3f800000	1.0
32	0x3f800000	1.0
33	0x3f800000	1.0
34	0x3f800000	1.0
35	0x3f800000	1.0
36	0x3f800000	1.0
37	0x3f800000	1.0
38	0x3f800000	1.0
39	0x3f800000	1.0
40	0x3f800000	1.0
41	0x3f800000	1.0
42	0x3f800000	1.0
43	0x3f800000	1.0
44	0x3f800000	1.0
45	0x3f800000	1.0
46	0x3f800000	1.0
47	0x3f800000	1.0
48	0x3f800000	1.0
49	0x3f800000	1.0
50	0x3f800000	1.0
51	0x3f800000	1.0
52	0x3f800000	1.0
53	0x3f800000	1.0
54	0x3f800000	1.0
55	0x3f800000	1.0
56	0x3f800000	1.0
57	0x3f800000	1.0
58	0x3f800000	1.0
59	0x3f800000	1.0
60	0x3f800000	1.0
61	0x3f800000	1.0
62	0x3f800000	1.0
63	0x3f800000	1.0

bn1.bias f4 [64]
0	0x00000000	0.0
1	0x00000000	0.0
2	0x00000000	0.0
3	0x00000000	0.0
4	0x00000000	0.0
5	0x00000000	0.0
6	0x00000000	0.0
7	0x00000000	0.0
8	0x00000000	0.0
9	0x00000000	0.0
10	0x00000000	0.0
11	0x00000000	0.0
12	0x00000000	0.0
13	0x00000000	0.0
14	0x00000000	0.0
15	0x00000000	0.0
16	0x00000000	0.0
17	0x00000000	0.0
18	0x00000000	0.0
19	0x00000000	0.0
20	0x00000000	0.0
21	0x00000000	0.0
22	0x00000000	0.0
23	0x00000000	0.0
24	0x00000000	0.0
25	0x00000000	0.0
26	0x00000000	0.0
27	0x00000000	0.0
28	0x00000000	0.0
29	0x00000000	0.0
30	0x00000000	0.0
31	0x00000000	0.0
32	0x00000000	0.0
33	0x00000000	0.0
34	0x00000000	0.0
35	0x00000000	0.0
36	0x00000000	0.0
37	0x00000000	0.0
38	0x00000000	0.0
39	0x00000000	0.0
40	0x00000000	0.0
41	0x00000000	0.0
42	0x00000000	0.0
43	0x00000000	0.0
44	0x00000000	0.0
45	0x00000000	0.0
46	0x00000000	0.0
47	0x00000000	0.0
48	0x00000000	0.0
49	0x00000000	0.0
50	0x00000000	0.0
51	0x00000000	0.0
52	0x00000000	0.0
53	0x00000000	0.0
54	0x00000000	0.0
55	0x00000000	0.0
56	0x00000000	0.0
57	0x00000000	0.0
58	0x00000000	0.0
59	0x00000000	0.0
60	0x00000000	0.0
61	0x00000000	0.0
62	0x00000000	0.0
63	0x00000000	0.0

bn1.running_mean f4 [64]
0	0x00000000	0.0
1	0x00000000	0.0
2	0x00000000	0.0
3	0x00000000	0.0
4	0x00000000	0.0
5	0x00000000	0.0
6	0x00000000	0.0
7	0x00000000	0.0
8	0x00000000	0.0
9	0x00000000	0.0
10	0x00000000	0.0
11	0x00000000	0.0
12	0x00000000	0.0
13	0x00000000	0.0
14	0x00000000	0.0
15	0x00000000	0.0
16	0x00000000	0.0
17	0x00000000	0.0
18	0x00000000	0.0
19	0x00000000	0.0
20	0x00000000	0.0
21	0x00000000	0.0
22	0x00000000	0.0
23	0x00000000	0.0
24	0x00000000	0.0
25	0x00000000	0.0
26	0x00000000	0.0
27	0x00000000	0.0
28	0x00000000	0.0
29	0x00000000	0.0
30	0x00000000	0.0
31	0x00000000	0.0
32	0x00000000	0.0
33	0x00000000	0.0
34	0x00000000	0.0
35	0x00000000	0.0
36	0x00000000	0.0
37	0x00000000	0.0
38	0x00000000	0.0
39	0x00000000	0.0
40	0x00000000	0.0
41	0x00000000	0.0
42	0x00000000	0.0
43	0x00000000	0.0
44	0x00000000	0.0
45	0x00000000	0.0
46	0x00000000	0.0
47	0x00000000	0.0
48	0x00000000	0.0
49	0x00000000	0.0
50	0x00000000	0.0
51	0x00000000	0.0
52	0x00000000	0.0
53	0x00000000	0.0
54	0x00000000	0.0
55	0x00000000	0.0
56	0x00000000	0.0
57	0x00000000	0.0
58	0x00000000	0.0
59	0x00000000	0.0
60	0x00000000	0.0
61	0x00000000	0.0
62	0x00000000	0.0
63	0x00000000	0.0

bn1.running_var f4 [64]
0	0x3f800000	1.0
1	0x3f800000	1.0
2	0x3f800000	1.0
3	0x3f800000	1.0
4	0x3f800000	1.0
5	0x3f800000	1.0
6	0x3f800000	1.0
7	0x3f800000	1.0
8	0x3f800000	1.0
9	0x3f800000	1.0
10	0x3f800000	1.0
11	0x3f800000	1.0
12	0x3f800000	1.0
13	0x3f800000	1.0
14	0x3f800000	1.0
15	0x3f800000	1.0
16	0x3f800000	1.0
17	0x3f800000	1.0
18	0x3f800000	1.0
19	0x3f800000	1.0
20	0x3f800000	1.0
21	0x3f800000	1.0
22	0x3f800000	1.0
23	0x3f800000	1.0
24	0x3f800000	1.0
25	0x3f800000	1.0
26	0x3f800000	1.0
27	0x3f800000	1.0
28	0x3f800000	1.0
29	0x3f800000	1.0
30	0x3f800000	1.0
31	0x3f800000	1.0
32	0x3f800000	1.0
33	0x3f800000	1.0
34	0x3f800000	1.0
35	0x3f800000	1.0
36	0x3f800000	1.0
37	0x3f800000	1.0
38	0x3f800000	1.0
39	0x3f800000	1.0
40	0x3f800000	1.0
41	0x3f800000	1.0
42	0x3f800000	1.0
43	0x3f800000	1.0
44	0x3f800000	1.0
45	0x3f800000	1.0
46	0x3f800000	1.0
47	0x3f800000	1.0
48	0x3f800000	1.0
49	0x3f800000	1.0
50	0x3f800000	1.0
51	0x3f800000	1.0
52	0x3f800000	1.0
53	0x3f800000	1.0
54	0x3f800000	1.0
55	0x3f800000	1.0
56	0x3f800000	1.0
57	0x3f800000	1.0
58	0x3f800000	1.0
59	0x3f800000	1.0
60	0x3f800000	1.0
61	0x3f800000	1.0
62	0x3f800000	1.0
63	0x3f800000	1.0

conv2.weight f4 [64, 64, 3, 3]
0	0xbc8f7b10	-0.017514735
1	0x3c36b32b	0.011151115
2	0xbd29c20b	-0.04144482
3	0x3d03a696	0.03214129
4	0x3c1a5896	0.009420535
5	0xbcc290d8	-0.023750708
6	0x3c444d70	0.011981353
7	0xbd2729e8	-0.04081145
8	0xbb5e6740	-0.0033936054
9	0xbc9d0886	-0.019169103
10	0x3ca795f3	0.020457244
11	0xbd2a410c	-0.04156594
12	0xbb8140eb	-0.0039445064
13	0xbc4c478b	-0.012468229
14	0x3cb5edc8	0.02220811
15	0x3d0f58e8	0.034996897
16	0x3b1bcec0	0.0023774356
17	0xbc205a8b	-0.009787212
18	0x3b58ad00	0.00330621
19	0x3d14cbfa	0.03632734
20	0x3c938380	0.01800704
21	0xbcf289ab	-0.02960666
22	0xbba6a3a0	-0.0050854236
23	0x3d1e454f	0.038640317
24	0x3cd6c9f3	0.026219344
25	0xbbddea96	-0.0067723496
26	0x3c7bc0a6	0.015365755
27	0xbce8f0ce	-0.028435137
28	0xbcdc0b90	-0.026860982
29	0x3d068d24	0.032849446
30	0x3d230c46	0.039806627
31	0xbc325440	-0.010884345
32	0x3cb7cb9e	0.02243596
33	0x3d06ebea	0.03293983
34	0xba1c2d56	-0.00059576833
35	0xbc2c2ea0	-0.010509163
36	0x3c63ddc0	0.01390785
37	0xbcb8c4f0	-0.022554845
38	0x3d06c712	0.032904692
39	0x3aac5e56	0.0013150673
40	0x3d0eda23	0.034876
41	0xbd29895e	-0.04139077
42	0xbb6abf00	-0.0035819411
43	0x3cba69c6	0.022755515
44	0x3c7fbda0	0.015609175
45	0xbbd69be0	-0.0065493435
46	0xbc6a0566	-0.014283514
47	0xbd050fb0	-0.032485664
48	0x3cbaf0b6	0.022819858
49	0xbcbdfda3	-0.023192232
50	0x3cc25c76	0.02372573
51	0xbc143c26	-0.009047544
52	0xbd13c4b6	-0.03607627
53	0x3c812ba0	0.015767872
54	0xbca4719e	-0.020073708
55	0x3b9bcf60	0.0047549456
56	0xbb645516	-0.0034840754
57	0x3d1a80da	0.03772054
58	0x3cabacb8	0.020956382
59	0xbba48980	-0.005021274
60	0xbb4c7ac0	-0.0031201094
61	0x3c480020	0.012207061
62	0xbd1f0f48	-0.038832933
63	0x3cac5f93	0.021041667
64	0xbbd3c920	-0.006463185
65	0xbcba24eb	-0.022722682
66	0xbc402dab	-0.011729638
67	0x3b8dfc60	0.004333064
68	0xbc5d684b	-0.013513635
69	0xbb7e68ab	-0.0038819711
70	0x3cbf0fbb	0.02332293
71	0xbcaeb476	-0.021326285
72	0xbd269740	-0.040671587
73	0x3c6b3550	0.014355972
74	0x3a643e56	0.00087067985
75	0xbd06d1cc	-0.03291492
76	0x3c9c077e	0.019046541
77	0xbd144727	-0.03620067
78	0x3c695b40	0.014242947
79	0xbd001204	-0.03126718
80	0x3ca10e6e	0.0196602
81	0xbce09676	-0.027415495
82	0x3b97b5cb	0.0046298257
83	0xbce65bce	-0.028119948
84	0x3d1ba193	0.037995886
85	0xbcdceb23	-0.02696759
86	0x3bdea140	0.006794125
87	0x39eb7600	0.0004491061
88	0xbcb48868	-0.0220377
89	0xbd01b4db	-0.031666618
90	0x3d1ba696	0.038000666
91	0xbd11e8d0	-0.035622418
92	0xbc5b47db	-0.013383831
93	0xbca34c60	-0.01993388
94	0x3d0a7850	0.033806145
95	0xbd1f8a6e	-0.038950376
96	0xbcce1c70	-0.025160044
97	0xbd1dd154	-0.03852971
98	0x3d076c83	0.03306247
99	0x3d074238	0.033022135
100	0x3d1242f8	0.035708398
101	0x3cba2d8e	0.0227268
102	0x3c2da3fb	0.010598178
103	0xbb2cef2b	-0.0026387672
104	0x3cb4f423	0.02208907
105	0x3c861723	0.016368454
106	0xbcf42753	-0.029803907
107	0xbcbad143	-0.022804862
108	0xbd1338c0	-0.035942793
109	0x3c83ffcb	0.016113183
110	0x3c748150	0.014923409
111	0xbc3bc4d0	-0.011460498
112	0xbc4162cb	-0.011803339
113	0xbd0ef69a	-0.034903146
114	0x3b92112b	0.004457613
115	0x3d1de05f	0.038544055
116	0x3ce4ee48	0.027945653
117	0x3b3c9bab	0.0028779309
118	0x3bcf36c0	0.0063236654
119	0xbc9dd5ab	-0.019266924
120	0x3c09c7cb	0.008409451
121	0x3c2b63fb	0.010460849
122	0x3c393b60	0.01130566
123	0x3d1ff61a	0.03905306
124	0x3ae0522b	0.0017114332
125	0x3bff460b	0.007790332
126	0x3d21c8c2	0.0394981
127	0xbcc05d6e	-0.02348205
128	0xba511700	-0.00079761446
129	0x3cf7964e	0.030223038
130	0x3c623b1b	0.013808037
131	0x3ca9a593	0.020708835
132	0x3d243182	0.040086277
133	0x3cf19f2e	0.029494848
134	0x3c0f5980	0.008749366
135	0x3c280296	0.010254523
136	0x3c41e4db	0.011834349
137	0x3c3ec020	0.011642486
138	0xbceeae6e	-0.029135909
139	0x3caefcd0	0.021360785
140	0x3c190016	0.009338399
141	0xbd08f357	-0.033435192
142	0xbd1fa06b	-0.038971346
143	0x3c8e7df0	0.017394036
144	0xbcc2f66b	-0.023799142
145	0x3c1a41bb	0.009415085
146	0xbcbdf143	-0.023186332
147	0x3c460536	0.012086203
148	0xbd19a0a0	-0.0375067
149	0x3b4d2016	0.0031299642
150	0x3d1b8016	0.03796395
151	0xbd02cf16	-0.031935774
152	0x3c835fa3	0.016036814
153	0xbcd3db03	-0.025861269
154	0x3c910fe8	0.01770778
155	0xbcedca6b	-0.029027184
156	0xbcaa6880	-0.020801783
157	0x3b00bd16	0.0019643954
158	0xbd0c6dd2	-0.03428442
159	0xbd26aa48	-0.040689737
160	0x3c819dab	0.015822252
161	0x3c514016	0.012771627
162	0x3c354bfb	0.011065478
163	0xbcfc3123	-0.030785149
164	0xbc125f9b	-0.008933927
165	0xba877256	-0.0010333757
166	0xbd2895b8	-0.041158408
167	0x3d234a0f	0.03986555
168	0xbcf60416	-0.030031245
169	0x3bf13960	0.007361576
170	0xbc32c226	-0.010910546
171	0xbcf6ac76	-0.030111533
172	0x3cc74950	0.02432695
173	0xbbfc244b	-0.007694756
174	0x3d1a17ce	0.03762036
175	0xbce68ea3	-0.028144186
176	0x3cc9bf70	0.024627417
177	0x3c26af10	0.010173574
178	0x3cc7a0e8	0.024368718
179	0x3c9f90c0	0.019478202
180	0x3c2b1330	0.010441586
181	0x3c56f560	0.013120025
182	0x3c55438b	0.013016592
183	0xbd23618e	-0.039887957
184	0xbd0cce2a	-0.0343763
185	0xbd19e1d4	-0.037568882
186	0x3cfe4cfb	0.031042567
187	0xbc9fdc5e	-0.019514259
188	0x3c866d56	0.016409557
189	0x3d2542ca	0.0403469
190	0x3c88cdae	0.016699638
191	0xbb97cc36	-0.004632498
192	0xbcbde4c6	-0.023180377
193	0xbb6c7596	-0.003608083
194	0xbcc58f43	-0.024116164
195	0x3c90df2b	0.01768454
196	0x3ae81f2b	0.0017709484
197	0xbc48474b	-0.012224029
198	0x3ba6e42b	0.0050931177
199	0x3cc8db7e	0.024518725
200	0x3cfe9fae	0.031082
201	0x3cdceee8	0.026969388
202	0x3d1a55a7	0.03767934
203	0x392a4156	0.00016236803
204	0x3d233d84	0.039853588
205	0xbce855b6	-0.028361183
206	0x3bf559a0	0.007487491
207	0x3bfb9a2b	0.0076782904
208	0xbc3e443b	-0.011612947
209	0xbc2c0a70	-0.010500535
210	0xbcaea400	-0.021318436
211	0xbd1feec3	-0.03904606
212	0x3c9d93ab	0.019235453
213	0xbc121ea0	-0.008918434
214	0x3c59d74b	0.013295959
215	0x3b7431c0	0.0037261099
216	0x3cd150a3	0.025551146
217	0x3b19da40	0.0023476034
218	0xbc0a8170	-0.008453712
219	0x3bbcdd20	0.005763665
220	0xba23c256	-0.0006246915
221	0xbcad8d56	-0.021185558
222	0xbcbcf09b	-0.023063948
223	0xbd27137a	-0.04079006
224	0xbcd62d7e	-0.02614474
225	0x39995d56	0.00029251975
226	0xbcd31326	-0.025765967
227	0x3cbb8633	0.02289114
228	0xbd2532a4	-0.040331498
229	0x3ca9513b	0.020668617
230	0xbccc62b3	-0.024949407
231	0xb90eac00	-0.0001360625
232	0x3b2097eb	0.0024504613
233	0xbc936bf8	-0.01799582
234	0xbcc8b610	-0.024500877
235	0x3c926fe3	0.017875617
236	0x3ccd8936	0.025089841
237	0x3bf694b6	0.007525052
238	0x3cb8a1ee	0.022538152
239	0xbcd1ca23	-0.025609082
240	0xbc906073	-0.017624116
241	0x3d1107d4	0.035407856
242	0xbc5c5806	-0.013448721
243	0x3c755f70	0.014976367
244	0xbcf2ad78	-0.029623732
245	0xbcaa40fe	-0.020782944
246	0x3c109f30	0.008827016
247	0x3d0bcf40	0.034133196
248	0x3b446e00	0.0029972792
249	0xbcd076d3	-0.025447285
250	0xbceb4c70	-0.028722972
251	0xbc9c0b4b	-0.019048354
252	0x3c7368db	0.014856542
253	0xbcedc918	-0.029026553
254	0x3cb8c8fb	0.022556772
255	0xbab56b80	-0.0013841242

conv2.bias f4 [64]
0	0xbbc219eb	-0.0059235
1	0xbd181fe2	-0.03713978
2	0x3cc43ce8	0.023954824
3	0xbd255e54	-0.04037316
4	0x3d26575f	0.040610667
5	0x3c8373de	0.01604646
6	0xbd00ea34	-0.031473354
7	0x3c3cabfb	0.011515613
8	0xbc80e040	-0.01573193
9	0x3cf1225e	0.029435333
10	0x3c6e5bb6	0.014548233
11	0xbc52fbe0	-0.0128774345
12	0x3c7e70a6	0.015529787
13	0x3c2e9730	0.010656163
14	0x3d015f24	0.031584874
15	0xbd10cd02	-0.03535176
16	0xbd0b1247	-0.033952978
17	0x3bca7f40	0.00617972
18	0xbc1c6246	-0.009544915
19	0x3ca26698	0.019824311
20	0x3d05a6b7	0.032629695
21	0x3cf750a8	0.030189827
22	0x3aa71280	0.0012746602
23	0x3d037dee	0.032102518
24	0x3cf64673	0.03006289
25	0xbce4442e	-0.027864542
26	0xbc9b6288	-0.018967882
27	0x3cca2a1e	0.024678286
28	0x3d0387e4	0.032112017
29	0x3cfbe2a8	0.030747727
30	0x3d096727	0.03354564
31	0xbcaf50fb	-0.02140092
32	0x3c8946b0	0.01675734
33	0xbb4a81ab	-0.0030900042
34	0x3caaabc0	0.02083385
35	0x3d1752a2	0.03694404
36	0x3cd2ca08	0.025731102
37	0x3d02b9dc	0.03191553
38	0xbc74a3d6	-0.01493164
39	0xbcb0e206	-0.021592151
40	0xbce94813	-0.02847675
41	0x3c120eeb	0.0089146895
42	0x3d0d2653	0.034460377
43	0x3ca2533e	0.019815084
44	0x3c40071b	0.011720444
45	0xbbce6ce0	-0.0062996
46	0xba6bb056	-0.00089908147
47	0x3a7752ab	0.0009434621
48	0x3c9324ce	0.017961886
49	0x3b559f16	0.0032596043
50	0xbc6ecd36	-0.014575293
51	0x3d29c04b	0.04144315
52	0xbd16f4b2	-0.036854453
53	0xbb6bb7ab	-0.003596763
54	0x3c9e5963	0.019329732
55	0x3c00aa56	0.007853111
56	0x3a1fa600	0.00060901046
57	0x3b8a1c56	0.0042148037
58	0xbb582c96	-0.003298556
59	0xbb8fc1a0	-0.0043870956
60	0xbb976bcb	-0.004621004
61	0xbd0abf4b	-0.033873837
62	0x3d07e2db	0.03317533
63	0x3cde473b	0.027133575

bn2.weight f4 [64]
0	0x3f800000	1.0
1	0x3f800000	1.0
2	0x3f800000	1.0
3	0x3f800000	1.0
4	0x3f800000	1.0
5	0x3f800000	1.0
6	0x3f800000	1.0
7	0x3f800000	1.0
8	0x3f800000	1.0
9	0x3f800000	1.0
10	0x3f800000	1.0
11	0x3f800000	1.0
12	0x3f800000	1.0
13	0x3f800000	1.0
14	0x3f800000	1.0
15	0x3f800000	1.0
16	0x3f800000	1.0
17	0x3f800000	1.0
18	0x3f800000	1.0
19	0x3f800000	1.0
20	0x3f800000	1.0
21	0x3f800000	1.0
22	0x3f800000	1.0
23	0x3f800000	1.0
24	0x3f800000	1.0
25	0x3f800000	1.0
26	0x3f800000	1.0
27	0x3f800000	1.0
28	0x3f800000	1.0
29	0x3f800000	1.0
30	0x3f800000	1.0
31	0x3f800000	1.0
32	0x3f800000	1.0
33	0x3f800000	1.0
34	0x3f800000	1.0
35	0x3f800000	1.0
36	0x3f800000	1.0
37	0x3f800000	1.0
38	0x3f800000	1.0
39	0x3f800000	1.0
40	0x3f800000	1.0
41	0x3f800000	1.0
42	0x3f800000	1.0
43	0x3f800000	1.0
44	0x3f800000	1.0
45	0x3f800000	1.0
46	0x3f800000	1.0
47	0x3f800000	1.0
48	0x3f800000	1.0
49	0x3f800000	1.0
50	0x3f800000	1.0
51	0x3f800000	1.0
52	0x3f800000	1.0
53	0x3f800000	1.0
54	0x3f800000	1.0
55	0x3f800000	1.0
56	0x3f800000	1.0
57	0x3f800000	1.0
58	0x3f800000	1.0
59	0x3f800000	1.0
60	0x3f800000	1.0
61	0x3f800000	1.0
62	0x3f800000	1.0
63	0x3f800000	1.0

bn2.bias f4 [64]
0	0x00000000	0.0
1	0x00000000	0.0
2	0x00000000	0.0
3	0x00000000	0.0
4	0x00000000	0.0
5	0x00000000	0.0
6	0x00000000	0.0
7	0x00000000	0.0
8	0x00000000	0.0
9	0x00000000	0.0
10	0x00000000	0.0
11	0x00000000	0.0
12	0x00000000	0.0
13	0x00000000	0.0
14	0x00000000	0.0
15	0x00000000	0.0
16	0x00000000	0.0
17	0x00000000	0.0
18	0x00000000	0.0
19	0x00000000	0.0
20	0x00000000	0.0
21	0x00000000	0.0
22	0x00000000	0.0
23	0x00000000	0.0
24	0x00000000	0.0
25	0x00000000	0.0
26	0x00000000	0.0
27	0x00000000	0.0
28	0x00000000	0.0
29	0x00000000	0.0
30	0x00000000	0.0
31	0x00000000	0.0
32	0x00000000	0.0
33	0x00000000	0.0
34	0x00000000	0.0
35	0x00000000	0.0
36	0x00000000	0.0
37	0x00000000	0.0
38	0x00000000	0.0
39	0x00000000	0.0
40	0x00000000	0.0
41	0x00000000	0.0
42	0x00000000	0.0
43	0x00000000	0.0
44	0x00000000	0.0
45	0x00000000	0.0
46	0x00000000	0.0
47	0x00000000	0.0
48	0x00000000	0.0
49	0x00000000	0.0
50	0x00000000	0.0
51	0x00000000	0.0
52	0x00000000	0.0
53	0x00000000	0.0
54	0x00000000	0.0
55	0x00000000	0.0
56	0x00000000	0.0
57	0x00000000	0.0
58	0x00000000	0.0
59	0x00000000	0.0
60	0x00000000	0.0
61	0x00000000	0.0
62	0x00000000	0.0
63	0x00000000	0.0

bn2.running_mean f4 [64]
0	0x00000000	0.0
1	0x00000000	0.0
2	0x00000000	0.0
3	0x00000000	0.0
4	0x00000000	0.0
5	0x00000000	0.0
6	0x00000000	0.0
7	0x00000000	0.0
8	0x00000000	0.0
9	0x00000000	0.0
10	0x00000000	0.0
11	0x00000000	0.0
12	0x00000000	0.0
13	0x00000000	0.0
14	0x00000000	0.0
15	0x00000000	0.0
16	0x00000000	0.0
17	0x00000000	0.0
18	0x00000000	0.0
19	0x00000000	0.0
20	0x00000000	0.0
21	0x00000000	0.0
22	0x00000000	0.0
23	0x00000000	0.0
24	0x00000000	0.0
25	0x00000000	0.0
26	0x00000000	0.0
27	0x00000000	0.0
28	0x00000000	0.0
29	0x00000000	0.0
30	0x00000000	0.0
31	0x00000000	0.0
32	0x00000000	0.0
33	0x00000000	0.0
34	0x00000000	0.0
35	0x00000000	0.0
36	0x00000000	0.0
37	0x00000000	0.0
38	0x00000000	0.0
39	0x00000000	0.0
40	0x00000000	0.0
41	0x00000000	0.0
42	0x00000000	0.0
43	0x00000000	0.0
44	0x00000000	0.0
45	0x00000000	0.0
46	0x00000000	0.0
47	0x00000000	0.0
48	0x00000000	0.0
49	0x00000000	0.0
50	0x00000000	0.0
51	0x00000000	0.0
52	0x00000000	0.0
53	0x00000000	0.0
54	0x00000000	0.0
55	0x00000000	0.0
56	0x00000000	0.0
57	0x00000000	0.0
58	0x00000000	0.0
59	0x00000000	0.0
60	0x00000000	0.0
61	0x00000000	0.0
62	0x00000000	0.0
63	0x00000000	0.0

bn2.running_var f4 [64]
0	0x3f800000	1.0
1	0x3f800000	1.0
2	0x3f800000	1.0
3	0x3f800000	1.0
4	0x3f800000	1.0
5	0x3f800000	1.0
6	0x3f800000	1.0
7	0x3f800000	1.0
8	0x3f800000	1.0
9	0x3f800000	1.0
10	0x3f800000	1.0
11	0x3f800000	1.0
12	0x3f800000	1.0
13	0x3f800000	1.0
14	0x3f800000	1.0
15	0x3f800000	1.0
16	0x3f800000	1.0
17	0x3f800000	1.0
18	0x3f800000	1.0
19	0x3f800000	1.0
20	0x3f800000	1.0
21	0x3f800000	1.0
22	0x3f800000	1.0
23	0x3f800000	1.0
24	0x3f800000	1.0
25	0x3f800000	1.0
26	0x3f800000	1.0
27	0x3f800000	1.0
28	0x3f800000	1.0
29	0x3f800000	1.0
30	0x3f800000	1.0
31	0x3f800000	1.0
32	0x3f800000	1.0
33	0x3f800000	1.0
34	0x3f800000	1.0
35	0x3f800000	1.0
36	0x3f800000	1.0
37	0x3f800000	1.0
38	0x3f800000	1.0
39	0x3f800000	1.0
40	0x3f800000	1.0
41	0x3f800000	1.0
42	0x3f800000	1.0
43	0x3f800000	1.0
44	0x3f800000	1.0
45	0x3f800000	1.0
46	0x3f800000	1.0
47	0x3f800000	1.0
48	0x3f800000	1.0
49	0x3f800000	1.0
50	0x3f800000	1.0
51	0x3f800000	1.0
52	0x3f800000	1.0
53	0x3f800000	1.0
54	0x3f800000	1.0
55	0x3f800000	1.0
56	0x3f800000	1.0
57	0x3f800000	1.0
58	0x3f800000	1.0
59	0x3f800000	1.0
60	0x3f800000	1.0
61	0x3f800000	1.0
62	0x3f800000	1.0
63	0x3f800000	1.0

conv3.weight f4 [64, 64, 3, 3]
0	0xbd277544	-0.040883318
1	0xbd197df8	-0.03747365
2	0xbc0dbd66	-0.008651113
3	0xbd1deefe	-0.038558
4	0x3cbde858	0.02318208
5	0xbd02faca	-0.031977452
6	0xbd09b726	-0.03362193
7	0x3d0c2cfb	0.034222584
8	0x3c47ce3b	0.012195165
9	0xbc1c58c0	-0.009542644
10	0xbd000aec	-0.031260416
11	0x3c3edd40	0.01164943
12	0x3d19995f	0.03749978
13	0x3d1924b0	0.037388504
14	0xbb539296	-0.0032283417
15	0xbca43f5b	-0.020049741
16	0xbbcd8676	-0.0062721325
17	0x3c48dfa6	0.012260353
18	0x3d00ba1e	0.031427495
19	0xbca73d3b	-0.02041494
20	0x3a8bd6d6	0.0010668884
21	0xbcde5ab6	-0.027142864
22	0xbd29ae4e	-0.041425996
23	0xbb90e476	-0.004421766
24	0x3cc34538	0.023836717
25	0x3b302c80	0.0026881993
26	0xbc36ad4b	-0.011149715
27	0x3c2aa230	0.010414645
28	0x3ce9ce40	0.02854073
29	0xbcaf3c6b	-0.021391114
30	0xbcc41c2e	-0.023939218
31	0x3b24b3ab	0.0025131505
32	0x3cc6c61e	0.024264392
33	0xbd2891a6	-0.041154526
34	0xbc51043b	-0.012757356
35	0x3c21d520	0.009877473
36	0xbc244b00	-0.010027647
37	0x3cf8df0b	0.030379793
38	0xbccb5db0	-0.024824947
39	0xbb12f3c0	-0.0022423118
40	0xbcbddff3	-0.023178076
41	0xbc839596	-0.01606254
42	0xbd266efb	-0.040633183
43	0xbd196c74	-0.037456945
44	0xbc7d56a6	-0.015462553
45	0x3cc8434e	0.024446156
46	0xbca0e343	-0.019639617
47	0x3bc6ef80	0.006071031
48	0x3b39adab	0.0028332274
49	0xbd05e0a2	-0.03268493
50	0x3cb70a83	0.02234388
51	0xbcbd6a60	-0.023122013
52	0xbb2668c0	-0.0025392026
53	0xbd120252	-0.035646744
54	0x3c90c128	0.01767023
55	0x3c92c01e	0.017913874
56	0xba7d9756	-0.0009673735
57	0xbd1d65ec	-0.03842728
58	0xbced3e63	-0.028960412
59	0x3cf2f8ce	0.029659655
60	0xbc9c97c8	-0.019115344
61	0xbd00f8d2	-0.031487294
62	0xbc293c1b	-0.010329272
63	0x3ca71f83	0.020400768
64	0xbce1041b	-0.027467778
65	0xbd2634b4	-0.040577605
66	0xbd17c21f	-0.037050363
67	0x3cc58370	0.024110526
68	0x3d28d35a	0.041217186
69	0xbc763240	-0.015026629
70	0x3cbe4d93	0.02323035
71	0x3d1ecfd7	0.03877243
72	0x3c08c4db	0.008347715
73	0xbcb83138	-0.022484407
74	0x3c8efd63	0.017454809
75	0x3cad8778	0.02118276
76	0xbceb25b8	-0.02870451
77	0xbcb0f8ae	-0.021602955
78	0xbd21cb38	-0.039500445
79	0x3b500b6b	0.0031745087
80	0xbc8f06a6	-0.017459225
81	0x3c9b7ac3	0.018979436
82	0x3cecb33e	0.028894063
83	0xbcaad243	-0.020852214
84	0xbcddb0bb	-0.02706181
85	0x3c117cab	0.008879821
86	0x3b6591c0	0.00350295
87	0xbbe0cb60	-0.0068601817
88	0xbb9798c0	-0.0046263635
89	0xbd0c339a	-0.0342289
90	0x3c07684b	0.0082646115
91	0x3ca523ab	0.02015861
92	0x3c8d9abe	0.0172857
93	0xbd0172b8	-0.031603545
94	0x3ae583ab	0.0017510554
95	0x3c60a10b	0.013710271
96	0x3d0bf784	0.034171596
97	0xbd006af4	-0.031352
98	0x3ce3e80b	0.027820608
99	0x3c9d98fb	0.019237986
100	0x3c4a85d0	0.012361005
101	0xbcbe82bb	-0.023255697
102	0xbd2022d4	-0.039095715
103	0x3cc48a0e	0.02399161
104	0x3c3615d0	0.011113599
105	0x3cbd6418	0.023119017
106	0xbb38972b	-0.0028166275
107	0x3ce0cb30	0.027440637
108	0x3cbd5bdb	0.02311509
109	0xbc8887fb	-0.016666403
110	0xbd2379b7	-0.039911
111	0xbd24827b	-0.0401635
112	0x3ce7f56e	0.028315272
113	0x3d19660a	0.037450828
114	0xbd1b200e	-0.037872367
115	0x3c5aeb5b	0.013361777
116	0x3d01e96f	0.03171676
117	0xbc64ad90	-0.013957396
118	0x39f8a2ab	0.00047423443
119	0x3c8f240e	0.017473247
120	0x3c8af25e	0.016961273
121	0x3c9e6448	0.019334927
122	0xbb361f40	-0.0027789623
123	0x3c34c830	0.011034057
124	0x3cb0f2e6	0.021600198
125	0x3ce83873	0.02834723
126	0xbcb385b3	-0.021914339
127	0xbcda0c76	-0.02661727
128	0xbacd04d6	-0.00156417
129	0x3bc4c116	0.006004463
130	0x3c1ed75b	0.009694899
131	0xbba46ef6	-0.0050181104
132	0xbccaead3	-0.024770176
133	0x3bc3e8f6	0.005978699
134	0x3a169856	0.0005744746
135	0xbd06e53e	-0.032933466
136	0x3cd83cb0	0.026396126
137	0xbd046d37	-0.032330718
138	0xbc9388ae	-0.01800951
139	0xbd1ffc52	-0.03905899
140	0xba27b600	-0.00063976645
141	0xbd1f4ea8	-0.03889337
142	0xbc884c66	-0.016637992
143	0x3d257248	0.04039219
144	0xbce752e6	-0.028237771
145	0xbc870fd3	-0.016487038
146	0x3cf7c6be	0.030246135
147	0x3ca60663	0.020266717
148	0x3cd3dc83	0.025861984
149	0xbc31ea56	-0.010859093
150	0x3bcf4d4b	0.0063263527
151	0xb9edba00	-0.00045342743
152	0xbbdd23ab	-0.0067486367
153	0xbd263c40	-0.040584803
154	0xbd117416	-0.0355111
155	0x3c02a4d6	0.00797387
156	0xbcb29366	-0.0217988
157	0x3d20cfe8	0.039260775
158	0xbb0e1e40	-0.002168551
159	0x3ce8e72e	0.028430548
160	0xbb4aa056	-0.0030918322
161	0x3cde5420	0.027139723
162	0x3cb24380	0.021760702
163	0xbd11006e	-0.0354008
164	0x3c4dfea0	0.012572914
165	0x3d230766	0.039801978
166	0xbc8dc88e	-0.017307546
167	0xb889c000	-6.568432e-05
168	0xbcd9aa1b	-0.02657037
169	0xbc817780	-0.015804052
170	0x3c93a5e8	0.018023446
171	0xbc713b8b	-0.014723669
172	0x3d183554	0.037160233
173	0x3b2a7b00	0.0026013255
174	0x3bef4b40	0.0073026717
175	0xbd1f1526	-0.038838528
176	0xbc895440	-0.016763806
177	0x3b86b82b	0.00411131
178	0x3d17045a	0.036869384
179	0xbc9509b3	-0.018193102
180	0xbcdbbbde	-0.02682298
181	0x3c389aeb	0.011267404
182	0x3cf8c008	0.030365005
183	0x3cde96eb	0.027171573
184	0x3c421f6b	0.011848311
185	0xbcd382eb	-0.025819262
186	0x3ca9e508	0.020739093
187	0x3b111396	0.0022136918
188	0x3c278266	0.0102239605
189	0xbd03b374	-0.03215356
190	0xbb3ae5d6	-0.002851834
191	0x3cf00003	0.02929688
192	0x3d04cece	0.032423787
193	0x3ccbadd6	0.024863165
194	0x3b583016	0.0032987646
195	0x3c8eabd6	0.017415922
196	0x3cc0ee40	0.023551106
197	0x3d0e26d6	0.034705006
198	0xbd297244	-0.041368738
199	0x3c44968b	0.011998783
200	0xbc8a9300	-0.016915798
201	0xbd2a75f3	-0.04161639
202	0xbaae832b	-0.0013314238
203	0xbc9ddfd6	-0.019271772
204	0x3cb5138e	0.022104051
205	0x3c82eb0b	0.015981218
206	0xbd2454e8	-0.040120035
207	0x3c31dd16	0.010855934
208	0x3c82a956	0.015949886
209	0x3ce5762e	0.028010454
210	0x3c99c32e	0.018769827
211	0x3acfa456	0.0015841823
212	0x3c233c20	0.009963065
213	0xbc959003	-0.018257147
214	0x3cd305be	0.025759574
215	0xbc1ab866	-0.009443378
216	0xbcb00ce0	-0.021490514
217	0xbbbf3576	-0.0058352305
218	0x3d26418f	0.040589865
219	0x3c6ce80b	0.01445962
220	0x3d1643d7	0.03668579
221	0x3d266bc0	0.040630102
222	0xbc5c882b	-0.013460199
223	0x3c39cc56	0.011340221
224	0xbce34f46	-0.027747761
225	0xbd0f02a0	-0.034914613
226	0xbca5ddb6	-0.020247322
227	0xbc328500	-0.0108959675
228	0xbce51bdb	-0.027967384
229	0x3c47a7c0	0.012185991
230	0xbcf1808b	-0.02948024
231	0xbce50656	-0.027957123
232	0xbca2dfb8	-0.019882068
233	0x3d1d0c87	0.038342025
234	0xbcc96516	-0.024584334
235	0xbd1aec2a	-0.03782288
236	0xbc8a740e	-0.016901042
237	0xbc505456	-0.01271542
238	0x3b9459b6	0.004527296
239	0xbc22efc6	-0.009944862
240	0x3cbc5463	0.022989457
241	0xbbeef94b	-0.0072929016
242	0x3ccaaf63	0.024741834
243	0xbcb6aeae	-0.02230009
244	0xbcf3bdeb	-0.029753646
245	0x3cc63dd3	0.024199402
246	0xbd0124df	-0.031529304
247	0x3d0aa94b	0.033852857
248	0xbbf6672b	-0.007519623
249	0xbc005d20	-0.007834703
250	0x3c198576	0.0093701985
251	0xbbda504b	-0.0066624037
252	0x3ce6a070	0.028152674
253	0xbbf23fc0	-0.0073928535
254	0x3d28b9c0	0.04119277
255	0x3a207056	0.0006120255

conv3.bias f4 [64]
0	0x3d0aa55a	0.033849098
1	0xbb505f16	-0.0031794957
2	0xbca927c3	-0.020648843
3	0x3d19f7d2	0.037589855
4	0x3ca03206	0.019555103
5	0xbcf152e3	-0.029458469
6	0xbd1ea78c	-0.038734004
7	0xbd20af5f	-0.039229747
8	0x3bd60960	0.0065318793
9	0xbca3a4bb	-0.01997601
10	0x3c377c76	0.011199107
11	0xbc4afe86	-0.012389785
12	0xbcdd8463	-0.027040666
13	0xbc1ee246	-0.0096975025
14	0xbccc045e	-0.024904426
15	0x3d2468af	0.040138897
16	0xbd04cb87	-0.03242066
17	0xbd22d2a3	-0.03975166
18	0x3c60ea8b	0.013727794
19	0x3b0a252b	0.0021079283
20	0x3c62d866	0.013845539
21	0xbc25fc30	-0.010130927
22	0xbbb8e0eb	-0.0056420467
23	0x3d074adc	0.033030376
24	0xbc818898	-0.015812203
25	0x3cdc785e	0.026912864
26	0xbcd14018	-0.025543258
27	0xbcd060b6	-0.02543674
28	0x3c2e9636	0.01065593
29	0x3cde1b58	0.027112648
30	0x3d2a67ce	0.041602902
31	0x3d077027	0.03306594
32	0x3d0c0d7b	0.034192543
33	0x3c54d360	0.012989849
34	0x3d0191d4	0.031633213
35	0x3cdcafb8	0.026939258
36	0x3c2d1d7b	0.010566111
37	0x3aecbd56	0.0018061798
38	0xbc9c8da0	-0.0191105
39	0x3c4a9f60	0.0123670995
40	0x3c6cad3b	0.014445598
41	0x3cea3a8e	0.028592374
42	0x3c38a016	0.011268636
43	0xbbcfa40b	-0.006336694
44	0xbc171736	-0.0092218425
45	0xb96a9000	-0.00022369623
46	0x3d0e187e	0.034691326
47	0x3d25a506	0.04044058
48	0xbc8577c0	-0.016292453
49	0x3bc308eb	0.005951991
50	0x3d26c677	0.040716615
51	0x3d0b5ea0	0.03402579
52	0xbbe06520	-0.0068479925
53	0xbc1f2ae6	-0.009714818
54	0xbae1f8d6	-0.0017240297
55	0x3ccc7530	0.024958223
56	0xbce1f618	-0.027583167
57	0x3c94ffb8	0.018188342
58	0xbd043eb8	-0.032286376
59	0xbd03d5a3	-0.03218616
60	0x3d285b6b	0.041102808
61	0x3b950476	0.004547651
62	0xbd020952	-0.03174717
63	0xbc3ed8e0	-0.011648387

bn3.weight f4 [64]
0	0x3f800000	1.0
1	0x3f800000	1.0
2	0x3f800000	1.0
3	0x3f800000	1.0
4	0x3f800000	1.0
5	0x3f800000	1.0
6	0x3f800000	1.0
7	0x3f800000	1.0
8	0x3f800000	1.0
9	0x3f800000	1.0
10	0x3f800000	1.0
11	0x3f800000	1.0
12	0x3f800000	1.0
13	0x3f800000	1.0
14	0x3f800000	1.0
15	0x3f800000	1.0
16	0x3f800000	1.0
17	0x3f800000	1.0
18	0x3f800000	1.0
19	0x3f800000	1.0
20	0x3f800000	1.0
21	0x3f800000	1.0
22	0x3f800000	1.0
23	0x3f800000	1.0
24	0x3f800000	1.0
25	0x3f800000	1.0
26	0x3f800000	1.0
27	0x3f800000	1.0
28	0x3f800000	1.0
29	0x3f800000	1.0
30	0x3f800000	1.0
31	0x3f800000	1.0
32	0x3f800000	1.0
33	0x3f800000	1.0
34	0x3f800000	1.0
35	0x3f800000	1.0
36	0x3f800000	1.0
37	0x3f800000	1.0
38	0x3f800000	1.0
39	0x3f800000	1.0
40	0x3f800000	1.0
41	0x3f800000	1.0
42	0x3f800000	1.0
43	0x3f800000	1.0
44	0x3f800000	1.0
45	0x3f800000	1.0
46	0x3f800000	1.0
47	0x3f800000	1.0
48	0x3f800000	1.0
49	0x3f800000	1.0
50	0x3f800000	1.0
51	0x3f800000	1.0
52	0x3f800000	1.0
53	0x3f800000	1.0
54	0x3f800000	1.0
55	0x3f800000	1.0
56	0x3f800000	1.0
57	0x3f800000	1.0
58	0x3f800000	1.0
59	0x3f800000	1.0
60	0x3f800000	1.0
61	0x3f800000	1.0
62	0x3f800000	1.0
63	0x3f800000	1.0

bn3.bias f4 [64]
0	0x00000000	0.0
1	0x00000000	0.0
2	0x00000000	0.0
3	0x00000000	0.0
4	0x00000000	0.0
5	0x00000000	0.0
6	0x00000000	0.0
7	0x00000000	0.0
8	0x00000000	0.0
9	0x00000000	0.0
10	0x00000000	0.0
11	0x00000000	0.0
12	0x00000000	0.0
13	0x00000000	0.0
14	0x00000000	0.0
15	0x00000000	0.0
16	0x00000000	0.0
17	0x00000000	0.0
18	0x00000000	0.0
19	0x00000000	0.0
20	0x00000000	0.0
21	0x00000000	0.0
22	0x00000000	0.0
23	0x00000000	0.0
24	0x00000000	0.0
25	0x00000000	0.0
26	0x00000000	0.0
27	0x00000000	0.0
28	0x00000000	0.0
29	0x00000000	0.0
30	0x00000000	0.0
31	0x00000000	0.0
32	0x00000000	0.0
33	0x00000000	0.0
34	0x00000000	0.0
35	0x00000000	0.0
36	0x00000000	0.0
37	0x00000000	0.0
38	0x00000000	0.0
39	0x00000000	0.0
40	0x00000000	0.0
41	0x00000000	0.0
42	0x00000000	0.0
43	0x00000000	0.0
44	0x00000000	0.0
45	0x00000000	0.0
46	0x00000000	0.0
47	0x00000000	0.0
48	0x00000000	0.0
49	0x00000000	0.0
50	0x00000000	0.0
51	0x00000000	0.0
52	0x00000000	0.0
53	0x00000000	0.0
54	0x00000000	0.0
55	0x00000000	0.0
56	0x00000000	0.0
57	0x00000000	0.0
58	0x00000000	0.0
59	0x00000000	0.0
60	0x00000000	0.0
61	0x00000000	0.0
62	0x00000000	0.0
63	0x00000000	0.0

bn3.running_mean f4 [64]
0	0x00000000	0.0
1	0x00000000	0.0
2	0x00000000	0.0
3	0x00000000	0.0
4	0x00000000	0.0
5	0x00000000	0.0
6	0x00000000	0.0
7	0x00000000	0.0
8	0x00000000	0.0
9	0x00000000	0.0
10	0x00000000	0.0
11	0x00000000	0.0
12	0x00000000	0.0
13	0x00000000	0.0
14	0x00000000	0.0
15	0x00000000	0.0
16	0x00000000	0.0
17	0x00000000	0.0
18	0x00000000	0.0
19	0x00000000	0.0
20	0x00000000	0.0
21	0x00000000	0.0
22	0x00000000	0.0
23	0x00000000	0.0
24	0x00000000	0.0
25	0x00000000	0.0
26	0x00000000	0.0
27	0x00000000	0.0
28	0x00000000	0.0
29	0x00000000	0.0
30	0x00000000	0.0
31	0x00000000	0.0
32	0x00000000	0.0
33	0x00000000	0.0
34	0x00000000	0.0
35	0x00000000	0.0
36	0x00000000	0.0
37	0x00000000	0.0
38	0x00000000	0.0
39	0x00000000	0.0
40	0x00000000	0.0
41	0x00000000	0.0
42	0x00000000	0.0
43	0x00000000	0.0
44	0x00000000	0.0
45	0x00000000	0.0
46	0x00000000	0.0
47	0x00000000	0.0
48	0x00000000	0.0
49	0x00000000	0.0
50	0x00000000	0.0
51	0x00000000	0.0
52	0x00000000	0.0
53	0x00000000	0.0
54	0x00000000	0.0
55	0x00000000	0.0
56	0x00000000	0.0
57	0x00000000	0.0
58	0x00000000	0.0
59	0x00000000	0.0
60	0x00000000	0.0
61	0x00000000	0.0
62	0x00000000	0.0
63	0x00000000	0.0

bn3.running_var f4 [64]
0	0x3f800000	1.0
1	0x3f800000	1.0
2	0x3f800000	1.0
3	0x3f800000	1.0
4	0x3f800000	1.0
5	0x3f800000	1.0
6	0x3f800000	1.0
7	0x3f800000	1.0
8	0x3f800000	1.0
9	0x3f800000	1.0
10	0x3f800000	1.0
11	0x3f800000	1.0
12	0x3f800000	1.0
13	0x3f800000	1.0
14	0x3f800000	1.0
15	0x3f800000	1.0
16	0x3f800000	1.0
17	0x3f800000	1.0
18	0x3f800000	1.0
19	0x3f800000	1.0
20	0x3f800000	1.0
21	0x3f800000	1.0
22	0x3f800000	1.0
23	0x3f800000	1.0
24	0x3f800000	1.0
25	0x3f800000	1.0
26	0x3f800000	1.0
27	0x3f800000	1.0
28	0x3f800000	1.0
29	0x3f800000	1.0
30	0x3f800000	1.0
31	0x3f800000	1.0
32	0x3f800000	1.0
33	0x3f800000	1.0
34	0x3f800000	1.0
35	0x3f800000	1.0
36	0x3f800000	1.0
37	0x3f800000	1.0
38	0x3f800000	1.0
39	0x3f800000	1.0
40	0x3f800000	1.0
41	0x3f800000	1.0
42	0x3f800000	1.0
43	0x3f800000	1.0
44	0x3f800000	1.0
45	0x3f800000	1.0
46	0x3f800000	1.0
47	0x3f800000	1.0
48	0x3f800000	1.0
49	0x3f800000	1.0
50	0x3f800000	1.0
51	0x3f800000	1.0
52	0x3f800000	1.0
53	0x3f800000	1.0
54	0x3f800000	1.0
55	0x3f800000	1.0
56	0x3f800000	1.0
57	0x3f800000	1.0
58	0x3f800000	1.0
59	0x3f800000	1.0
60	0x3f800000	1.0
61	0x3f800000	1.0
62	0x3f800000	1.0
63	0x3f800000	1.0

policy_conv.weight f4 [2, 64, 1, 1]
0	0x3d92f6dc	0.07175991
1	0xbda15cc6	-0.07879023
2	0xbb601400	-0.0034191608
3	0xbd4833e0	-0.048877597
4	0x3da43480	0.08017826
5	0xbbe3c9c0	-0.0069515407
6	0x3c9d2538	0.019182786
7	0x3d9c5cbe	0.07634877
8	0xbd2ea644	-0.042639032
9	0xbdc45cb4	-0.09587994
10	0xbd8c0e2a	-0.06838639
11	0x3d49ee00	0.04929924
12	0x3dd9c9f0	0.1063422
13	0xbdf5b266	-0.119969174
14	0x3c901818	0.017589614
15	0xbd36c948	-0.04462555
16	0x3d6c044c	0.057621285
17	0xbc512860	-0.012765974
18	0xbdc2899a	-0.09498902
19	0xbb78fdc0	-0.0037993044
20	0xbd998a58	-0.0749709
21	0x3cc372b0	0.023858398
22	0x3bf9eb40	0.007626921
23	0xbdcbe844	-0.099564105
24	0x3c78dcc0	0.01518935
25	0x3decf46e	0.11570059
26	0x3d6c5470	0.057697713
27	0xbc92f4e0	-0.017939031
28	0x3deab936	0.114611074
29	0x3c8f0b20	0.01746136
30	0x3dc65b68	0.09685403
31	0xbdd90b22	-0.105978265
32	0xbc053470	-0.008130178
33	0xbde2a4d4	-0.11066595
34	0xbd8b0100	-0.067873
35	0x3bded6e0	0.0068005174
36	0x3dde6dd4	0.10860792
37	0xbc9dfaa8	-0.019284561
38	0x3bcd0760	0.0062569827
39	0xbd58f584	-0.052968517
40	0xbca29a30	-0.019848913
41	0xbd9d0248	-0.07666451
42	0xbdf4e1bc	-0.11957118
43	0x3d21df90	0.039519846
44	0x3dc0ce64	0.09414366
45	0x3ab5a280	0.0013857633
46	0xbd965222	-0.07339884
47	0xbc4eb590	-0.01261653
48	0x3d0fe74c	0.03513269
49	0xbdccd906	-0.100023314
50	0x3de7b8f0	0.11314571
51	0xbb2b1680	-0.002610594
52	0xbd870f7a	-0.06594749
53	0x3d011c5c	0.031521186
54	0x3bcb6c60	0.0062079877
55	0x3c3fc1e0	0.011703938
56	0x3de7590e	0.11296283
57	0xbdca5d50	-0.09881079
58	0xbd5eb640	-0.054373026
59	0xbc65f5f0	-0.014035687
60	0x3c807d18	0.01568465
61	0x3d233ac4	0.039850965
62	0xbd9a660c	-0.07538995
63	0xbd3a8140	-0.04553342
64	0xbdced2a0	-0.10098767
65	0x3d969bea	0.07353957
66	0x3d9aa1e8	0.075504124
67	0xbdf48df6	-0.119411394
68	0x3d54d448	0.05196026
69	0x3d568aa4	0.05237831
70	0xbd847154	-0.06466928
71	0x3d7bd5c4	0.06148316
72	0x3d8c4f4e	0.06851064
73	0x3d98bb20	0.07457566
74	0x3beebca0	0.0072856694
75	0xbcc8ac38	-0.024496183
76	0x3d30ba14	0.043146208
77	0xbd6408c4	-0.055672422
78	0xbdfba4ca	-0.122872904
79	0xbdc0654a	-0.09394319
80	0xbcdbaf88	-0.026817098
81	0xbde63ece	-0.11242448
82	0xba1d7d00	-0.0006007701
83	0xbc51a290	-0.012795106
84	0xbcbfa388	-0.023393407
85	0x3c61e430	0.013787314
86	0x3d014e8c	0.03156905
87	0x3caddab8	0.021222457
88	0xbd4cab08	-0.049967796
89	0xbdb0fce4	-0.08641985
90	0x3d06d934	0.032921985
91	0xbd84c914	-0.06483665
92	0x3d99f39c	0.07517168
93	0xbd325020	-0.043533444
94	0x3cca15e8	0.024668649
95	0xbdc8421a	-0.09778233
96	0xbd7320a0	-0.059357285
97	0x3dbe24e0	0.09284377
98	0x3d812c46	0.063072726
99	0xbc1dbc60	-0.009627432
100	0xbc191bb0	-0.00934498
101	0xbd8b1522	-0.0679114
102	0x3d1f2110	0.03884989
103	0xbc5e5fb0	-0.013572618
104	0x3dd1e892	0.102494374
105	0x3cdde9e0	0.02708906
106	0xbdc89dbc	-0.097957104
107	0x3de1ff98	0.11035079
108	0xbdc32b38	-0.09529728
109	0xbd323290	-0.04350525
110	0x3de6c76a	0.11268504
111	0xbd941ba4	-0.072318345
112	0x3d2090b4	0.0392005
113	0xbdc4938e	-0.09598456
114	0x3dec0eec	0.115262836
115	0xbd8364c8	-0.06415707
116	0xbdac83ec	-0.084235996
117	0xbdf25206	-0.11832051
118	0xbdd25304	-0.1026974
119	0x3d012fc4	0.031539693
120	0x3de00e10	0.10940182
121	0x3d1e5a3c	0.038660273
122	0x3c1a4e40	0.00941807
123	0x3c50ecd0	0.012751773
124	0xbc330670	-0.010926828
125	0xbdfc1ea4	-0.12310532
126	0xbcd52e90	-0.02602318
127	0xbd8992be	-0.06717442

policy_conv.bias f4 [2]
0	0xbc5267f0	-0.012842163
1	0xbdea0464	-0.11426619

policy_bn.weight f4 [2]
0	0x3f800000	1.0
1	0x3f800000	1.0

policy_bn.bias f4 [2]
0	0x00000000	0.0
1	0x00000000	0.0

policy_bn.running_mean f4 [2]
0	0x00000000	0.0
1	0x00000000	0.0

policy_bn.running_var f4 [2]
0	0x3f800000	1.0
1	0x3f800000	1.0

policy_fc.weight f4 [7, 84]
0	0xbc4d1756	-0.012517771
1	0xbdd43239	-0.10361142
2	0xbcb4ccac	-0.022070251
3	0xbd9b6c0d	-0.075889684
4	0x3d52efa8	0.051498085
5	0xbdab3688	-0.083600104
6	0x3d8e5246	0.06949286
7	0x3cab6e6e	0.02092668
8	0x3c6f00ce	0.014587594
9	0xbd65cc11	-0.056102816
10	0xbdc4963e	-0.09598969
11	0x3d0343b0	0.032046974
12	0x3d4c18ef	0.049828466
13	0x3da7ac6f	0.08187186
14	0x3d539078	0.051651448
15	0x3daa4e78	0.08315748
16	0xbc3680e3	-0.011139127
17	0xbcd7d780	-0.026347876
18	0x3c6f585e	0.014608471
19	0xbc7e2e1f	-0.015513926
20	0x3c24ac43	0.010050836
21	0xbce14c53	-0.027502215
22	0xbda2fc29	-0.07958252
23	0xbd8501d0	-0.06494486
24	0xbddc06a4	-0.10743454
25	0xbd6f460d	-0.058416415
26	0xbd0cb9eb	-0.034356993
27	0xbd7d6f12	-0.061873503
28	0xbd261fb5	-0.040557582
29	0x3be908f4	0.007111663
30	0xbd2d1b9f	-0.04226267
31	0xbd89548f	-0.067055814
32	0xbdcbd20f	-0.09952175
33	0xbb5bc023	-0.003353127
34	0xbd1b0fc2	-0.037856825
35	0x3d6bbbe6	0.05755224
36	0xbdd0ac4d	-0.10189114
37	0x3d26f07d	0.04075669
38	0x3c9379f6	0.018002491
39	0x3ddd50be	0.10806416
40	0xbd84810f	-0.064699285
41	0xbcf5f3b8	-0.03002344
42	0x3d8e4fc7	0.0694881
43	0xbc0e001a	-0.008667016
44	0xbdc9253d	-0.09821556
45	0x3c87c952	0.01657549
46	0xbc4f2fb7	-0.012645653
47	0x3c8f47d6	0.017490309
48	0x3cbe88b1	0.023258539
49	0xbd6e47ec	-0.05817406
50	0xbcde1c23	-0.027113026
51	0xbd0d7b31	-0.034541313
52	0xbd0aa1f3	-0.033845853
53	0xbd1de730	-0.038550556
54	0x3d9be098	0.07611197
55	0xbdd22c91	-0.102624066
56	0x3ca5bfb5	0.020233015
57	0x3d660afb	0.056162816
58	0xbd5258b4	-0.051354125
59	0xbc7f6a28	-0.0155892745
60	0xbd2fc4d8	-0.042912334
61	0xbd6e12be	-0.058123343
62	0x3da98ab0	0.08278406
63	0x3d920c09	0.07131202
64	0x3d64b71b	0.055838685
65	0x3a79bbbc	0.0009526571
66	0x3daffbdd	0.08592961
67	0xbc9a6725	-0.018848011
68	0x3cf02fa3	0.02931959
69	0xbca2499b	-0.019810488
70	0xbcc41da3	-0.023939913
71	0x3d7e6696	0.062109552
72	0xbcf8b07f	-0.030357597
73	0xbd041bd5	-0.032253105
74	0x3ddeb7b6	0.10874884
75	0xbd3d30d9	-0.046189163
76	0xbd886855	-0.06660525
77	0x3cbce3c0	0.023057818
78	0x3d4c0f40	0.04981923
79	0xbdb3d5df	-0.08781027
80	0xbda1a263	-0.07892301
81	0xbdafd336	-0.08585207
82	0xbcf1bbe5	-0.02950854
83	0x3dcb6ca0	0.09932828
84	0xbd8411d7	-0.06448715
85	0x3dd0e7e5	0.1020048
86	0x3d675b17	0.056483354
87	0xbdb4e1e3	-0.08832147
88	0x3dc90229	0.09814865
89	0xbdb247bf	-0.08705091
90	0xbdbf73fa	-0.09348293
91	0x3d46bc43	0.048519384
92	0x3d2f98ed	0.04287045
93	0x3c203f62	0.009780737
94	0xbd3c0f1f	-0.045912858
95	0x3c8834cb	0.016626736
96	0x3dc3c2d5	0.09558646
97	0x3bd6bd3c	0.00655332
98	0xbd810ebe	-0.0630164
99	0x3d4af9fa	0.049554802
100	0x3da2cb7c	0.07948968
101	0x3dd82457	0.10553806
102	0x3c110fab	0.008853833
103	0x3d5197fd	0.051170338
104	0x3d8f3589	0.06992633
105	0xbd68c544	-0.056828752
106	0xbd9e57e6	-0.07731609
107	0x3d91047d	0.07080934
108	0xbd924a5b	-0.071430884
109	0xbd34d2e0	-0.04414642
110	0x3d0ec642	0.034857042
111	0x3dc4df45	0.09612898
112	0xbcfd8516	-0.03094725
113	0x3d0a0b0d	0.033701945
114	0x3dd3cc6b	0.10341724
115	0x3c0fffb6	0.008788994
116	0xbb777517	-0.0037759
117	0x3d7a8bdc	0.061168537
118	0xbd35b3ab	-0.044360798
119	0xbd9db1dc	-0.076999396
120	0xbda0c6ea	-0.0785044
121	0x3c627142	0.013820948
122	0x3d80e449	0.06293542
123	0xbd93844a	-0.072029665
124	0x3dcc6e49	0.09981973
125	0x3b175b35	0.0023095135
126	0x3d3da1d1	0.0462969
127	0xbdad71d1	-0.084689744
128	0xbca8e921	-0.020618977
129	0x3d1d8969	0.038461123
130	0x3dda3fd2	0.10656704
131	0x3ca4ee7d	0.020133251
132	0x3dc4f279	0.096165605
133	0xbdc05442	-0.09391071
134	0xbd925a0e	-0.07146083
135	0xbd2d186b	-0.042259615
136	0x3d952559	0.07282514
137	0xbc0e2658	-0.008676134
138	0xbb144dc4	-0.002262936
139	0xbb075a9a	-0.0020653368
140	0x3d43bb5b	0.047786098
141	0xbd8082ef	-0.062749736
142	0x3c91dc31	0.01780519
143	0xbdb8501e	-0.08999656
144	0x3d6a9b7c	0.057277188
145	0x3d4be008	0.0497742
146	0xbdda2a76	-0.1065263
147	0x3d73f697	0.05956134
148	0xbc9fbcf8	-0.019499287
149	0x3dafe049	0.08587701
150	0x3d8327e3	0.06404092
151	0xbd287eea	-0.04113666
152	0xbd003521	-0.031300668
153	0xbd14c008	-0.036315948
154	0xbbf2ea51	-0.0074131866
155	0xbdd7e11a	-0.105409816
156	0xbcfd725f	-0.030938325
157	0x3db3066e	0.08741461
158	0xbd9ee932	-0.07759322
159	0xbdd1f4ad	-0.10251746
160	0x3db8320b	0.0899392
161	0xbd185845	-0.037193555
162	0x3dcd011e	0.10009979
163	0x3cd825a6	0.02638514
164	0x3cfddc66	0.030988883
165	0xbddc7489	-0.10764415
166	0xbd8160b2	-0.06317271
167	0x3dd503c0	0.10401106
168	0x3d9662e5	0.073430814
169	0xbd944135	-0.07239
170	0xbd29603d	-0.041351546
171	0x3d1367ff	0.03598785
172	0x3dc24843	0.09486439
173	0xbd38734c	-0.04503183
174	0xbc3468d6	-0.011011323
175	0x3d261603	0.040548336
176	0xbd0efba0	-0.034907937
177	0x3c7e802c	0.015533488
178	0x3c13144c	0.008977007
179	0x3cf2baa3	0.029630011
180	0x3da65340	0.081213474
181	0x3dc1d540	0.09464502
182	0xbdc428ce	-0.095780954
183	0x3dca107e	0.09866427
184	0xbd817b21	-0.06322313
185	0x3dc0b57f	0.09409618
186	0xbc873b8f	-0.016507892
187	0xbd51d2d0	-0.051226437
188	0x3d666bca	0.05625514
189	0xbc88893e	-0.016667005
190	0xbd03ba43	-0.032160055
191	0xbc2f0a2c	-0.0106835775
192	0x3da6a84b	0.08137568
193	0xbdb27b3a	-0.0871491
194	0xbda6efc7	-0.08151203
195	0xbd346fdf	-0.044052
196	0xbd7e3666	-0.062063597
197	0xbd3b458b	-0.04572062
198	0xbd552e08	-0.052045852
199	0xbdd86b83	-0.10567381
200	0xbdbcbdf7	-0.092159204
201	0xbd9bb5ee	-0.0760306
202	0xbdbc2c37	-0.09188121
203	0x3ccc2050	0.024917752
204	0xbd5d2498	-0.053989977
205	0xbd89e5e6	-0.06733303
206	0xbdd4a964	-0.10383871
207	0x3dccda06	0.10002522
208	0x3c91b1bf	0.017784951
209	0x3c9b0ab3	0.018926
210	0xbd51ec5b	-0.051250797
211	0xbabb78a9	-0.0014302927
212	0x3d9c6516	0.07636468
213	0x3dad7572	0.084696665
214	0xbb90d70a	-0.004420166
215	0x3d0d266a	0.034460463
216	0xbd898d7d	-0.0671644
217	0xbd4fac77	-0.050701585
218	0xbc5f8b97	-0.013644121
219	0x3db44ec2	0.08804084
220	0x3d37577e	0.044761173
221	0x3da490c7	0.080354266
222	0xbcf7f939	-0.030270206
223	0x3d00069f	0.031256314
224	0xbcacf7e7	-0.021114303
225	0xbda81a2c	-0.08208117
226	0xbc8bbe9d	-0.017058665
227	0x3d6eb08b	0.058273833
228	0xbdb99dcb	-0.090633
229	0x3d7acc2a	0.061229862
230	0x3ddd3e82	0.10802938
231	0xbcf1945f	-0.029489694
232	0x3a6df853	0.0009077836
233	0x3d5e6919	0.054299448
234	0xbd548ea0	-0.05189383
235	0xbce5ddb4	-0.028059818
236	0x3d2ffde1	0.042966727
237	0xbc5e75e8	-0.013577916
238	0xbda21194	-0.07913509
239	0x3d315c5a	0.043300964
240	0xbcff4003	-0.031158453
241	0xbcc2eb9d	-0.02379399
242	0xbd98a037	-0.074524336
243	0xbd91de1d	-0.07122443
244	0x3db3f99d	0.08787844
245	0xbdd39d70	-0.10332763
246	0x3c3ae3ac	0.01140682
247	0xbd855fb4	-0.065123945
248	0xbdcd6fae	-0.10031067
249	0xbdc4a939	-0.09602589
250	0xbdc28daa	-0.094996765
251	0x3dc8cee1	0.09805084
252	0xbbf3bcca	-0.007438277
253	0xbd965aba	-0.073415235
254	0x3d9a6144	0.07538083
255	0x3d634214	0.05548294

policy_fc.bias f4 [7]
0	0x3ca37b00	0.019956112
1	0x3d6b4d7b	0.057446938
2	0xbc8f1172	-0.017464373
3	0xbd976151	-0.073916085
4	0xbda0f64a	-0.07859476
5	0xbdd45efa	-0.10369678
6	0x3d8e4618	0.06946963
