models/connect4_model_epoch_3.pth (torch, 329001 bytes, 30 tensors)

conv1.weight f4 [64, 1, 3, 3]
00000000: 0cde 96be a04e 7dbe 5781 77be 5249 55be
00000010: f0ae 6abe 9196 6c3b 5f7d 0bbe 13ff aabd
00000020: 283b ad3e 99f3 f9bc bd74 403d 7fcf 51be
00000030: baf7 d0bd 4b7f 89bd 9bda 48be dfc6 b0bd
00000040: a76e 72bd 1f43 c8bd d54d 4f3d 49a9 723c
00000050: 8359 543d 6353 0fbe 7de9 4ebe 450f d23c
00000060: 8bf5 a03e 38cf 5e3e c70c 3cbb 8a60 73be
00000070: e2b8 013d 8db1 943e e348 a53e c57f 31bd
00000080: c72e 02be 5c5c 3a3c 9c0a be3d 2598 90be
00000090: e21a 9dbd f5ae 823e d338 4e3e 1d3b d03c
000000a0: 26dc 51be 1c51 563e 95fe 913e beb8 86be
000000b0: 2464 79be e157 a3be 2c42 6dbb 89cb a9be
000000c0: 3564 7ebe 189b b7bd 0efb a83d 0f56 99be
000000d0: 252a 9cbd 3b8f 853c 31f4 94be 83eb 26bd
000000e0: 738c f43d 10fb 84bd e6d2 5fbe 2867 163e
000000f0: 5d93 05be c46e 90bd 0986 bfbb 1522 8cbe
00000100: 4b1b 00be 3336 2bbe 1291 74be 4920 afbc
00000110: 438a 8cbd 87d4 743e c19c d7bd f97c a93e
00000120: f950 053b 04c6 21be 3e47 84be 7863 543e
00000130: 74df 873e 058c 8abe fcd1 d43d 1425 1bbe
00000140: a09c 59bd 6a55 0bbd 8a34 9c3e 0a79 973e
00000150: 2932 86be 40c9 06be 8127 2c3d 13ac ebbb
00000160: ffb8 a33e af34 a93d 68a3 8ebe 65b3 2dbd
00000170: 36d6 853e 15ec 853e 8f74 73be 89d6 5fbe
00000180: 0632 913e 96db 5cbe 7e4b 9dbd ffdd 67be
00000190: 940c 913d 345d bf3d 9058 363e 2a97 4abe
000001a0: cbaf ce3d 25a6 6dbe 4111 643e 05ca 6c3e
000001b0: 5d49 12bb a408 83be 97cd 833e d5b2 28bc
000001c0: 4004 9e3e 9f33 c7bd 025c 73be f6a8 6e3e
000001d0: 4190 71be 4e29 1fbe c363 46bc 8ea5 453e
000001e0: 802a 95be 744b 8dbe a13d a83e 7e05 99bd
000001f0: 6a7e 7fbe 9b3d 353d 1b23 67bd d0e9 953b
00000200: c71c 723e 460b 563e bb82 fcbd 5527 db3c
00000210: e641 49be 1108 dbbd 38ce 8ebe ec5f 0a3d
00000220: a194 b63c 83fc ed3d d228 26be 91dd 34be
00000230: b3a7 23be c328 863e 8628 68bc 61a7 9ebe
00000240: 7222 8cbe da9d 203e e96e d13c 196a 373e
00000250: 0eee 653d 530c a63e 78fd 993e a1e8 763e
00000260: eea9 65be 4a0e 4dbe 32c0 773b 92cd a2bc
00000270: e203 36be 0d5a eabd 3b4d 8b3e c579 9d3e
00000280: 08d1 99be 784d d1bc d769 5cbe 28db 233e
00000290: 6f7b 9a3e ec8f 9c3e 71e9 a5be 30a4 4fbd
000002a0: 163c 233e 3e8a 75be 559e b03d 5e72 4c3d
000002b0: 4ae8 98bd 45b6 7bbe b1c0 10be 2697 953d
000002c0: 08f0 803d 55d2 623e 6407 e53d 835b 263e
000002d0: d2c9 a13d 1e8f 9cbe cfc6 e03d 429b 69bc
000002e0: 1987 99bb ce68 6d3e b96e 08be e1fe 8bbe
000002f0: 1ab6 8fbd 2a58 8f3e 6415 26be 5fa0 debc
00000300: 336d a53e 127e cd3c 52e5 b33b 7d79 773e
00000310: 325d 6b3e 3827 373d e05d 0dbd da64 1abe
00000320: 6086 2dbb 14cd 86be b91d b33c f168 a6be
00000330: 93b8 093e 6537 3bbe d898 64bd 2e4b 463d
00000340: 826d 913e 8b81 493e 2bc2 413d f5a9 8ebe
00000350: 5cfc 663e ce0f 8a3e 3408 a83e e47c 29bc
00000360: 71f5 843d d2f4 033e 73f4 8a3e ef92 12be
00000370: c973 a5bd a614 9e3e 831f 9ebe 06ba 9fbd
00000380: 0723 f03d 18ff 623e f558 fbbd f7fb 7bbe
00000390: 39f4 0bbc 15eb d43d 368c a43e 350e 6fbe
000003a0: 539e 623e 1961 22bd 51bf b93d 3bde 08bd
000003b0: 694e 5abe 8289 aabe df53 0bbd 6413 24bd
000003c0: f968 1a3c 052a 383e 5fbc 9e3d d269 993e
000003d0: 1097 a03e 134a 5cbe acf5 abbd a832 91bb
000003e0: 811a 0bbd cee1 013d ecad a4be b557 933e
000003f0: 04a5 27be 9eb0 353e 2d75 993e 2161 833e
-0.29466283 -0.24737024 -0.24170433 -0.2082875 -0.22918296 0.0036100487 -0.13622044 -0.08349433
0.33834195 -0.030511664 0.04698633 -0.2048931 -0.102035 -0.06713732 -0.19614641 -0.08631682
-0.059187558 -0.09778427 0.050611336 0.014810869 0.051843178 -0.13996653 -0.20206256 0.025642047
0.31437334 0.21758735 -0.002869414 -0.23767295 0.03167046 0.2904171 0.3228217 -0.04333474
-0.12713157 0.011374559 0.09279367 -0.28241077 -0.07671143 0.25524107 0.20138864 0.025418812
-0.20494136 0.20929378 0.28514543 -0.26312822 -0.24354607 -0.31902984 -0.0036202772 -0.33163098
-0.24842913 -0.08965129 0.0825101 -0.2994847 -0.07625226 0.01630365 -0.29092553 -0.040751945
0.11940851 -0.06493199 -0.21857795 0.14687788 -0.13044496 -0.07052377 -0.0058448357 -0.27369753
-0.12510411 -0.16719894 -0.23883465 -0.0213777 -0.06862309 0.23909198 -0.10527945 0.3310316
0.0020342453 -0.15798193 -0.25835603 0.2074107 0.2653767 -0.2705995 0.10391614 -0.15150863
-0.053127885 -0.034017004 0.30508834 0.29584533 -0.26210144 -0.13162708 0.04202986 -0.0071921437
0.31977078 0.08262002 -0.27859044 -0.042407412 0.26139992 0.2615668 -0.23774932 -0.21859182
0.28358477 -0.2156814 -0.076804146 -0.22643279 0.07082477 0.09343949 0.17807221 -0.19784227
0.100921236 -0.2320791 0.22272207 0.2312394 -0.002232156 -0.2559253 0.2574279 -0.010296543
0.30862617 -0.09726643 -0.23765567 0.23306641 -0.23590185 -0.155431 -0.012108746 0.19301435
-0.29133987 -0.2759663 0.3285952 -0.07471751 -0.24950567 0.044248205 -0.056429964 0.0045749918
0.2364379 0.20902738 -0.12329622 0.026752153 -0.19654045 -0.10694898 -0.27891707 0.033782884
0.022287669 0.116204284 -0.16226509 -0.17662646 -0.15981941 0.26202974 -0.014169818 -0.30987075
-0.2737003 0.15685216 0.025565581 0.17911567 0.05613523 0.32431278 0.30076194 0.24112178
-0.22428104 -0.20024982 0.0037803766 -0.019873414 -0.17774919 -0.11442957 0.2720736 0.30756965
-0.3004229 -0.025549635 -0.2152475 0.1600157 0.30172297 0.30578554 -0.32404664 -0.05069369
0.1594089 -0.23978516 0.086239494 0.049913757 -0.074661806 -0.24581249 -0.14136006 0.0730422
0.06295782 0.22150548 0.1118305 0.16245846 0.07899822 -0.3057794 0.1097542 -0.014258208
-0.0046852943 0.23184511 -0.13323487 -0.27342895 -0.07017155 0.2799695 -0.16219097 -0.02717608
0.32309875 0.02508453 0.0054899836 0.24167438 0.2298477 0.044715136 -0.034513354 -0.15077534
-0.0026477799 -0.26328337 0.021864759 -0.3250194 0.13449316 -0.1828285 -0.055809826 0.04841154
0.2840386 0.19678323 0.047304314 -0.27864042 0.22557205 0.26965183 0.32818758 -0.010344718
0.06492127 0.1288636 0.27139625 -0.14313863 -0.08078725 0.30875129 -0.30883417 -0.07799153
0.11725431 0.22167623 -0.122728266 -0.24607836 -0.008542114 0.10396401 0.32138222 -0.23345263
0.22130708 -0.03964338 0.09069694 -0.03341506 -0.21318974 -0.33308035 -0.034015533 -0.040057555
0.0094244415 0.17984779 0.07750773 0.29963547 0.31365252 -0.21512632 -0.083964676 -0.0044310875
-0.033960823 0.031709485 -0.32163942 0.28777853 -0.16371542 0.17743155 0.2997221 0.2566004

conv1.bias f4 [64]
00000000: 13e1 06bc 0de4 56be c40a 05bb 70cd 703e
00000010: b5b0 403d 0597 2f3e d866 a53d 4347 8a3d
00000020: b3ea 033e 4ee6 fcbc 4aec 0bbe 3c16 0a3e
00000030: 8615 493d b820 743e b5a6 afbc 32ec 313e
00000040: e6a4 80be 3c24 5abd edce 3fbe 19b7 ffbc
00000050: afae a5be 8c9b 9abe 4375 a6be b50b 5a3e
00000060: 39af fd3d acff 3fbe 491d 87be e84d d03d
00000070: bc31 943e 9bd9 3dbe 5751 0fbe 2b12 40be
00000080: 41ce 54be 1c79 a0be 0175 9b3e 639b 7c3e
00000090: 28e3 993e fbed 2abb 77ec 5e3e 60ce 593d
000000a0: 9ed2 4b3e 12a9 0a3e 5714 6d3e efda c4bd
000000b0: f590 b7bd 603e a4be f971 e6bd bde8 a7be
000000c0: 8a32 9abd fc60 9cbe 8ee7 ed3d 4dd6 94bd
000000d0: f066 61bd fa20 ba3d cc11 9abe 9889 db3c
000000e0: e143 a2be cb2c aabd b823 023e cc7e 2c3e
000000f0: 1ed5 0a3e 72a2 81be be84 c7bd 037b 0a3d
-0.008232373 -0.20985432 -0.0020300606 0.23515868 0.04704352 0.17147453 0.080762565 0.06751873
0.128825 -0.030871537 -0.13664356 0.13485044 0.049092792 0.23840606 -0.021441797 0.17375258
-0.25125808 -0.053257212 -0.1873128 -0.031215237 -0.32359836 -0.30196798 -0.3251134 0.21293528
0.12386937 -0.18749875 -0.2638953 0.101711094 0.28944194 -0.18540041 -0.13995872 -0.1875693
-0.20781805 -0.313424 0.30362704 0.2466865 0.3005612 -0.0026081789 0.21769892 0.05317533
0.19904563 0.13541058 0.2315229 -0.09612071 -0.08963195 -0.32078838 -0.11252207 -0.32794753
-0.07529171 -0.30542743 0.11616431 -0.07267437 -0.05502981 0.09088321 -0.30091703 0.026799008
-0.31692412 -0.08309325 0.12708938 0.16845244 0.1355786 -0.25319248 -0.097421154 0.03380872

bn1.weight f4 [64]
00000000: 05c3 803f 02fa 7f3f 10df 803f 7b21 813f
00000010: 1b6e 7f3f 2b58 813f 6b4b 803f 56a7 7f3f
00000020: eea2 7c3f f978 7f3f 7093 7d3f 9e96 7e3f
00000030: ca22 7f3f 9e78 803f 0cdb 7e3f ed27 803f
00000040: 30dc 813f cc79 803f 6f15 7e3f 0c33 813f
00000050: cf6a 813f 80d1 813f 2d09 803f e7af 7f3f
00000060: a6ba 803f 47b4 813f 57b5 7f3f 1c40 803f
00000070: 3399 7f3f a517 7d3f 5f67 7e3f ceeb 7c3f
00000080: 7fd5 803f ec84 803f 1fd4 7c3f f6c7 803f
00000090: 4e77 7e3f 385d 803f 911a 803f 5d3e 7d3f
000000a0: d6b5 803f bbe8 7d3f e607 813f a45d 7e3f
000000b0: 001e 803f b554 803f 04eb 7c3f 5985 7a3f
000000c0: bbc8 7e3f f6b8 813f ffb8 7f3f cba9 7f3f
000000d0: d0e9 803f d937 7e3f 1071 803f 64c0 7c3f
000000e0: 038f 7d3f a022 813f 69b8 813f afd9 7d3f
000000f0: 1687 803f 37cb 7f3f 14de 7e3f 6e8d 7d3f
1.0059515 0.99990857 1.0068073 1.0088342 0.9977738 1.0105032 1.0023016 0.9986471
0.9868611 0.99793965 0.99053097 0.99448574 0.9966246 1.003681 0.9955299 1.0012184
1.0145321 1.003717 0.99251455 1.0093703 1.011072 1.0142059 1.00028 0.9987778
1.005696 1.0133141 0.9988608 1.0019565 0.9984314 0.98864204 0.9937648 0.9879731
1.0065154 1.0040565 0.9876117 1.0061023 0.99400795 1.0028448 1.0008107 0.98923284
1.0055492 0.99183244 1.0080535 0.99361634 1.0009155 1.002585 0.98796105 0.9785972
0.9952504 1.0134571 0.99891657 0.9986846 1.0071354 0.99303967 1.0034504 0.98731065
0.99046344 1.0088692 1.0134403 0.99160284 1.0041225 0.99919456 0.99557614 0.9904393

bn1.bias f4 [64]
00000000: 7c2f 10bb c9d6 9839 5f01 60bb fc17 2fbb
00000010: 9300 113c f189 d5bb 61e7 693b 69ba aebb
00000020: 26aa adbb 559a 603c 1169 78bc 83d9 1a3b
00000030: 9fdf db3a fcc0 193c 668d f3bb 3d11 e8ba
00000040: 8ff8 82bb ca72 653b 62ce 47bb 5145 2ebc
00000050: c188 603c 003c 98bb 10ce 00bc 3b45 38bc
00000060: 7702 9eba 1d7e 813b 1b00 bdbb 910f 63bb
00000070: d558 6f3b eb72 5dbc 5335 6ebb f7de dd3b
00000080: c971 e13b 179d 1cbc 95c4 3abc fc94 95bb
00000090: def8 daba 31e9 063b abc5 cbbb 6304 bdba
000000a0: 8838 a8bb b783 9c3b 30ac 4db8 fcd8 4dbb
000000b0: 7e0d 8cba e005 f5ba 8245 e23b 5161 32bc
000000c0: b1e0 e73b 8294 4d39 7a68 fa3b f00a 77bc
000000d0: 77c8 283b bb74 a23a c7a9 5fbb 9504 2abb
000000e0: 9b74 68bc 7a68 633c 5a0c 073c 20b4 00bc
000000f0: fda9 1f3c 9c70 dfbb 7e97 8bbb bfa2 74ba
-0.002200096 0.00029151727 -0.0034180505 -0.0026717177 0.008850235 -0.006516688 0.003569089 -0.0053322804
-0.0052998243 0.013708671 -0.0151617685 0.0023628182 0.0016775018 0.00938439 -0.0074326275 -0.0017705333
-0.0039969156 0.0035011047 -0.0030488004 -0.0106366435 0.01370448 -0.0046458244 -0.007861629 -0.011246975
-0.0012055178 0.0039518015 -0.005767835 -0.003464673 0.0036521454 -0.013516168 -0.0036347702 0.0067709642
0.0068800193 -0.0095589375 -0.011399408 -0.0045648795 -0.0016706248 0.002058577 -0.006218632 -0.0014420863
-0.005133692 0.004776444 -4.903617e-05 -0.003140985 -0.0010685173 -0.0018693767 0.0069052586 -0.01088746
0.007076346 0.00019605647 0.007641849 -0.015078291 0.0025754252 0.0012394408 -0.0034128295 -0.0025942673
-0.014187957 0.01387989 0.008242691 -0.007855445 0.009745118 -0.006818844 -0.0042600026 -0.00093321124

bn1.running_mean f4 [64]
00000000: 0ecf da3a 45ee 4dbe 39ae 93bb 5b92 6e3e
00000010: 984b 3d3d 2631 383e 9be3 af3d 2141 8f3d
00000020: b998 043e 275a 11bd 5d00 07be 2d16 063e
00000030: 71cb 4a3d 0ab4 783e d0b7 8cbc 20e7 343e
00000040: 803a 84be ba2d 49bd ab4c 3fbe 660b 0dbd
00000050: 9ec5 a2be 5132 9ebe 2f15 a1be 3856 4e3e
00000060: b83f fa3d 7e8b 41be 68b5 84be 0cff ca3d
00000070: 8ec8 913e 3478 41be 0848 0cbe aecb 3fbe
00000080: 8692 57be 3c9b a1be 8773 9d3e b493 783e
00000090: b11f 973e 4c86 ff3b 5115 613e 7f5d 6c3d
000000a0: 6220 4c3e 49eb 0b3e d82f 733e 310a c6bd
000000b0: de49 b6bd 106f a2be 65d3 f3bd e9bc a8be
000000c0: d789 9cbd 62ba 9abe 670b ee3d 9a64 9abd
000000d0: e5ef 56bd afd1 c33d dc3c 98be 139c 0d3d
000000e0: 670f a9be f8d0 acbd a714 083e d632 353e
000000f0: 41e6 063e 6ee1 82be 1ca5 c3bd 9dad 183d
0.0016693787 -0.20110424 -0.004506853 0.23298018 0.04621467 0.17987499 0.08588334 0.06994844
0.12948884 -0.035486367 -0.13183732 0.13094397 0.049510423 0.2428743 -0.017177492 0.17666292
-0.25825882 -0.049115874 -0.1868159 -0.0344347 -0.31791395 -0.30897763 -0.31461474 0.20150077
0.12219185 -0.18900868 -0.25919652 0.099119276 0.28473324 -0.1889351 -0.13699353 -0.18730041
-0.21051988 -0.31563747 0.30752203 0.24275094 0.29516366 0.007797992 0.21980788 0.057706352
0.19934228 0.13663973 0.2374872 -0.096699126 -0.08900808 -0.3172536 -0.11905555 -0.32956627
-0.07643478 -0.30220324 0.116232686 -0.075387195 -0.052474875 0.09561478 -0.29733932 0.034572672
-0.33019564 -0.08438295 0.13289128 0.17695174 0.13173772 -0.25562614 -0.095529765 0.037274946

bn1.running_var f4 [64]
00000000: 4491 973d eb8f c63c 22b0 743d d6dd 9f3d
00000010: 292c ca3d 03d0 793d e498 203d 765d 9a3d
00000020: dd21 9c3d a118 aa3d 5604 d83d abbd a13d
00000030: 0d0c d63d 85da b33d 5820 653d b16c 873d
00000040: 739d b93d 9583 b93d 25c0 e73d c370 293d
00000050: 14fc 773d 0ce3 793d cf90 773d afb9 d73d
00000060: 1293 8b3d dfb3 aa3d 3dfd 4c3d c260 c13d
00000070: 8290 a83d ee7c 3a3d f0fd 693d 6ca1 b23d
00000080: 3609 d03d 9b61 af3d ba28 943d 453e f33d
00000090: 57a1 b53d bb3d 243d 938a 8c3d 94c7 6a3d
000000a0: 874e 6c3d d920 b53d bd2d 763d 8af6 da3d
000000b0: 5020 3e3d a076 d93d 6568 2d3d 6dd2 a63d
000000c0: 8175 b33d b113 9b3d 5080 773d 8252 983d
000000d0: 35b7 623d 43e0 df3d 11c1 903d 2e18 7e3d
000000e0: 079b a73d 6870 903d 7143 313d 295b 963d
000000f0: 40f3 c23d ec1f 783d fa56 453d f1cc b03d
0.07400754 0.024238547 0.059738286 0.07805984 0.09871704 0.06098939 0.039208308 0.075373575
0.076236464 0.08305479 0.10547702 0.078975044 0.10451517 0.08781914 0.05593905 0.06612528
0.09063234 0.090583004 0.113159455 0.041367304 0.060543135 0.061007544 0.060440835 0.10533463
0.06815161 0.08335089 0.050046194 0.09442283 0.08230688 0.0455293 0.05712694 0.08722195
0.10158007 0.08563539 0.072343305 0.11877111 0.08868664 0.040097933 0.068623684 0.05731924
0.057692077 0.08844156 0.060102213 0.10691555 0.046417534 0.10618329 0.042335887 0.08145604
0.087626465 0.07572115 0.060425103 0.07437612 0.0553505 0.109314464 0.070680745 0.06203478
0.08183866 0.0705269 0.043277208 0.07341606 0.095190525 0.060577318 0.04817865 0.086328395

conv2.weight f4 [64, 64, 3, 3]
00000000: 3e1b 9c3c c970 b2bc e4af b23c a45c 1e3c
00000010: 78c2 f3bc ea4a 04bc a0dc 9c3b 4270 16bb
00000020: 3119 d73c d48e 38bc b96b 82bb 9962 9b3c
00000030: 5525 adbc e66a 95bb 2d09 b4bc 015f f7bc
00000040: 0540 3b3c 12a4 09bd 141c 9e3c 1cb1 acbc
00000050: 8c0c 3f3c 37c3 a93c 020f b0bb 4d7a 64bc
00000060: 17b5 2abc 7a6a 093d d45e ed3c ac93 9dbc
00000070: 3ed7 1f3d 7107 163d 9292 383c d6b4 363d
00000080: 3158 103d 87e6 c33c d2dc c83b a109 bcba
00000090: c79d 23bc 7a82 82ba fd05 4b3d 9435 0abd
000000a0: 2543 813c 730f 80bb e526 8dbc e2b9 163d
000000b0: d4f3 3a3c f94e 47bc 474e a0bc 4a62 d4bb
000000c0: d4d9 ea3c 0f32 0bbd 97d3 febc 946f 0fbd
000000d0: 5c70 1abc 6b99 b0bc 36a8 083d fe67 113d
000000e0: 0604 533c 70d1 21bc 7b3a 20bd c102 12bc
000000f0: 4368 683c 754a fdbc 565a 06bd bebf 9d3c
00000100: e5d7 fa3c 65cc 25bd 81c9 3cbc 6c1d 963b
00000110: da3c 4fbb 17dd a0bc 6b3a 7a3c 3a43 8f3c
00000120: 0236 0bbd 0fff debc 0ac4 1a3d d715 d3bb
00000130: 0d15 3a3d 0fb4 54bd f4a5 97bc 13fa 0f3c
00000140: 077c a2bc b713 51bc c973 1ebd cfd5 b2bc
00000150: 9ae3 c2bc f639 bcbc 102c 46bc 2092 073d
00000160: b985 27bd e7e4 64bc bba3 3dbc 3f41 19bd
00000170: 9629 0f3d a33e b93c dad5 08bd ddcc 933c
00000180: b3d2 fc3c 8038 07bc 58a7 e43c e98f 58bc
00000190: 14f2 013b bc44 40bc ce3d 843c 7189 f53c
000001a0: 2411 9fbc f04c f83c bf34 a13a e9fe 50b9
000001b0: 89b0 fabb 9620 103c bd0d bcb9 433d 133c
000001c0: 1fbd 63bb dc22 d5bb 9600 c13c c3a5 14bd
000001d0: be6f 17bd 0ce9 4cbc c997 06bd 3f2a 0bbc
000001e0: f04e 36bc 8bd0 eebc 3225 3fbd 3826 93bc
000001f0: 616b ce3c 86b7 463c 1d98 64bd d2cc 56bb
00000200: 1b8d 8c3b 7775 c7bc 6a83 3d3d 17a2 92bc
00000210: 8d9d a0bc f9aa f0bc 1b2c c33c 51a9 d93c
00000220: c170 84bc f035 1dbc 87e6 aa3a 8082 12bd
00000230: d4fb 1e3c de51 643c b9fa 1a3d a6cb 613b
00000240: 1636 123d 9ef2 123d b517 be3c 062a e6bc
00000250: eae9 853c 2e17 05bd bce8 de3c 10c3 e4bc
00000260: 944e 95bc 3ef7 efbb 4b2c 303d 6da9 4e3d
00000270: 3c0e 61bc 78d4 0fbc 2140 0cbb 89fe 11bd
00000280: ee1e 003c 0629 ac3c c895 5ebc 066d f73c
00000290: ff77 203d dc92 d73c e05a 24bd d4a4 5a3d
000002a0: 2784 d73c 5686 08bd c2a8 253d e808 083d
000002b0: 07c9 b53b 8f66 d93c efc9 4a3c a1e5 34bd
000002c0: 53d2 39bc c0ac 59bb 619d f13c 154e acbc
000002d0: 134a 393d 485b 48bb fa08 e53c 1722 bfbc
000002e0: b0b8 9f3c 143e 0f3a 3553 d83c 22cf 213c
000002f0: 4ef0 243d 6206 893a 59e7 2dbb 4e61 acbb
00000300: 72e2 f83b 7362 7ebc 10c9 8b3c 89ef ecbb
00000310: 798f 3dbd 96bf adb9 9692 8dbb b4d3 323b
00000320: 45ef 163d 4781 acbb 34d8 443b 79aa 30bd
00000330: ba9e 4fbc 2fbf 073d 69c2 0ebd 14b2 193d
00000340: c174 54bc 142d 1cbd d92f fb3b fcc0 83bb
00000350: eb7d ee3c 70d7 eabc 421e 67bc f5cc 2dba
00000360: ee1d ea3c 066e 843c 9290 d13c d9db 5d3b
00000370: 5c49 06bd 07c5 d6bc 6cf7 edbc 3fbc c43b
00000380: cf65 5cbc 52e4 a13c b84b 0b3d f503 203c
00000390: cddb 0cbd 6e91 b83c d2c3 6f3c 5a9b 66bc
000003a0: cfa2 933c fac9 e73c 9882 14bc 563a 18bd
000003b0: 79e7 a6bc bda2 f83c 1d0d 16bd 2d28 453c
000003c0: 2c46 903b 7942 29bc 261a a4bc 2e74 43ba
000003d0: 49c9 2ebc 5372 8d3c 68b5 67bc 706f debb
000003e0: 16cd 64bb 17c6 343b 92e4 2b3d e91f 113c
000003f0: cb56 04bd 1d11 e83c 2872 1fbd f6d0 e03c
0.019055959 -0.021782296 0.021812387 0.009665642 -0.029755816 -0.0080745015 0.0047870427 -0.0022955094
0.02625713 -0.011264522 -0.0039801267 0.018967913 -0.021135965 -0.0045598624 -0.021977032 -0.030196669
0.011428838 -0.033603735 0.019300498 -0.021080546 0.011660706 0.020722969 -0.005372883 -0.013945174
-0.010419152 0.03354881 0.028975882 -0.019235454 0.03902363 0.03662819 0.011265414 0.044606052
0.035240356 0.023913635 0.0061298395 -0.0014346131 -0.0099863475 -0.0009957098 0.049566258 -0.033742502
0.015779087 -0.0039080917 -0.01723046 0.036798365 0.011410672 -0.012164825 -0.019568576 -0.0064814435
0.028668322 -0.033983286 -0.031106753 -0.03501852 -0.009426203 -0.02155753 0.033363543 0.035499565
0.012879377 -0.009876594 -0.03911827 -0.008911789 0.014185014 -0.030919293 -0.032800995 0.019256469
0.030620525 -0.04047813 -0.011522652 0.004581144 -0.0031621964 -0.019636674 0.015272717 0.01748811
-0.033987053 -0.02722123 0.037784614 -0.0064418125 0.04543023 -0.05192953 -0.01851175 0.00878765
-0.019834531 -0.012761048 -0.03868464 -0.021830468 -0.02379017 -0.022976857 -0.012095466 0.03309834
-0.040899012 -0.01397059 -0.011574681 -0.03741574 0.03495177 0.022612875 -0.03340707 0.018042022
0.030862188 -0.008253217 0.027911827 -0.013217905 0.0019828128 -0.011735138 0.016142752 0.029972764
-0.019417353 0.030310124 0.0012299045 -0.00019931387 -0.007650439 0.008796832 -0.0003586839 0.008986774
-0.0034750176 -0.0065043997 0.02355985 -0.036290895 -0.0369718 -0.012506735 -0.032859597 -0.008493959
-0.011127219 -0.029152175 -0.04666633 -0.01796256 0.025197687 0.012128716 -0.05580913 -0.003277589
0.004289282 -0.024348004 0.046267904 -0.017899556 -0.019606376 -0.029378401 0.023824742 0.026569994
-0.016167047 -0.009595379 0.0013038673 -0.035768986 0.009703595 0.013935534 0.037836764 0.003445366
0.03569611 0.03587591 0.023204664 -0.02809621 0.01634689 -0.03249281 0.027210586 -0.027925044
-0.018225946 -0.0073231747 0.04301099 0.050454546 -0.013736304 -0.008778684 -0.0021400528 -0.035643134
0.007819874 0.021015655 -0.013585515 0.030203354 0.039176937 0.026315145 -0.040125728 0.05337985
0.026308132 -0.033331238 0.040444143 0.03321162 0.005547646 0.026538162 0.012377246 -0.044164304
-0.011341649 -0.003321454 0.02949399 -0.021033326 0.04523666 -0.0030571986 0.027958382 -0.023331685
0.019497246 0.00054642675 0.026406864 0.0098760445 0.040268235 0.0010454173 -0.00265356 -0.005260623
0.0075953538 -0.015526402 0.017063648 -0.0072307033 -0.046279404 -0.00033139874 -0.004320453 0.002728683
0.03684928 -0.0052644345 0.0030036094 -0.043131325 -0.012672121 0.03314131 -0.034853373 0.037523344
-0.012967289 -0.038128927 0.007665616 -0.0040208083 0.029112777 -0.028667182 -0.014106335 -0.0006629967
0.028578725 0.016165745 0.025581632 0.0033852963 -0.032784805 -0.026216997 -0.029048644 0.006003886
-0.013452007 0.019762192 0.034007758 0.009766568 -0.034389306 0.022530284 0.01463409 -0.014075125
0.01802197 0.028294552 -0.009064339 -0.03716501 -0.020374047 0.030351037 -0.0366336 0.012033504
0.0044028964 -0.01033079 -0.020032 -0.0007455972 -0.010668107 0.017266428 -0.014142372 -0.0067881867
-0.003491228 0.002758389 0.04196603 0.008857706 -0.032309335 0.028328473 -0.038927227 0.02744339

conv2.bias f4 [64]
00000000: 24f9 5ebc 3361 003d 7f94 db3c 30aa 3fba
00000010: e6dd e53c 5e2b 3f3c 7c89 223d 62e5 73bc
00000020: 020a ccbb 29f6 2d3d ad52 783a 27de 003d
00000030: 56fb 65bb 2696 8dbb 913a 843c ede6 0e3d
00000040: d6fc 233c 7904 223d a05f b4bb c753 04bd
00000050: 3b86 c6bc f292 6a3c 2ee7 64bb 7181 b13b
00000060: 3819 133c 54a9 273c 4008 15bd 8699 cdbc
00000070: dba4 1b3d 6e6a 1f3c 0d36 133d eb9a 86bc
00000080: 524c 083b 22ef 6b3b a986 13bd 797f 2bbd
00000090: 2e6f bc3c 30d5 b0bc f83a 9e3b bcda 71ba
000000a0: e6da 5a3b 2480 063d 7af8 b53c 16b8 20bd
000000b0: 3006 ea3a 8f0a fcbc bc7a 063d a50b 613b
000000c0: 59a4 173d d114 973c 343e 4b3b b794 173c
000000d0: 6a65 97bb b9c8 0a3d 6ce1 b1bc 89eb 75bc
000000e0: 0222 05bd ab3a 32b9 e775 21bc fa59 093d
000000f0: 127a adbc 5a09 983c 4990 c6b9 ded4 87bc
-0.013609204 0.031342696 0.026804207 -0.00073114317 0.028059911 0.011668054 0.039681897 -0.014886232
-0.006226779 0.042471085 0.0009472769 0.03146186 -0.0035092435 -0.0043208776 0.016141208 0.034888197
0.010009011 0.039555047 -0.0055045635 -0.03230646 -0.024233928 0.014317261 -0.0034927833 0.005417042
0.008978181 0.010233242 -0.03638482 -0.02509762 0.037999015 0.009729965 0.03594022 -0.016431293
0.0020797444 0.0036000689 -0.036017094 -0.041869614 0.023002233 -0.02158603 0.004828807 -0.00092260144
0.0033394634 0.03283705 0.02221321 -0.039238058 0.0017854627 -0.030766753 0.032831892 0.0034339216
0.03702197 0.018442543 0.0031012418 0.009251765 -0.004620244 0.03388283 -0.021713935 -0.015009769
-0.032503136 -0.00016997258 -0.00985477 0.033533074 -0.021176372 0.018559147 -0.00037873004 -0.016580995

bn2.weight f4 [64]
00000000: 1a8a 7b3f 7987 7e3f b847 7f3f 1e91 813f
00000010: 11ba 813f 1543 803f b23a 7f3f 98bd 803f
00000020: 84b6 7f3f 356f 803f b0ac 7f3f c368 7f3f
00000030: d9ff 7f3f 3f10 813f 553d 7d3f a73b 813f
00000040: 8fcc 7f3f 97ec 7c3f f1b3 803f 437d 7e3f
00000050: 0c97 813f 5217 803f 5b4b 7a3f ab63 7f3f
00000060: 4692 7f3f f58b 7c3f 45ba 813f 3699 7d3f
00000070: f7a3 7f3f 9bdd 803f fe47 803f 3f2f 823f
00000080: 196f 7b3f 4b28 7e3f 1e54 813f 42e6 7c3f
00000090: 7311 803f 714f 7e3f 2c68 803f 9f02 7d3f
000000a0: 4aa1 7e3f bcd8 813f 259b 803f be43 7e3f
000000b0: 6a40 7f3f 03ce 7c3f 27ea 813f 5ea2 7f3f
000000c0: 10bc 803f bf9d 7e3f 40f3 7f3f 8fb7 7f3f
000000d0: 5e2b 803f 457e 7f3f 3b2e 803f e340 803f
000000e0: 26e9 7e3f 3434 7e3f c1ed 803f 4ca7 7e3f
000000f0: 2263 803f a4f4 803f fde0 803f d209 803f
0.982576 0.99425465 0.9971881 1.0122411 1.0134908 1.0020472 0.99698937 1.005786
0.9988787 1.0033938 0.99872875 0.9976923 0.9999977 1.0083083 0.9892171 1.009633
0.99921507 0.9879851 1.0054914 0.99409884 1.0124221 1.0007117 0.97771233 0.99761456
0.9983257 0.9865106 1.013497 0.99061906 0.99859565 1.0067629 1.002197 1.0170668
0.98216397 0.9928023 1.0103796 0.98788846 1.0005325 0.9933997 1.0031791 0.98832124
0.9946486 1.0144267 1.0047346 0.99322116 0.99707663 0.9875185 1.0149583 0.9985713
1.0057392 0.9945945 0.99980545 0.99889463 1.0013235 0.99802047 1.0014108 1.0019802
0.99574506 0.99298406 1.0072557 0.99474025 1.0030253 1.0074658 1.0068661 1.0002997

bn2.bias f4 [64]
00000000: 12d4 3abc 2fec 64bb 4459 e2b9 2059 5abc
00000010: 437b 263c b885 19b9 a097 433a ecf8 34bb
00000020: f3af fb39 1a0b f03b 3471 263b 4134 403a
00000030: 21e4 9abb 03c7 1c3c 1db7 30bb 9746 853c
00000040: 2e8c 833b 4ae4 a13b 5c02 113c 8a0b 03bc
00000050: f164 d83b 900e eb3b e1d7 97bb 20c6 b5ba
00000060: d7c0 f9bb 2668 9e3a 908b 143c 65a7 24bc
00000070: b4e7 063b f51a 423c 54c8 9a3b 2439 1b3b
00000080: 9d4e 04bc a76e e33a c194 1e3c cbb9 12bc
00000090: c800 9a3b 20c0 963b 8cff a33b f4fb cdbb
000000a0: 11b8 8f3b 6175 013c 3627 24bc c71e c53b
000000b0: e9b1 15bb 8295 a4bb ca64 3f3c cf71 14bb
000000c0: d825 f5b7 11f4 cabb 0f8f 95bb e46e dbb8
000000d0: 382f 0c3c aa55 14bc dcd1 37bb 7d4b 0f3c
000000e0: 335e 0f3b b183 0ebc 2215 6e3c 2d56 dcbb
000000f0: a6b6 15bc 84e2 583c b022 373c a671 97bb
-0.011403101 -0.0034930815 -0.00043172587 -0.013326913 0.010161224 -0.00014641031 0.00074612536 -0.002761419
0.00048005543 0.007325542 0.0025397064 0.0007332005 -0.004726902 0.0095689325 -0.0026964613 0.016269011
0.0040145135 0.0049405443 0.00885066 -0.007998357 0.00660383 0.007173367 -0.004633889 -0.001386825
-0.0076218653 0.0012085482 0.009066477 -0.010049676 0.0020584883 0.011847247 0.004723588 0.0023685182
-0.0080753835 0.0017351703 0.00967902 -0.008955429 0.0046998 0.00460054 0.005004829 -0.0062861387
0.004385956 0.0079015205 -0.010019114 0.006015632 -0.0022841638 -0.0050227055 0.011681745 -0.0022650843
-2.9223898e-05 -0.0061936458 -0.004564173 -0.00010463389 0.00855618 -0.009053627 -0.002804867 0.008746025
0.0021876215 -0.00869839 0.014531406 -0.00672414 -0.009137785 0.013237599 0.011177704 -0.0046217022

bn2.running_mean f4 [64]
00000000: e6e9 963e bcba 83bd df08 19bf de56 953e
00000010: 1eb2 f33e 223f a6bc a28c 0d3f fd21 ec3e
00000020: 3f68 38be 3ebd 883e 9d1a f9bc 8ff3 9ebe
00000030: 430a 72be 97ee d73e 7272 84be 7354 1e3f
00000040: a929 17bf 7302 193d 2474 e13d 18cb 733e
00000050: 4bc6 293f 78cf 05bf c047 06bf 5fd6 0b3f
00000060: 1f6d 983e 7fb4 933e fce5 033c 15dc a0bd
00000070: b3e1 143f d071 34bf 61ae 783e 98b8 56bd
00000080: 9bc8 d1be 2c0b 893e 7054 de3d e0fb 1dbf
00000090: 7ca1 85bf 31ad c1be 9d56 663f b4f0 1abf
000000a0: 7406 7fbe 50a0 24bf fcac 063f 19b4 063f
000000b0: 458f 68bf d338 19bf fd67 143e b510 f23e
000000c0: b147 b33e 08ce 1dbf 8cd6 c63e e1e1 7ebe
000000d0: bb7a 04bf c552 c3be ad08 55bd 8079 1dbd
000000e0: 41fd 2b3f 787e 173e 1b85 043f 6071 c9bd
000000f0: ebc9 8a3e cf64 90bd 8545 3b3f a614 f6be
0.29475325 -0.06432101 -0.5977916 0.29167837 0.4759683 -0.020293776 0.55292714 0.4611968
-0.18008517 0.2670688 -0.030408198 -0.31045195 -0.23636727 0.42174217 -0.25868565 0.6184761
-0.59047943 0.03735585 0.1100848 0.23807943 0.66318196 -0.522697 -0.5245323 0.5462398
0.29770753 0.28848645 0.008050438 -0.07854477 0.5815689 -0.70486164 0.2428527 -0.052422136
-0.40973362 0.26766336 0.10855949 -0.61712456 -1.0439906 -0.37827447 0.8997591 -0.60523534
-0.24904805 -0.6430712 0.52607703 0.5261856 -0.9084361 -0.5985233 0.14492793 0.4727837
0.35015634 -0.61642504 0.3883556 -0.24890853 -0.5174977 -0.38149086 -0.052010227 -0.03844595
0.6718331 0.14794338 0.517656 -0.09836078 0.27107176 -0.07050478 0.73152953 -0.48062629

bn2.running_var f4 [64]
00000000: cfc5 c43e 46ab 693e 6274 0f3f 55d8 6a3e
00000010: ebce b53e fe3c 673e 5466 033f eb52 ca3e
00000020: d42e 8f3e f0b2 ae3e e966 833e a97e a83e
00000030: c240 753e 4db9 e53e 1d94 b03e 33e3 db3e
00000040: 2d7f 193f c44b b93e 2d64 3c3e 990d a63e
00000050: a884 323f b25d 193f eee3 023f 2763 0d3f
00000060: 29bd 843e df92 ae3e 8338 863e c67c 8b3e
00000070: b33e ed3e 55b3 483f ab7f 883e 91e1 213e
00000080: 5574 0a3f 56f7 b03e 212e 8a3e 97e7 0d3f
00000090: 054f 953f 5dfc bc3e b5ab 553f efaf 163f
000000a0: 03b0 953e 33b1 163f 3fb6 1a3f d27b 153f
000000b0: f1de 813f ffc2 263f e3d9 6f3e 2da9 d83e
000000c0: 12aa 9c3e 8212 163f b8d8 fc3e 33d3 d53e
000000d0: 085c f03e 8c32 bf3e 752a 733e d07c bb3e
000000e0: 4843 213f 20b2 813e 746f e23e 9229 a63e
000000f0: ed53 953e e936 8f3e d7ab 2c3f 8535 d23e
0.38432166 0.22819242 0.5603696 0.22934087 0.35509428 0.2258186 0.51328015 0.39516386
0.27965415 0.34120893 0.25664452 0.32909134 0.23950484 0.44867936 0.34488 0.42946777
0.5995968 0.36190617 0.18397589 0.3243225 0.6973367 0.5990859 0.51129043 0.5522942
0.25925568 0.3409643 0.2621499 0.27243632 0.46336898 0.7839864 0.26659903 0.15808703
0.5408376 0.34563702 0.2698832 0.55431503 1.166474 0.36911288 0.8346513 0.58862203
0.2923585 0.58864135 0.60434335 0.5839206 1.0146161 0.6514129 0.23422961 0.4231657
0.30598503 0.5862199 0.49384093 0.41762695 0.46945214 0.37343252 0.23746665 0.36618662
0.6299329 0.2533121 0.44225657 0.3245359 0.29165593 0.2797158 0.67449707 0.41056457

conv3.weight f4 [64, 64, 3, 3]
00000000: 9d0f 053d 6c56 68bc cc30 053a 6095 aa3b
00000010: b8fa 9f3c e827 aabb 212c ba3c 09aa 903c
00000020: a9cf e03c ea52 b4bc ea69 053a 672f 053d
00000030: c518 b73c d131 1bbd 608f e63c 2b72 9d3c
00000040: e6de 343d d77a 78bc b0f7 913c f34e 7fbb
00000050: c9c5 d0bc 3875 58bb 1d59 bdbb 6caa 9ebb
00000060: 9f30 15bc 5cc5 bf3c 8837 c5bc dccc 3e3d
00000070: 58e8 88bc 3c38 38bc adeb 1a3c 6929 273b
00000080: e6a4 0d3d 98c4 503c 6cb5 133b 95e8 543c
00000090: 628c 013d a7eb 22bd 7b30 3cbd 92e4 c3bb
000000a0: bba8 a3bb 437b 113d d7f0 babc fbfa 113c
000000b0: 5a14 0dbc e550 03bd ae5a 103c a49b d9bc
000000c0: 1021 f33b 4b32 073d 48e4 a1bb 9e89 183c
000000d0: 4515 b6bc 1c05 22bd 1a43 efbb aa93 e03b
000000e0: 4dcb a0bb a4c0 2f3d 2145 14bd 63f0 16bc
000000f0: 34fb 353d 3558 403d 21da d33c 64ee 193d
00000100: ab5c d1bc edcd c93c 5798 393d 5b24 923c
00000110: f985 b43c 0b40 f63b eb17 f1bc 65eb 2e3a
00000120: 1c53 0fbd 05d1 ff3c 2aa9 193d 03ac 0e3d
00000130: 9da7 8cbb dbca 32bc e27b b1bc 3bfd 9bbb
00000140: 189b d33b 1d6d 86bc 2981 843c 687f 0cbd
00000150: 7fbd 6c3c eaf9 24bd 7efb 513c a688 11bd
00000160: ce71 7bbc 1e7c dd3c 35b0 923c 46ff f3bc
00000170: ff70 a6bc d713 0abd 8c73 97bc 59dd babc
00000180: f001 ecbc f977 b43b fa72 afbc 2495 00bd
00000190: 937a 11bd 1e4f 713b 0593 0d3c 9e27 be3c
000001a0: e83a a93b 2b8c 7c3c e533 0ebc cc77 bebc
000001b0: b27c 3939 8031 3dbd 72b3 27bd f8d1 96bb
000001c0: 7b3a f9bb 3422 08bd 5406 f73c 6390 cdbc
000001d0: ff6e 353d 3cd1 d1bb 6470 8d3c 3efe 223c
000001e0: 900d f53c 7747 ba3c 69fd afbc b6bb be3c
000001f0: 0d5a 833c 7fcd dfbc de8b 28bd fb60 523c
00000200: 3ded a5bb 4a8e 353d c2f6 81bb 0175 7fbc
00000210: a477 56bc a661 8abc 1570 88bc fa09 f6bc
00000220: 2a06 1a3c 1aa0 fe3c 0c76 213d d578 223d
00000230: a271 8abc 83d5 19bd 5513 163c 0540 f63b
00000240: bb04 d1bc 3e41 093d 5870 d63c bfa3 f3bc
00000250: ba18 6abc 8896 c8ba d555 1c3d 99eb d63c
00000260: 69b3 31bd c308 c03c c066 793c 4308 08bd
00000270: ae41 00bd d773 fb3c 1c82 0dbb c5fd 293b
00000280: 7516 9abc 0019 11bc c5e8 063d f691 883c
00000290: fc60 d93b 410a d1bc 5b08 e2bc fdf8 96ba
000002a0: 3bb5 4dbc 6519 c6bc a79c 193d e9a9 8b3b
000002b0: fa22 b1bc 4dcf 11bd ac4d ff3c 71a0 6bbb
000002c0: ee03 3e3d ef07 0abb c617 92bb 74dd 36bd
000002d0: 3a80 43bc 30de 10bd 5194 c43c 8173 09bd
000002e0: aba5 7cbc e912 fc3c af34 54bc 54f2 4dbc
000002f0: 6ca9 a0bc 7d90 e63c 4bbc ff3c a6e0 f0bc
00000300: 0464 493d 844f 9bbb 909b 25bb 3aa1 69bc
00000310: 3409 68bb 6974 1cbd 987d 0d3d d4b2 afbc
00000320: 6934 393b d47d c4bb 25ee e6bb f301 243d
00000330: 22f0 1d3d b261 f5bc 3ad7 dfbb 24c1 b53c
00000340: 706f acbc 2d86 f83c fecc f8bc a1d3 1a3d
00000350: 4fd4 8e3c 8e98 72bc 9c36 00bd c7a5 babc
00000360: 0f0b 0e3d 6943 f13c 62e5 a9bb d957 073d
00000370: dc84 7fbb f6f9 25bd 826a 10bd 170b 06bc
00000380: 8a58 4bbc 127c 983b 8035 423c e268 543c
00000390: 62d2 6cbc f6d5 00bc d07b 763c e471 903c
000003a0: 949d 203b 0908 d3bb c742 c13c 81ff bd3b
000003b0: 0f0a 8e3b c78c 08bb 5a2d 16bd 787a 493b
000003c0: e4f1 a83c 6317 e0bc 5c87 eabc 3e61 2b3c
000003d0: e805 c63b 4592 0d3d e7e9 8d3c 3856 7c3b
000003e0: f236 623c e8a0 ecbc 1ae1 0fbc 5957 853b
000003f0: 8b5d 7f3c 05f2 2bbd 0e20 e23c b4b2 09bd
0.032485593 -0.014180761 0.00050808187 0.005205795 0.019528732 -0.0051927455 0.02272612 0.017659204
0.02744277 -0.022012193 0.000508933 0.03251591 0.022350678 -0.037889306 0.028144538 0.019219479
0.044157885 -0.015166006 0.017818302 -0.003895697 -0.025484936 -0.0033028852 -0.0057784454 -0.004842093
-0.00910583 0.023409538 -0.02407433 0.046582088 -0.016712353 -0.011243876 0.009455604 0.002550686
0.034581088 0.012742184 0.0022538556 0.012994905 0.03162802 -0.039775517 -0.045944672 -0.0059781754
-0.0049944795 0.035517942 -0.02281992 0.008909936 -0.008610809 -0.03205957 0.008810682 -0.026563473
0.007419713 0.033006947 -0.0049405433 0.009310154 -0.022226939 -0.039555654 -0.0073017003 0.0068535404
-0.004907048 0.042908326 -0.03619874 -0.009212586 0.04442902 0.04695912 0.025860848 0.037580863
-0.025556883 0.024634326 0.0453113 0.017839601 0.02203654 0.0075149587 -0.02943035 0.000667265
-0.03499137 0.031227598 0.037514843 0.034832012 -0.004292442 -0.010912622 -0.021665517 -0.004760412
0.0064576976 -0.016409451 0.01617487 -0.03430119 0.014449476 -0.0402774 0.012816308 -0.03553071
-0.015346957 0.027036723 0.017906288 -0.02978481 -0.020317553 -0.033710327 -0.018487714 -0.022810625
-0.028809518 0.005507466 -0.02141713 -0.03139223 -0.035517287 0.003682084 0.008641009 0.02321225
0.005164493 0.015414278 -0.008679365 -0.023250483 0.00017689427 -0.046189785 -0.040942617 -0.004602667
-0.0076058484 -0.033235744 0.030154385 -0.025093263 0.044295307 -0.0064031165 0.017265506 0.009948311
0.029913694 0.022739155 -0.02148314 0.023282867 0.01603415 -0.027319668 -0.041149013 0.012840505
-0.0050636814 0.04432515 -0.0039661834 -0.015591861 -0.013090048 -0.016892266 -0.016655007 -0.030034054
0.009400884 0.031082202 0.03941922 0.039666016 -0.016899887 -0.037557136 0.009159883 0.007514956
-0.025514951 0.033509485 0.026176617 -0.029741166 -0.014288122 -0.0015303651 0.038167793 0.026235389
-0.04338399 0.023441678 0.015222251 -0.033211004 -0.031312637 0.030694885 -0.0021592444 0.0025938612
-0.018809536 -0.008856058 0.03293683 0.016671162 0.006633876 -0.025517585 -0.027591875 -0.0011518296
-0.012555416 -0.02418203 0.03750291 0.004262198 -0.021623123 -0.035598088 0.031164967 -0.0035953785
0.046390466 -0.0021061858 -0.0044584004 -0.044644788 -0.011932427 -0.035368145 0.023996504 -0.03355742
-0.015420358 0.030770736 -0.012952014 -0.012569983 -0.019612037 0.02814507 0.031217715 -0.029403996
0.049167648 -0.0047397036 -0.0025269724 -0.014259631 -0.0035405876 -0.038196955 0.034543604 -0.021447577
0.0028259999 -0.005996445 -0.007047432 0.04004092 0.038559087 -0.029953811 -0.006831077 0.022186823
-0.021049231 0.030337417 -0.030371185 0.03779948 0.017435221 -0.01480688 -0.03130208 -0.022784127
0.034678515 0.029451089 -0.0051848153 0.033042762 -0.0038989102 -0.040521584 -0.035257824 -0.008181355
-0.012411246 0.004653462 0.011853576 0.012964459 -0.014454456 -0.007863512 0.015044168 0.017632432
0.0024507986 -0.006440167 0.023591412 0.0057982807 0.004334695 -0.0020835863 -0.036664344 0.0030743163
0.020623155 -0.027354902 -0.028628998 0.010460196 0.0060431845 0.03456332 0.017323447 0.0038503539
0.013807045 -0.02888532 -0.008781696 0.0040692505 0.015586267 -0.041978855 0.027603175 -0.03361769

conv3.bias f4 [64]
00000000: d51c 02bd 6922 e83c e62a 073d d328 6dbc
00000010: ae52 c43c 55d1 f53b 4d9b ca3b 46de 043c
00000020: 9abb d43b 1eb0 edbc d6bf c4bb e103 143d
00000030: e7b3 683c 5a38 84ba 298d 01bd 829b 89bc
00000040: 1091 f63c 39b7 67bc d256 1c3d 7050 c33c
00000050: ff6f fb3c 0e7b bc3b 8d5e 113c 006b bdbc
00000060: 60d6 db3c 109e 0dbc 3a46 d9bc 1ca4 ec3c
00000070: a1a0 2a3d 6eab 303b 1bad 2b3b 5b8a e03c
00000080: 588e d0bb 5725 6bbc afdf 4b39 de7e 8abc
00000090: 61e4 df3c f283 23bd da25 e83a b484 0b3d
000000a0: 94c8 2ebc bd08 00bd 9026 9a3c 8e5d 17bd
000000b0: f906 223d 2365 103d acef 153d 5092 9e3c
000000c0: 8f6f e1bc 58f0 0fbc b3a8 80bc 1609 0dbd
000000d0: 2026 b0bc 5c89 d43c 35fe 6ebc fc39 babc
000000e0: 5efc 1a3d bd5c 22bc 970d 263d c93a c4bc
000000f0: d2b1 21bd d27a 48bb 4ca7 b5bc 77b7 f238
-0.031765778 0.02833672 0.032999896 -0.014475065 0.023965206 0.007501761 0.006183064 0.008109635
0.0064920904 -0.029014643 -0.006004314 0.03613651 0.014203048 -0.0010087595 -0.03162876 -0.016797785
0.030098468 -0.014142805 0.038168736 0.023842067 0.030693052 0.005751974 0.00887264 -0.02312231
0.02683562 -0.008643642 -0.026522744 0.028886847 0.041657094 0.0026957649 0.0026195708 0.027409723
-0.006364625 -0.014352164 0.00019442917 -0.016906198 0.02733058 -0.039920755 0.0017711476 0.034062102
-0.010667939 -0.031258333 0.018817216 -0.036954455 0.03955743 0.0352527 0.036605522 0.019356877
-0.027519016 -0.00878533 -0.015705442 -0.034432493 -0.021502554 0.025944404 -0.014586975 -0.022732727
0.037838332 -0.009909806 0.040540304 -0.023953812 -0.039476223 -0.0030590785 -0.0221745 0.00011573632

bn3.weight f4 [64]
00000000: 7bfa 7d3f 6347 823f c223 813f 6729 813f
00000010: 907b 7d3f dde8 7f3f 4356 803f 6820 7f3f
00000020: fd88 7e3f 7a57 803f 53e9 803f 2af9 803f
00000030: d898 7e3f 995c 7b3f 50a1 7e3f 7fe9 7f3f
00000040: a97c 7f3f b87d 7e3f c8bc 7c3f c9f4 803f
00000050: a456 823f ba4d 803f 7f4c 803f b52b 7f3f
00000060: 9712 813f 4f49 7d3f 8030 803f 7297 803f
00000070: 3915 803f cd33 803f e08c 803f 2f0a 803f
00000080: af10 7d3f 89a0 7e3f 13f9 813f 4d27 7f3f
00000090: 8d36 7e3f c0a9 7c3f d018 823f 6483 823f
000000a0: 891f 803f 2181 813f ea44 7e3f 4fc6 7a3f
000000b0: b186 7f3f 8fcb 813f af0f 813f 8b6d 7d3f
000000c0: 384a 803f b3bc 803f 2fd8 7d3f 713b 7d3f
000000d0: 31ce 813f 4a3b 803f 459a 7d3f ec2e 803f
000000e0: 7050 7d3f 9033 803f 1a0c 823f f473 813f
000000f0: 3378 7f3f 6271 803f 0b39 803f 3b71 7d3f
0.9921033 1.0178035 1.0089037 1.009076 0.99016666 0.99964696 1.0026325 0.99658823
0.9942778 1.0026696 1.0071205 1.0076039 0.9945197 0.9818817 0.99464893 0.9996566
0.9979959 0.9941058 0.9872556 1.0074703 1.0182691 1.002372 1.0023345 0.99676067
1.0083798 0.98939985 1.0014801 1.0046217 1.0006477 1.0015808 1.0042992 1.0003108
0.9885358 0.9946371 1.0154136 0.99669343 0.9930199 0.9869652 1.0163822 1.0196347
1.0009624 1.0117532 0.99323905 0.97958845 0.998149 1.0140246 1.0082911 0.98995274
1.002265 1.0057586 0.99157995 0.98918825 1.014105 1.0018094 0.9906352 1.001432
0.9895086 1.0015736 1.0159943 1.0113511 0.99792784 1.0034602 1.0017408 0.990009

bn3.bias f4 [64]
00000000: 249a a7bb 9da6 5a3c 15d6 673c 24e0 b5bb
00000010: d025 ab3a 31b3 273c d3a5 cdbb 1b86 173c
00000020: d271 043a 15d1 773c e654 db3b ae34 f53a
00000030: 3fe4 5e3c aadb d0bc 18f6 15bc f78f 183c
00000040: 3cd7 0e3c dd36 253b 9c5e 73bc 2e21 9e3b
00000050: fbb5 09bc ce21 093c 0e0a cbbb bbc4 443c
00000060: 52a1 8abb 1dc7 3cbc 288a 333c a254 03bc
00000070: bd36 9d3a 8fd9 313c 1af4 cbbb df38 143c
00000080: df88 0bbc 5248 abb9 0c9b 4fbb 8198 3b3c
00000090: 1446 963a 5c52 02bc 7211 013c fcab 903c
000000a0: 345d cbba 640f 26bc da63 50b9 64b1 92bc
000000b0: 47b0 08bc c555 683c b718 6a3b 2593 e6bb
000000c0: 089f d8bb f537 55bb 925a eab9 98a5 22bc
000000d0: 4c38 163c 65a2 443b de1f 4b3b 2723 d939
000000e0: 476c 26bb 9ed4 433c 7ba1 26bc 97b7 47bc
000000f0: f920 aabb 076e cc3b b4b4 ad3a d669 cbbb
-0.0051148105 0.013345388 0.014150162 -0.0055504013 0.0013057534 0.010235594 -0.0062758713 0.009248282
0.0005052361 0.015125533 0.0066934703 0.0018707716 0.013604223 -0.025495369 -0.009152912 0.009311668
0.008718308 0.0025209703 -0.0148541 0.0048257327 -0.008405204 0.008369876 -0.006196267 0.012009795
-0.0042306567 -0.011522082 0.010958232 -0.0080157835 0.0011994463 0.010855093 -0.0062241675 0.009046762
-0.008516519 -0.00032669544 -0.0031678108 0.011449934 0.0011464977 -0.007954206 0.007877694 0.017660134
-0.0015515448 -0.010135505 -0.00019873623 -0.017906852 -0.008342809 0.014180605 0.0035720298 -0.007036584
-0.006610755 -0.0032534574 -0.00044699438 -0.009927176 0.009168696 0.0030004021 0.0030994336 0.00041415656
-0.0025394128 0.011952547 -0.010170336 -0.012189767 -0.005191919 0.006238702 0.0013252706 -0.006207685

bn3.running_mean f4 [64]
00000000: cf1f b0be b100 7bbe fff3 bc3e 781a 7d3f
00000010: b998 d8bd ce48 023f 0803 253f 1b74 003e
00000020: cb6c 1bbf 7c92 a3be 9b09 413f fe99 903e
00000030: c810 cbbe 794b 0a3f 9bd6 0bbc a5ce 6e3e
00000040: 7132 14bf 50b8 813d 49c8 0d3f f5f7 893e
00000050: 1acc 5d3f 1bdd e8be 0d03 1b3e 9617 60bd
00000060: 0d17 f83e f747 12bf 1a01 3d3e 3dcb 503e
00000070: ca48 92be 27ce ecbe 2411 583f 7b37 09bf
00000080: 234e 05bf fb4e 7b3e b7b0 4b3f d1ab 58be
00000090: 3f00 20bf 35b5 77bf 7980 793f e4e0 06be
000000a0: 47fe 2bbe 6a83 2c3f bdd8 9d3e 9805 28be
000000b0: ee09 1bbf 7e2b bbbd 0b3c 003f 4b8d 97be
000000c0: c663 1c3f 1a9c 4d3f f05a 7fba 58bf 18bf
000000d0: d32e dbbe b732 483e 3a62 993e 227a e8be
000000e0: 4080 a2be dca2 f03e 9d9f 403f f668 6c3f
000000f0: e75e a83e 928e 483f 6e9e 08bf 3687 2b3f
-0.34399268 -0.24511983 0.36904904 0.98868513 -0.105760045 0.5089234 0.6445775 0.1254429
-0.6071288 -0.31947696 0.7540528 0.28242487 -0.3966124 0.5402141 -0.008535053 0.23321016
-0.5788947 0.06333983 0.55383736 0.2694699 0.8663956 -0.4548119 0.15137883 -0.054709993
0.48455086 -0.5714106 0.18457451 0.20390029 -0.2857116 -0.46251032 0.84401155 -0.5360028
-0.5207235 0.24541847 0.7956652 -0.21159293 -0.62500376 -0.96760875 0.9746166 -0.13171726
-0.16796218 0.6738802 0.3082942 -0.16408384 -0.60562027 -0.09139155 0.5009162 -0.29599985
0.6108974 0.8031632 -0.0009741029 -0.5966697 -0.42809162 0.19550596 0.29957753 -0.4540568
-0.31738472 0.46999252 0.7524355 0.9234766 0.32884905 0.78342545 -0.53366745 0.6700319

bn3.running_var f4 [64]
00000000: 5e87 8c3e 74ee d73e 1db0 0c3f d22b 323f
00000010: bccd fc3e 623d a63e 48b8 f73e 533c 163f
00000020: abd1 823f 6d84 9d3e 9d14 303f 9568 8f3e
00000030: 9139 7a3e e8bb 9b3e 3a2a 883e ec53 5f3e
00000040: 8e5a 1f3f 18c4 073f f03f ae3e 499a 3a3e
00000050: d0ab 163f 22a2 393f 72d7 833e b64e c63e
00000060: 6672 8d3e 61ce 103f c940 423f 4c38 5a3e
00000070: 4803 b93e 14e6 f13e 97f9 893f f5b2 643e
00000080: c479 993e 6e5d 023f c00d 203f c095 2a3f
00000090: 100a 243f f887 ef3e 3852 763f 5a18 a53e
000000a0: 6b15 ad3e f0b7 383f 8b9a 4d3f ef18 663e
000000b0: 630d 593e 1a90 4b3e f8b3 1b3f a3be 293e
000000c0: c494 123f 532c 303f f14b e43e 1481 513f
000000d0: d152 d93e 9785 433e 9a63 f83e e847 423f
000000e0: ef45 803f 8245 e33e 96fb 443f 58eb da3e
000000f0: 4eb6 603e 4316 923f 8004 0c3f a601 d13e
0.27447027 0.42174113 0.5495623 0.69598114 0.49375713 0.32468706 0.48382783 0.586858
1.0220236 0.30765095 0.68781453 0.28009477 0.24436022 0.304168 0.26594716 0.21809357
0.6224755 0.5303359 0.34033155 0.18222918 0.58855915 0.7251302 0.2575031 0.38731927
0.27626342 0.5656491 0.75880104 0.21310538 0.36135316 0.47245848 1.0779294 0.22333892
0.29975712 0.5092381 0.6252098 0.6663475 0.64077854 0.46783423 0.96219206 0.3224514
0.33805403 0.72155666 0.8031394 0.22470449 0.21196513 0.19879189 0.60821486 0.16576628
0.5725825 0.68817633 0.4458919 0.8183758 0.42445996 0.19093929 0.4851349 0.7589097
1.0021342 0.44388968 0.7694639 0.42757678 0.21944544 1.1413044 0.54694366 0.4082157

policy_conv.weight f4 [2, 64, 1, 1]
00000000: e6bd f43d 858a a5bd f430 7f3d 7ebc 36bb
00000010: faf4 9bbd 9b7f 003e ebcb f1bc 058b db3d
00000020: e121 dbbd dadd 0c3d 5711 e93d 7bf4 f6bd
00000030: 6704 94bd 1513 b1ba 6cd7 023d 703a 3f3c
00000040: ce05 4dbd bdb5 fd3d 697c b5bd 1623 f13b
00000050: 1c41 c73d 6884 efbd b868 3b3d f6a5 c93d
00000060: 5823 f1bc 4c55 68bd 0363 013e 7176 803d
00000070: 1f62 7abd c112 fdbc a6f2 133d 2fee 8c3c
00000080: 5eac 00be 2f03 d6bd bb08 c53d d7e5 c7bd
00000090: 6026 ff3c c9da e13c d2ec 713d 8353 71bd
000000a0: 78e2 353b 2bb3 8d3c 3cbc 7a3d ec38 ae3c
000000b0: 60a5 ca3c b29f 07bd 3b95 fc3d 5482 8dbc
000000c0: c607 ca3c aafe d93d 2cc9 f93b ef22 f1bd
000000d0: 5770 67bd 62b8 8cbd c47f c23d bffe 7bbd
000000e0: de72 07bd 0d35 963d 7701 203d 5573 a63c
000000f0: 163e cc3d 5d24 cb3d ff73 ecbd e823 a53c
00000100: fd48 a43c a0fe 19bd 8889 2e3c e42b 01be
00000110: ebdb 8c3d 41d4 663d 442f c6bd a685 d1bc
00000120: 17f0 a13b f791 3a3d a4ba 0cbd a505 02bc
00000130: da88 ee3d 31d1 853c 0373 f63d bfd9 eb3c
00000140: 8a24 103d f130 243d 64e2 90bd 0cea c83d
00000150: dc0a 02be 36a5 a3bd 7a5f 82bd 2bff a93d
00000160: 6c7e c7bd c562 923d ac6e 8e3d 0223 143d
00000170: a7ea 88bc c8ee 7f3c 48a5 dabd ef16 1cbc
00000180: 268f 933d ff59 04be 71c2 80bd fe34 af3d
00000190: fb47 a2bd b4fa 49bc 3ba3 f7bd 389b 60bc
000001a0: 06d0 fd3d 0357 63bd 3c46 373d f1ee e63c
000001b0: a2f0 54bc 6595 873d 8989 96bd 0617 2e3c
000001c0: 987d 94bd 59d8 99bd 2d22 263d 4274 983d
000001d0: 55ff cfbd 48b3 c2bb b6a3 ae3d efa3 eabc
000001e0: b495 acbc fbb7 3a3d 2227 cbbd 0a44 c03a
000001f0: 32c1 3f3c ed90 31bd 6fed de3d 45d4 92bc
0.11950283 -0.08083061 0.062302545 -0.0027883346 -0.07615085 0.12548678 -0.029516181 0.10719875
-0.10699821 0.03439126 0.113802604 -0.1205835 -0.07227402 -0.0013509715 0.031943724 0.011671647
-0.050054364 0.123881795 -0.0886162 0.007358919 0.097292155 -0.11695176 0.045754164 0.09846108
-0.029435799 -0.05672197 0.12635426 0.06272591 -0.06112873 -0.030892732 0.03612008 0.017203419
-0.12565753 -0.10449826 0.09620806 -0.09760635 0.031146228 0.027570145 0.05906374 -0.058917534
0.0027753394 0.017297348 0.06121467 0.021267377 0.02473706 -0.03311128 0.12333151 -0.01727406
0.02466191 0.106442764 0.0076228585 -0.11774241 -0.05650362 -0.06871106 0.094970256 -0.06152224
-0.03306853 0.073343374 0.039063897 0.020318666 0.099727795 0.09919045 -0.11545562 0.020158723
0.020054335 -0.037596345 0.010652907 -0.12614399 0.068778835 0.056354765 -0.09676984 -0.025576424
0.004941951 0.04554936 -0.034357682 -0.007935916 0.11647196 0.016335102 0.120336555 0.028790353
0.035191096 0.040085737 -0.070744306 0.09810266 -0.12699455 -0.07990496 -0.06365867 0.083006226
-0.0974091 0.07147745 0.06954703 0.0361662 -0.016713453 0.015620895 -0.10676056 -0.009526952
0.07205038 -0.12924956 -0.06287087 0.08555029 -0.079238854 -0.012327839 -0.120916806 -0.013708882
0.12393193 -0.055502903 0.044744715 0.028190108 -0.012996824 0.066202916 -0.073504515 0.010625606
-0.072505176 -0.07511968 0.040559936 0.074440494 -0.101561226 -0.005941782 0.08527319 -0.028642623
-0.021067478 0.045585614 -0.09919573 0.0014668715 0.011703776 -0.043351103 0.108851306 -0.017923484

policy_conv.bias f4 [2]
00000000: f881 babd 0d0c a7bc
-0.09106821 -0.020391488

policy_bn.weight f4 [2]
00000000: b16b 793f 00f6 793f
0.9742995 0.9764099

policy_bn.bias f4 [2]
00000000: 17e1 a4bc d758 93bc
-0.020126862 -0.017986698

policy_bn.running_mean f4 [2]
00000000: c506 8f3d ca4e c9bd
0.06983713 -0.09829481

policy_bn.running_var f4 [2]
00000000: 19be e73f a5d9 2e3f
1.8104888 0.6830085
