models/connect4_model_epoch_7.pth (torch, 329001 bytes, 30 tensors)

conv1.weight f4 [64, 1, 3, 3]
000000 e3 69 8f be d5 f8 81 be 79 9a 70 be a5 e2 5b be
       -0.28010473 -0.25385156 -0.23496427 -0.21473177
000010 51 84 66 be cd bb b5 bb 21 77 1a be 82 6f 95 bd
       -0.22511412 -0.0055460692 -0.15084507 -0.07296659
000020 78 72 ae 3e 09 f9 12 bd 70 1c 3c 3d 08 f4 55 be
       0.34071708 -0.03588203 0.045925558 -0.20893872
000030 26 3a d4 bd 65 f1 6c bd a2 fd 4c be 41 b9 b6 bd
       -0.103626534 -0.0578474 -0.20018628 -0.08922053
000040 8c 73 57 bd ff 22 e2 bd a1 73 2c 3d 6e fa e5 bb
       -0.05260043 -0.11041831 0.04210246 -0.007018379
000050 3a 12 85 3d 1d 51 10 be 8f 29 40 be b0 22 a1 3c
       0.06497617 -0.14093442 -0.18765853 0.01966986
000060 ab 5f a8 3e a2 49 61 3e 53 cb 91 3b 38 5e 7b be
       0.3288549 0.22000745 0.004449287 -0.2454766
000070 bf 7b 20 3d 9e d4 8f 3e 87 df a9 3e 52 74 28 bd
       0.039180513 0.28091902 0.3317835 -0.041126557
000080 c4 d1 f5 bd 5e d0 84 3c 21 2c 9f 3d 12 d9 8e be
       -0.120029 0.016212638 0.07772089 -0.27899987
000090 ea 8c 91 bd f8 c5 77 3e 5f cb 4e 3e e6 71 dc 3c
       -0.07106955 0.24196613 0.20194767 0.02690978
0000a0 e1 90 49 be 28 cc 58 3e 7d a9 8e 3e ff 38 86 be
       -0.19684173 0.2117163 0.27863684 -0.2621536
0000b0 81 8b 8b be 1c 1a a3 be e8 39 b8 bb 8f 84 ad be
       -0.2725487 -0.31855857 -0.0056221373 -0.33890197
0000c0 f2 d3 84 be 25 93 8e bd 24 d7 aa 3d 60 2f 97 be
       -0.2594295 -0.06961659 0.08341816 -0.29528332
0000d0 07 e9 8c bd 23 b2 e7 3b 33 73 95 be e6 b3 0a bd
       -0.06880384 0.007070796 -0.29189453 -0.03386297
0000e0 39 ff cb 3d 72 20 4d bd 05 7b 62 be c9 cb 22 3e
       0.09960789 -0.05007977 -0.2211724 0.1589805
0000f0 91 4f e6 bd 3a 32 96 bd be c9 89 bc df 67 8d be
       -0.11245645 -0.07333799 -0.016819831 -0.2761831
000100 4c 53 f1 bd a1 f9 30 be 2c 0f 6a be cf 56 d3 bc
       -0.11783466 -0.17282726 -0.2285735 -0.02579823
000110 f2 c0 a4 bd 9c 71 72 3e 5f e0 d8 bd f0 53 ac 3e
       -0.08044614 0.23676151 -0.105896704 0.3365779
000120 44 0c 40 3b 19 d3 25 be 91 a0 69 be 92 8f 55 3e
       0.0029304186 -0.16193809 -0.22815157 0.20855549
000130 41 5e 91 3e 02 25 91 be ee 53 cc 3d 8c c6 1b be
       0.28392223 -0.28348547 0.09976946 -0.15212458
000140 bb c3 54 bd d1 85 f8 bc 1a 75 9d 3e a4 1c 91 3e
       -0.051944476 -0.030337246 0.30753404 0.28342164
000150 7e 3b 85 be ee 1c 13 be c6 62 2c 3d 78 e3 7c bc
       -0.2602195 -0.14366505 0.042086385 -0.015435092
000160 31 e7 a7 3e f6 b0 b0 3d c3 ed 90 be f6 82 54 bd
       0.32793573 0.086275026 -0.28306398 -0.051882707
000170 85 ed 8b 3e 64 94 8a 3e f8 1e 70 be 76 cc 5e be
       0.2732965 0.27066338 -0.23449314 -0.21757683
000180 90 2f 8d 3e e7 07 53 be a6 72 ae bd 75 22 5d be
       0.2757535 -0.20608483 -0.08517961 -0.21595176
000190 33 f4 85 3d 48 d5 9e 3d fc 5f 1a 3e 8e bb 5c be
       0.06540718 0.07755524 0.15075678 -0.21555921
0001a0 aa fb df 3d 8f 7a 6e be 2f 62 65 3e 6f 47 70 3e
       0.10936673 -0.2328894 0.22400735 0.2346475
0001b0 2f e1 81 3c 8d bf 82 be a0 68 86 3e 02 c4 ec 39
       0.015854446 -0.25536767 0.26251698 0.00045159465
0001c0 50 e0 93 3e 76 b7 93 bd 1e 33 75 be dd de 69 3e
       0.28882074 -0.07212727 -0.23945281 0.22838922
0001d0 8c 23 81 be b1 b0 21 be 32 df c3 bb 69 9f 33 3e
       -0.25222433 -0.15790059 -0.0059775347 0.17541279
0001e0 4c 82 95 be 47 c7 8e be 14 ad ac 3e f3 95 8f bd
       -0.2920097 -0.27886412 0.33725798 -0.070110224
0001f0 9c d1 81 be 47 97 18 3d e1 6f 70 bd a9 09 5d ba
       -0.25355232 0.037253644 -0.058700446 -0.00084319204
000200 cc 99 66 3e ba 2b 59 3e c3 82 dc bd e0 4a 37 3d
       0.22519606 0.21208087 -0.10767128 0.04474914
000210 2d a9 3c be af f1 d6 bd 7e cb 96 be f7 21 3a 3d
       -0.1842391 -0.10495316 -0.29452127 0.045442548
000220 71 4a 0c 3c d1 d4 dc 3d 56 13 20 be af 40 3b be
       0.00856267 0.10782779 -0.15632376 -0.18286394
000230 4a ef 31 be f9 4d 87 3e 3b 44 48 3b 02 fd 96 be
       -0.17376438 0.26426676 0.0030558247 -0.29489905
000240 68 1b 90 be 9f c3 12 3e 38 cb 8f 3c 45 90 37 3e
       -0.2814591 0.14332436 0.017552957 0.17926128
000250 f8 9c 8e 3d cf 01 a5 3e e4 d6 9e 3e 4f 4b 67 3e
       0.06963533 0.32227942 0.31023324 0.22587322
000260 cc b0 65 be 7f 20 55 be 49 6d 93 bc cd 1f d9 bc
       -0.22430724 -0.20813178 -0.017996447 -0.026504422
000270 10 39 2e be 50 51 e7 bd 3e 04 8b 3e ad 43 9c 3e
       -0.17013955 -0.11294806 0.27151674 0.30520383
000280 12 00 99 be 0f 10 1c bd 14 ec 5c be ed 9d 16 3e
       -0.29882866 -0.038101252 -0.21574432 0.14708681
000290 22 88 99 3e 12 4e a6 3e 51 c4 9a be 0d 7f 5a bd
       0.29986674 0.32481438 -0.30227903 -0.05334382
0002a0 74 76 27 3e c3 1d 80 be f2 9e 9c 3d 08 1b 44 3d
       0.1635378 -0.25022706 0.07647504 0.04787734
0002b0 23 7c b7 bd bc 53 7f be ff a9 0a be 38 6a a1 3d
       -0.08959224 -0.24934286 -0.13541411 0.07881588
0002c0 42 a3 75 3d 44 c7 60 3e 5a 11 d5 3d 96 4e 29 3e
       0.059970148 0.21951014 0.104037 0.16533884
0002d0 79 ce c2 3d 06 8d 9c be f2 58 ef 3d 2d fa fd bc
       0.09512038 -0.30576342 0.11686887 -0.031003082
0002e0 99 d2 b0 bc a5 b5 6a 3e 4d 03 e9 bd fc 22 90 be
       -0.021584796 0.22920854 -0.11377583 -0.2815169
0002f0 b8 bc 85 bd 4d b5 91 3e 74 ca 22 be de 7a ae bc
       -0.06530136 0.28458634 -0.15897542 -0.021298822
000300 f5 14 a0 3e fe 8a 0d 3d c8 c4 95 bc 20 cd 7b 3e
       0.3126599 0.03455638 -0.01828231 0.24589968
000310 aa 2a 74 3e ad 83 55 3d e3 8f 15 bd ae 3f 1a be
       0.238444 0.05212753 -0.036514174 -0.15063354
000320 93 af ba 3b 20 2f 8a be c8 03 e8 3b 45 1e a8 be
       0.0056971996 -0.2698908 0.007080529 -0.32835594
000330 46 de 09 3e da 47 33 be 7f 89 60 bd c8 bb 20 3d
       0.13463697 -0.17507878 -0.054818626 0.039241582
000340 74 84 97 3e 97 65 3b 3e d0 7c 3a 3d 9b 65 92 be
       0.2959324 0.18300472 0.045529187 -0.28593144
000350 78 9f 65 3e e1 e0 87 3e 5a 19 a5 3e a5 c9 0b bd
       0.22424114 0.26538756 0.32245904 -0.03412785
000360 ed 10 54 3d d6 11 07 3e 38 ef 89 3e 41 d4 10 be
       0.051773954 0.13190398 0.26940322 -0.14143468
000370 89 6e bc bd 4b 2c 99 3e 6a 6b a3 be ba 21 ae bd
       -0.092007704 0.29916605 -0.31917888 -0.085025266
000380 ad 3e f3 3d d8 15 63 3e a7 16 18 be 59 fe 75 be
       0.11877189 0.22176301 -0.14852391 -0.24022807
000390 59 25 2f 3a 82 79 eb 3d bc a1 9a 3e 86 53 74 be
       0.00066812854 0.11497785 0.3020152 -0.23859987
0003a0 14 7c 64 3e d4 e8 5c bd 75 57 bd 3d a3 5b 11 bd
       0.22312957 -0.05393298 0.09245197 -0.035487782
0003b0 9b 19 63 be 0e fb a5 be 89 90 0f bd f4 e6 d9 bc
       -0.22177736 -0.32418102 -0.03504995 -0.026599385
0003c0 5f ae 72 3c bb 3e 36 3e 18 92 b3 3d c1 7a 9c 3e
       0.014812081 0.17797367 0.087680995 0.30562404
0003d0 46 7a 94 3e b5 aa 6d be f9 06 a3 bd e8 a9 8a ba
       0.28999537 -0.23209651 -0.07960314 -0.00105792
0003e0 ca 0c 09 bd 2f ae 07 3d 55 bd aa be e1 77 92 3e
       -0.033459462 0.0331251 -0.33347574 0.28607085
0003f0 35 a7 25 be 6c fd 29 3e 75 dc 93 3e c0 b3 8f 3e
       -0.16177066 0.16600579 0.28879133 0.28066826

conv1.bias f4 [64]
000000 2f 21 5d bc f3 ab 5c be 3b 20 66 3a 15 97 71 3e
       -0.013496681 -0.21549968 0.00087786064 0.2359279
000010 ae a7 37 3d ed 6e 2c 3e 93 9e a9 3d e4 d1 87 3d
       0.044837646 0.1683919 0.08282199 0.0663183
000020 2c 0f 06 3e 26 0f fd bc 0f d5 0c be 9d 3e 0a 3e
       0.13091725 -0.030891012 -0.1375315 0.13500448
000030 62 c5 47 3d 69 75 72 3e fe 51 d7 bc 85 70 39 3e
       0.048772223 0.23677601 -0.026284214 0.18109329
000040 fb af 7f be 8e 40 5c bd 6d 81 40 be 32 d1 02 bd
       -0.24969475 -0.0537725 -0.18799372 -0.031937785
000050 45 04 a5 be cf c1 9a be c4 03 a5 be e0 cc 59 3e
       -0.3222982 -0.3022599 -0.32229435 0.2126956
000060 c7 11 fe 3d 81 5b 41 be aa 89 86 be 6c bd cc 3d
       0.124057345 -0.18882562 -0.26276904 0.09997067
000070 1f ab 93 3e 8c 0a 3f be 57 2b 13 be 80 f6 3e be
       0.28841493 -0.18656367 -0.14372002 -0.1864872
000080 f6 f5 54 be a3 bd 9f be 14 ab 9b 3e 07 c8 78 3e
       -0.20796952 -0.3119937 0.3040396 0.24295054
000090 46 7f 9a 3e 44 89 df bb 17 41 60 3e 74 03 67 3d
       0.30175227 -0.0068217833 0.2189983 0.056399778
0000a0 91 a6 4b 3e b5 43 0a 3e 92 6a 6f 3e ae 16 c0 bd
       0.19887759 0.1350239 0.23380497 -0.09379326
0000b0 c3 57 b3 bd e4 cf a2 be d9 94 e4 bd 25 2d a8 be
       -0.087569736 -0.31799233 -0.11161203 -0.32846943
0000c0 f2 6c 98 bd 83 ad 9a be 49 2d f1 3d f1 79 94 bd
       -0.07442655 -0.30210504 0.117762156 -0.07249821
0000d0 74 60 62 bd 44 ca b6 3d 00 38 9a be d9 cf 02 3d
       -0.055267766 0.08925298 -0.3012085 0.0319365
0000e0 ad 15 a2 be 38 d7 a6 bd fe 47 fe 3d b4 42 2c 3e
       -0.31657162 -0.081465185 0.12416075 0.1682232
0000f0 f1 3c 0b 3e 61 10 81 be bb 54 cd bd 6f 91 09 3d
       0.13597466 -0.2520781 -0.10025927 0.033585962

bn1.weight f4 [64]
000000 e9 2e 80 3f b5 40 80 3f eb 4d 7f 3f 46 a9 81 3f
       1.0014316 1.0019747 0.9972827 1.0129783
000010 a7 b3 7d 3f c3 99 81 3f 64 14 7f 3f a0 03 81 3f
       0.9910225 1.0125049 0.9964049 1.0079231
000020 2f be 80 3f c8 31 7f 3f ad d4 7d 3f a0 b2 7a 3f
       1.005804 0.99685335 0.9915264 0.9792881
000030 70 79 80 3f 0a 9b 82 3f a2 0d 81 3f 9e 7c 7f 3f
       1.003706 1.0203564 1.0082285 0.99799526
000040 db 6a 83 3f b5 15 7f 3f 60 5f 80 3f 65 59 81 3f
       1.0266985 0.996425 1.0029106 1.0105406
000050 f0 ae 81 3f 64 45 82 3f 51 a7 80 3f e5 52 7b 3f
       1.0131512 1.0177426 1.0051061 0.9817336
000060 10 10 7f 3f d6 86 7e 3f 8b 01 7c 3f 51 d7 7f 3f
       0.99633884 0.99424493 0.98439854 0.9993792
000070 89 3a 7c 3f d0 46 7d 3f 10 66 80 3f dd d7 77 3f
       0.9852682 0.98936176 1.0031147 0.96813756
000080 72 49 80 3f 50 94 81 3f e3 9d 7c 3f 77 60 80 3f
       1.0022414 1.0123386 0.98678416 1.0029439
000090 61 f4 7d 3f d4 38 81 3f a9 e7 81 3f 62 a6 7c 3f
       0.9920102 1.0095468 1.0148822 0.9869138
0000a0 45 66 82 3f fb 75 7f 3f 92 a2 82 3f 38 89 7e 3f
       1.018746 0.997894 1.0205863 0.9942813
0000b0 e6 70 80 3f 87 9a 82 3f dc 88 7c 3f fe aa 79 3f
       1.0034454 1.0203408 0.9864633 0.9752654
0000c0 ea 73 7c 3f f4 f3 82 3f 9f 4e 7d 3f 7d 10 7d 3f
       0.9861437 1.0230699 0.9894809 0.98853284
0000d0 c7 99 7e 3f 6a b0 7c 3f 85 fe 7e 3f 50 89 7f 3f
       0.99453396 0.98706686 0.99607116 0.998189
0000e0 50 f3 7c 3f 89 ce 7d 3f 8b 8e 82 3f ee 33 7e 3f
       0.98808765 0.9914327 1.0199751 0.9929799
0000f0 8f e8 80 3f 2b cc 7f 3f c3 95 7f 3f 16 3f 7b 3f
       1.0070971 0.9992091 0.99837893 0.98143137

bn1.bias f4 [64]
000000 3f 4e ae 3b a7 05 42 3b de f5 b5 ba 7d f6 76 bb
       0.0053193863 0.002960542 -0.0013882478 -0.003768354
000010 f1 99 7d ba 96 44 c3 bb c6 9c 70 3c cf 18 cd 3b
       -0.0009674123 -0.005959104 0.014685815 0.006259061
000020 1c 34 50 bb 2d f3 8f 3a 2d 19 48 bc 62 1f 3f bc
       -0.003176934 0.0010982506 -0.012213034 -0.011665197
000030 0a d1 88 3b 71 51 97 3c d6 bf 81 3b cb 7a e7 bb
       0.00417531 0.018471451 0.003959636 -0.0070641986
000040 9a c3 95 bc 3d 11 f8 3b 66 5e dc bb a5 3c 75 bc
       -0.018281747 0.0075704143 -0.0067251204 -0.014968072
000050 87 a7 b9 3c 95 dd d4 3a 61 12 34 3b f1 53 d6 bc
       0.022662891 0.0016240353 0.0027476775 -0.026163073
000060 05 50 11 bb c0 7d 8a bc 49 17 b7 bc 3f d9 77 ba
       -0.002217294 -0.016905665 -0.02234997 -0.00094546744
000070 7f 97 48 bc c3 6f e5 bc f0 bf 99 3b 54 f2 f5 3b
       -0.012243151 -0.028007394 0.00469207 0.0075056944
000080 ad 5a 95 bc 55 36 85 bc aa 7f 75 bb 25 f2 eb bb
       -0.018231714 -0.01626126 -0.0037460127 -0.0072004967
000090 f0 3b 00 bc d5 73 fc 3b 70 b9 06 3c 96 a8 35 3c
       -0.00782679 0.007704238 0.008222923 0.011087557
0000a0 6c 0d 0f bb 74 ba 87 3c 05 09 d5 3b 83 57 6e bb
       -0.0021828068 0.0165684 0.0065013194 -0.003636808
0000b0 e2 91 f9 3b 35 23 2c 3b 52 c2 ea bb ab f1 a3 bc
       0.0076162675 0.0026266102 -0.007164278 -0.020012697
0000c0 7f 41 6f bb f7 d4 6d bb f2 f1 c1 39 df 87 20 bc
       -0.0036507545 -0.0036290267 0.00036992092 -0.009798019
0000d0 46 63 d9 3a 3d 10 81 3c 6c b3 cf bb f5 d0 7d 3b
       0.0016585372 0.015754813 -0.0063385274 0.0038729284
0000e0 89 f6 bd bc 41 d4 56 bc 8e c6 b4 3c 0e 6c 9a bb
       -0.023188846 -0.013112129 0.022067335 -0.004712588
0000f0 23 2e c7 39 67 b3 10 3b 66 57 d9 3b 55 44 26 bb
       0.00037990612 0.0022079588 0.006632733 -0.002537032

bn1.running_mean f4 [64]
000000 11 0c 80 bb c8 f1 52 be 09 e8 1d bb 15 00 71 3e
       -0.0039076884 -0.20600045 -0.0024094603 0.23535188
000010 bf a5 38 3d ba d6 38 3e a4 16 b5 3d aa ca 8e 3d
       0.045079943 0.18050662 0.08842209 0.06972249
000020 10 a0 06 3e b9 cd 0f bd 98 c7 09 be e7 39 08 3e
       0.13146996 -0.0351083 -0.13455045 0.13303338
000030 b1 4a 46 3d c9 33 78 3e 13 87 b6 bc 1a 41 3d 3e
       0.048411075 0.24238504 -0.022281205 0.18481866
000040 0c 9d 84 be 4c f7 4f bd ac b2 40 be a0 6f 0f bd
       -0.25901067 -0.05077295 -0.18818158 -0.035018563
000050 ee f3 a2 be e4 f7 9f be 6e aa a0 be c9 0f 51 3e
       -0.3182673 -0.31243813 -0.31380028 0.20416178
000060 72 32 fd 3d 83 06 44 be fa 4c 85 be f4 8e ca 3d
       0.12363137 -0.19143109 -0.2603529 0.098905474
000070 a0 67 92 3e d7 f4 43 be 04 b7 11 be 92 ef 3f be
       0.28594685 -0.19136368 -0.14229971 -0.18743733
000080 25 87 59 be c5 56 a2 be 1f b8 9d 3e 59 c4 77 3e
       -0.2124296 -0.31706825 0.30804536 0.24195994
000090 4b d5 98 3e b3 77 fc 3a 72 e5 62 3e ba d1 7e 3d
       0.2985023 0.0019261747 0.22157839 0.06221173
0000a0 cd ca 4a 3e 60 d3 0c 3e 9e 9a 75 3e 9f ae c3 bd
       0.19803925 0.13752508 0.23984763 -0.09554791
0000b0 dc 13 b8 bd 71 28 a2 be cd 52 f4 bd 67 17 aa be
       -0.08988163 -0.3167148 -0.119298555 -0.3322098
0000c0 ee ef 9b bd 2e 62 9a be 17 4f f3 3d 61 b8 99 bd
       -0.07614122 -0.3015303 0.118803196 -0.075058706
0000d0 76 20 57 bd ef 62 c5 3d 7b 00 9a be a4 e6 19 3d
       -0.05252119 0.09638011 -0.30078492 0.03757347
0000e0 57 15 aa be da 36 ac bd 1c 27 05 3e bc a8 36 3e
       -0.33219406 -0.084088996 0.130032 0.17837805
0000f0 c9 d5 08 3e 44 50 83 be b1 29 ca bd ea b8 1b 3d
       0.13362803 -0.25647175 -0.09871233 0.038018145

bn1.running_var f4 [64]
000000 1e 30 92 3d 08 d3 8a 3c 8b 73 60 3d d9 f8 9b 3d
       0.07138084 0.01694633 0.05479769 0.07615823
000010 ea 25 bd 3d 4a 27 6b 3d 62 e5 03 3d 89 ec 8b 3d
       0.09235747 0.057410516 0.03220118 0.06832225
000020 f2 88 91 3d 0d 91 9f 3d 67 9f cb 3d 87 8e 9e 3d
       0.07106198 0.07791338 0.09942513 0.07742029
000030 00 fb b1 3d 05 63 a3 3d 1e 61 4b 3d a5 06 73 3d
       0.086904526 0.07977871 0.049653165 0.05933251
000040 28 94 b8 3d 53 dc ab 3d e3 ff d6 3d 7f 7d 1a 3d
       0.090126336 0.08391633 0.10498025 0.03771734
000050 56 dd 57 3d 19 02 5a 3d de d4 56 3d e3 f9 cf 3d
       0.052701317 0.053224657 0.0524491 0.10155084
000060 66 83 78 3d 50 34 97 3d ee eb 39 3d 9f 45 ac 3d
       0.060672186 0.07383025 0.045391016 0.08411717
000070 ea 0d be 3d 3c 41 1c 3d 03 98 51 3d da 0e ab 3d
       0.09279998 0.03814815 0.05117036 0.08352442
000080 bf 45 d2 3d 4a bd a1 3d 73 7d 81 3d ef 60 d9 3d
       0.10267209 0.07897432 0.06322756 0.10614192
000090 8c 4a a6 3d 2d 1b 09 3d ca f0 77 3d 40 1f 42 3d
       0.081196874 0.033473182 0.06053237 0.047393084
0000a0 7e 9f 53 3d a2 ac a6 3d 1e 82 66 3d 46 5b d3 3d
       0.051665775 0.08138396 0.056276433 0.103201434
0000b0 98 12 20 3d 40 b0 ca 3d 12 04 0b 3d b6 7f 8b 3d
       0.039080232 0.09896898 0.03393943 0.06811468
0000c0 10 3e 9a 3d b1 65 81 3d 39 4a 53 3d 2c db 8a 3d
       0.07531369 0.06318224 0.051584456 0.06780085
0000d0 af 8e 2e 3d 7c fc c7 3d 03 e0 8b 3d 11 14 71 3d
       0.042616542 0.097649544 0.06829836 0.058857027
0000e0 e2 e8 9e 3d 88 5e 88 3d 6d af 0f 3d 39 75 8e 3d
       0.077592626 0.066586554 0.03507941 0.06955952
0000f0 e1 38 b8 3d eb 24 65 3d 41 6a 2c 3d d9 73 9a 3d
       0.08995224 0.05594341 0.04209352 0.075416274

conv2.weight f4 [64, 64, 3, 3]
000000 4c 60 d9 ba 50 a8 1b bd cf 2d 1d 3c ec 49 1d 3b
       -0.0016584485 -0.038002312 0.009593441 0.002400036
000010 b7 da f7 bc 5b 24 2e bb 80 b4 5b 3b cf 7b a8 bb
       -0.030255659 -0.0026571963 0.0033524334 -0.0051417123
000020 24 e2 a6 3c b6 11 b1 bc 2e e4 93 bc a2 ec 64 3c
       0.020371504 -0.02161489 -0.01805314 0.013972433
000030 54 f1 5f bc bc 2d 71 bc eb 51 1a bd 0e 97 c9 bc
       -0.013668377 -0.014720377 -0.03767578 -0.024608161
000040 5e f2 3a 3c 4f a2 ef bc 4a 20 cf 3c 04 0f 83 bc
       0.011410324 -0.0292522 0.025283951 -0.015998371
000050 04 6b 9b 3b a4 17 e7 3b 0b bf 29 bc 47 cf a4 bb
       0.004742982 0.0070523787 -0.01036049 -0.005029592
000060 bd 18 b8 ba 8e 13 5d 3d 17 c7 da 3c e1 ec e4 bc
       -0.0014045459 0.053973727 0.026706262 -0.027944984
000070 5b 48 25 3d 57 a9 bc 3c 4f d4 06 3c 50 c6 e5 3c
       0.040352207 0.023029966 0.008229329 0.028048664
000080 74 f8 0c 3d 17 1a bc 3c e1 c9 58 3b de 4b 8d 3b
       0.03441663 0.02296166 0.0033079314 0.0043120226
000090 13 ff b3 bc 19 57 06 bc 08 31 61 3d e8 d4 ee bc
       -0.021972215 -0.008199477 0.0549784 -0.029154256
0000a0 54 8c 8b bb 05 31 b2 bc c2 07 a9 38 48 02 10 3d
       -0.004258672 -0.02175189 8.059993e-05 0.035158426
0000b0 9c 72 2e 3c de f1 12 bd 60 d2 4c bd c5 a0 b6 3b
       0.010647442 -0.035875194 -0.050005317 0.0055733644
0000c0 ba 9c a7 3c b4 ab 32 bd 6e 82 0a bd a4 b9 f4 bc
       0.020460475 -0.04362078 -0.033815794 -0.029873677
0000d0 72 c7 1f bc 44 f2 a4 bc 40 6f 93 3c 8b 44 bc 3c
       -0.009752141 -0.020135053 0.017997384 0.022981903
0000e0 42 94 d0 3b e0 f0 a5 bc cb 32 38 bd c8 65 f4 bc
       0.00636533 -0.02025646 -0.044970315 -0.02983369
0000f0 36 5c ab 3c 64 f4 0f bd ee cb 2a bd b5 3c e1 3b
       0.020917993 -0.03514518 -0.04169839 0.006873692
000100 c3 3e 9d 3c 3a 60 41 bd f2 9a 6b bc 80 23 ae bb
       0.019194966 -0.04721091 -0.014380204 -0.0053142905
000110 e5 df 80 3c 76 54 6c bc aa 3c 88 3c 94 99 6c 3c
       0.015731761 -0.014424434 0.01663049 0.014440913
000120 6d 42 e4 bc 77 e0 08 bd 20 91 e2 3c a3 33 96 3b
       -0.027863706 -0.03341719 0.027657092 0.0045837923
000130 86 07 1e 3d af d2 7a bd 3a b9 eb bc 72 af 16 bb
       0.038581394 -0.06123608 -0.028774846 -0.0022992757
000140 2a cb ad bc f1 09 04 bd fa 73 5e bd e4 3b 19 bd
       -0.02121504 -0.032236043 -0.054309823 -0.03741063
000150 50 e9 00 bd 7f a1 ef bc a6 da 99 bc 88 8f 1b 3d
       -0.031472504 -0.029251812 -0.018781018 0.03797868
000160 e7 3e 1a bd 12 f8 05 bd 03 5d 0f bd 9b df 1a bd
       -0.037657645 -0.03270728 -0.035000812 -0.037810903
000170 b3 d2 26 3d e9 df a5 3c 7f 5d 57 bd 66 16 97 3c
       0.040728282 0.02024837 -0.0525794 0.018443298
000180 c0 fd 1a 3d b0 65 ad bc dc da dd 3c 0f b8 a8 bc
       0.03783965 -0.021166652 0.0270819 -0.020595578
000190 46 b0 e3 3a 8d ab ec bc 50 a7 77 3c ab 93 21 3d
       0.0017371259 -0.028890396 0.015115574 0.039447468
0001a0 18 59 dc bc 8d d0 21 3d 69 bb ed bb af 41 5b bc
       -0.026897952 0.03950553 -0.007255007 -0.013382359
0001b0 80 26 5a bc 4f 76 bb 3b 2b 8a 97 bc 23 78 99 b9
       -0.013314843 0.0057208906 -0.0184985 -0.00029271943
0001c0 32 47 99 ba 1e 1c ec bb 7a 58 3f 3c 39 11 12 bd
       -0.0011694191 -0.0072055003 0.011678809 -0.035660956
0001d0 9d 8c e2 bc 2c c8 1b bd 08 4b 24 bd e1 b7 38 bc
       -0.02765494 -0.038032696 -0.040110618 -0.011274309
0001e0 31 a5 76 bc df cc 12 bd 11 9c 7c bd 70 c6 1e bc
       -0.015054033 -0.03583991 -0.061672274 -0.009690866
0001f0 13 66 09 3d d7 57 10 3c c2 db 86 bd fb 48 ef bb
       0.03354461 0.008810005 -0.06584884 -0.007302401
000200 16 ef 82 3b e3 05 c8 bc 67 c9 14 3d 66 3e f6 bc
       0.0039957864 -0.02441687 0.036324885 -0.03005905
000210 4c a7 60 bc 24 5a 10 bd 5c 6e da 3c f7 3d f5 3c
       -0.013711762 -0.035242215 0.026663952 0.029936774
000220 c3 b5 9b bc a1 1d a0 bc a4 23 b4 38 f1 c2 43 bd
       -0.01900757 -0.019545378 8.5897074e-05 -0.047793332
000230 5f fd 43 3c b0 c3 bf 3c d5 e0 35 3d 0f ce b2 3a
       0.011962264 0.02340874 0.04440387 0.0013641733
000240 34 ae ec 3c 71 72 12 3d 18 e4 a7 3c 9a 76 02 bd
       0.02889166 0.03575367 0.020494506 -0.03185139
000250 b4 71 09 bc 55 83 fd bc d3 dd cb 3c af 99 f8 bc
       -0.008388925 -0.030946413 0.024886047 -0.03034672
000260 12 e3 75 bb b6 66 b4 bc f8 98 12 3d f7 40 45 3d
       -0.0037519378 -0.022021633 0.035790414 0.04815766
000270 14 fd ab bc 41 4b ed bc 1f 37 0f bc 53 3b c0 bc
       -0.0209947 -0.028966548 -0.008741169 -0.023465788
000280 82 4f 32 3c a2 1d d0 3c 0d c7 15 bd b6 86 10 3d
       0.010883214 0.025404755 -0.036566783 0.03528472
000290 95 eb 25 3d 26 61 fd 3c 1d 01 56 bd 67 30 37 3d
       0.04050787 0.030930113 -0.052247155 0.044723894
0002a0 2d 7d 02 3d da 5f 59 bd d2 91 18 3d a0 ef 1c 3d
       0.03185766 -0.053069927 0.03724844 0.03831446
0002b0 0e 80 62 bc 6b 20 b5 3c b1 33 26 bb 08 23 3d bd
       -0.013824476 0.022110185 -0.00253604 -0.046175987
0002c0 2f fb 3e 3b 07 42 af ba 76 c7 1b 3d 6e 74 af bc
       0.0029141416 -0.0013371118 0.038032018 -0.021417823
0002d0 06 b8 ee 3c 0e 56 26 bc de dd 8c 3c 96 ff d7 bc
       0.029140484 -0.010152353 0.017195638 -0.02636699
0002e0 23 72 ab 3c ea 05 d9 bc b8 33 db 3c 4f c7 a9 3c
       0.020928448 -0.026492078 0.02675806 0.02072492
0002f0 12 ce 28 3d a3 4e 56 3c f5 b2 22 3b 5e ac a6 bc
       0.04121215 0.013080272 0.0024825905 -0.020345863
000300 e4 ef b0 ba 08 d8 4b b8 9e 91 c8 3c 18 97 aa ba
       -0.0013499227 -4.8600166e-05 0.024483498 -0.0013015
000310 e6 a2 2e bd b4 55 33 3a fb dc 7b bc 80 8e b9 bb
       -0.04263582 0.0006841079 -0.01537251 -0.0056627393
000320 ac 31 fa 3c 27 b9 cf 3a 94 1a 14 bc 2c 8e 21 bd
       0.030541264 0.0015848026 -0.00903954 -0.039442226
000330 5a 65 8e bc 22 29 10 3d 15 bf 17 bd 6e 83 fe 3c
       -0.017382313 0.035195477 -0.037047464 0.03106853
000340 90 33 92 bc 32 11 5e bd 36 a5 10 3c 19 54 ab bc
       -0.017846853 -0.054215617 0.008828452 -0.020914124
000350 85 e8 cf 3c c0 68 75 bc 86 c8 8f bb 8e 68 a0 bb
       0.025379429 -0.014978588 -0.004387918 -0.0048952764
000360 f2 bc 88 3c d7 59 ea 39 9b 46 cf 3c 65 bb 26 3c
       0.016691659 0.00044698894 0.025302222 0.010176514
000370 1e 21 f5 bc 6c 8f 1b bd 6b ba db bc 0b f8 6d 3c
       -0.029923018 -0.037978575 -0.02682229 0.01452447
000380 b7 28 89 bc 79 4f 6d 3c 61 5e ac 3c 95 b6 40 3b
       -0.016743047 0.01448428 0.021041097 0.0029405702
000390 b0 cd 37 bd ae c2 09 3d b2 b0 b8 3c 4c 40 93 bc
       -0.044873893 0.033632927 0.022545192 -0.017974995
0003a0 b0 37 db 3c 00 d3 02 3d 83 f3 4f bc f6 c6 65 bd
       0.026759952 0.031939507 -0.012692335 -0.056097947
0003b0 47 d2 72 bc 5e d0 cb 3c d8 2f 10 bd 63 b5 7b 3c
       -0.014820642 0.02487963 -0.035201877 0.01536307
0003c0 f3 f3 34 3c d8 5a af bb 23 f5 0a bd 40 3e 8d bb
       0.01104449 -0.0053514056 -0.033925187 -0.0043103993
0003d0 24 1b db bc ac 98 1f 3c ca fe 34 ba d2 f0 9e bb
       -0.02674634 0.00974099 -0.00069044216 -0.0048504854
0003e0 dc fa 51 bc 35 38 6d 3b c2 23 26 3d 40 8a 26 3c
       -0.012816157 0.0036196832 0.040561445 0.010164797
0003f0 ab 2f 15 bd a6 48 9e 3c be e6 48 bd 74 c7 f3 3c
       -0.036422413 0.01932175 -0.049048178 0.029758193

conv2.bias f4 [64]
000000 53 59 53 bc 36 20 00 3d 25 ce dd 3c 79 90 18 bb
       -0.0128997145 0.03128072 0.027075836 -0.0023279472
000010 0d 95 ea 3c 6f 28 4b 3c c9 16 23 3d aa d4 6f bc
       0.028635526 0.012399777 0.03981665 -0.014638105
000020 04 21 d8 bb 3a b7 2d 3d b1 3c f8 39 2d b2 00 3d
       -0.0065957326 0.042411067 0.00047347465 0.03141992
000030 f7 d2 50 bb 5c e4 95 bb 2a ea 89 3c 88 16 10 3d
       -0.0031864026 -0.0045743417 0.016835291 0.035177737
000040 b8 c1 22 3c 15 9c 22 3d d2 90 a4 bb 76 60 04 bd
       0.009933881 0.039699633 -0.0050221467 -0.032318555
000050 b6 cf d1 bc ea d5 6f 3c 7f 5c 63 bb 14 4f a5 3b
       -0.02561174 0.014638403 -0.0034692583 0.0050448272
000060 26 71 0e 3c 97 44 2b 3c fe 88 13 bd 5f d3 d1 bc
       0.008693969 0.010453365 -0.036019318 -0.025613485
000070 01 49 1d 3d a9 94 1e 3c 4a fa 11 3d 0e b3 80 bc
       0.0383997 0.009678998 0.035639085 -0.01571038
000080 ea 39 07 3b 1c 5f 92 3b ac ea 16 bd 29 3d 2b bd
       0.0020633885 0.0044669043 -0.036844894 -0.041806374
000090 78 5f bb 3c b1 7d b1 bc 5f 7d a9 3b cc cd 41 ba
       0.022872671 -0.02166638 0.005172416 -0.0007393032
0000a0 87 51 6e 3b c0 d9 03 3d 49 c3 b5 3c b0 8a 20 bd
       0.0036364512 0.032190084 0.022187846 -0.039194763
0000b0 78 ce f2 3a e0 44 f8 bc 5b 88 06 3d e4 dd 98 3b
       0.0018524667 -0.03030628 0.032844882 0.0046651233
0000c0 a8 e0 17 3d d2 0a 97 3c 82 fb 2d 3b 9e 0b 11 3c
       0.037079483 0.018437777 0.0026547615 0.008852867
0000d0 0e 88 89 bb 71 0e 0a 3d b4 cd b2 bc 5e 8b 73 bc
       -0.004197127 0.03370518 -0.021826603 -0.014864771
0000e0 98 2f 04 bd 42 22 b0 b9 28 13 1f bc 64 a3 08 3d
       -0.03227195 -0.0003359486 -0.009709157 0.033358946
0000f0 2e b9 ac bc f3 01 8f 3c fd 63 4c 39 fd 88 84 bc
       -0.021084394 0.017456984 0.00019492205 -0.016178602

bn2.weight f4 [64]
000000 26 b2 7a 3f 9d 14 80 3f db ad 80 3f 14 50 81 3f
       0.9792808 1.0006291 1.0053056 1.0102563
000010 ad 8a 81 3f 27 0a 80 3f a3 13 7e 3f 34 a4 80 3f
       1.0120445 1.0003098 0.99248713 1.0050111
000020 d6 de 7f 3f 64 94 80 3f 8f 51 80 3f 31 49 80 3f
       0.99949396 1.0045285 1.002489 1.0022336
000030 4c 63 7f 3f 30 2a 7e 3f 91 f3 7d 3f 06 34 80 3f
       0.9976089 0.99283123 0.9919978 1.0015876
000040 43 9d 80 3f e0 bd 7a 3f 17 4b 80 3f 2c 08 7c 3f
       1.0047992 0.97945976 1.0022916 0.9844997
000050 cc 98 7f 3f 6f 36 82 3f 08 c7 7c 3f 5a 57 7b 3f
       0.99842525 1.0172862 0.987412 0.9818016
000060 30 c9 7f 3f 06 9e 78 3f 7e 0e 82 3f 4b 2b 7d 3f
       0.9991636 0.97116125 1.0160673 0.98894185
000070 7d ac 7f 3f 3a 25 82 3f b9 d5 81 3f 52 cb 83 3f
       0.9987257 1.0167611 1.0143348 1.0296423
000080 6f 09 7f 3f c0 6e 7f 3f af f0 82 3f 77 00 7e 3f
       0.9962377 0.99778366 1.0229701 0.9921946
000090 24 cc 80 3f 99 29 81 3f 9e 81 7e 3f 20 4e 80 3f
       1.0062299 1.009082 0.9941653 1.0023842
0000a0 5f 58 7e 3f a1 b6 83 3f 15 2e 81 3f 2c 86 7b 3f
       0.99353594 1.0290109 1.0092188 0.98251605
0000b0 bc 2e 81 3f 58 43 80 3f a0 09 7d 3f 32 39 7d 3f
       1.0092387 1.0020552 0.9884281 0.989154
0000c0 07 85 81 3f 26 c6 81 3f eb ec 7d 3f 28 c3 80 3f
       1.0118722 1.0138595 0.99189633 1.0059557
0000d0 ae 51 81 3f a8 d7 81 3f a8 2f 80 3f f6 36 80 3f
       1.0103052 1.0143938 1.0014544 1.0016773
0000e0 db a4 7e 3f cd 42 7c 3f 76 cb 80 3f f1 ad 7c 3f
       0.994703 0.9853943 1.0062091 0.98702914
0000f0 8d 95 80 3f f3 b1 82 3f 81 39 7e 3f f8 a1 81 3f
       1.0045639 1.0210556 0.99306494 1.0127554

bn2.bias f4 [64]
000000 43 98 ef ba 0f 4b 8e 3a 4c 16 f6 b8 41 ad d2 bb
       -0.001827963 0.001085611 -0.00011734347 -0.006429345
000010 3b 7c 52 b9 b4 02 20 3b ad a2 dc ba a4 d2 1e bc
       -0.0002007344 0.0024415674 -0.0016833149 -0.009693775
000020 76 af a7 3a 18 d6 e2 3b cd 8f 56 3c 2c e7 a3 3c
       0.001279338 0.0069224946 0.013095808 0.020007692
000030 ff 5c a7 bb 88 0b 81 ba 5e fb 89 3c a2 60 45 3c
       -0.0051075215 -0.0009845356 0.016843494 0.012046965
000040 01 4d da 3b 5a 9b d2 bb dd d3 ca 3b 7e 1d cf bc
       0.0066620116 -0.0064272108 0.006189807 -0.025282618
000050 da 01 70 3c 18 16 54 3c ff ba d9 3b 78 51 c4 3a
       0.014648879 0.012944721 0.006644606 0.0014977893
000060 18 aa 9e bc e6 af ea 3a 15 75 10 3c 59 70 9f bb
       -0.019368216 0.0017905205 0.008816977 -0.004865688
000070 de 3d f8 3b 48 11 a4 3c 66 ad 23 3c f4 ea 93 3c
       0.0075757345 0.020027772 0.009990072 0.01805637
000080 d3 88 1e 3b 6a e2 97 3c cd b9 cc 3c 02 24 f7 bb
       0.002419044 0.01854058 0.02499094 -0.0075421343
000090 79 65 60 bb 2f 3d b0 3c 3a ae 82 3c 04 00 14 3c
       -0.003424017 0.02151355 0.015952218 0.009033207
0000a0 6b d6 bf 3b dd 58 3c 3c 84 d3 0a bb 7b 9f ec 3b
       0.005854418 0.011495796 -0.0021183202 0.00722116
0000b0 05 46 23 3c f2 b4 c8 3b 02 11 a2 3b de 36 c9 39
       0.009965424 0.006125086 0.004945875 0.00038378587
0000c0 ea e3 fb 3b 41 a9 22 3c 64 c4 2b 3a 59 71 0a ba
       0.0076870816 0.009928049 0.0006552397 -0.00052811723
0000d0 ec 95 ad 3c 7e 93 e3 bb 30 49 23 b8 02 9f e1 bb
       0.021189652 -0.0069450727 -3.893039e-05 -0.0068854103
0000e0 fd fd a6 3c f3 77 9a bc 64 c3 1c 3d a3 21 88 bc
       0.020384783 -0.018856024 0.038272277 -0.016617602
0000f0 ae 53 88 bb f8 e0 78 3c 7f 09 a7 3c 21 aa 94 bb
       -0.004160366 0.0151903555 0.02039027 -0.0045368825

bn2.running_mean f4 [64]
000000 ac 44 a6 bb 4d 1e fe be d6 73 fd be 32 ac ed 3d
       -0.0050741043 -0.49632493 -0.49502438 0.11605109
000010 96 90 2b 3e e9 de 49 3c d4 37 11 3e 9f 47 4e 3e
       0.16754374 0.012321212 0.14181453 0.20144509
000020 ad 2d 5a bf df 7e 96 3d 2a 93 8a 3d 5b 55 3b be
       -0.85225946 0.073484175 0.067663506 -0.1829428
000030 ab 21 6a bf 53 23 d9 3e 42 e3 fd be dc 78 14 3f
       -0.91457623 0.42409763 -0.49587446 0.57996917
000040 93 b4 ce be 35 60 49 be 61 8b 1f bf f5 ca 89 be
       -0.40372142 -0.19665606 -0.6232205 -0.26912656
000050 4d c9 53 3f 14 47 9d bd a3 9f 2f bf a0 67 2c 3f
       0.82729036 -0.07679573 -0.6860296 0.6734562
000060 60 83 7f bd 97 fd a9 3e 39 ee 09 bf c3 b4 d4 be
       -0.06238115 0.33201286 -0.53879124 -0.4154416
000070 58 4e d7 3e dc 7a 77 bf d4 ad 37 3d 0e cd e5 3b
       0.4205196 -0.96671844 0.04484351 0.00701297
000080 c9 e2 89 bf d4 1b 47 3d a0 ec 10 3c 32 fb 42 bf
       -1.0772334 0.048610523 0.008845478 -0.76164544
000090 90 bf a7 bf 3d 02 17 be 80 30 81 3f b3 a1 cb be
       -1.3105335 -0.14746948 1.0092926 -0.39771804
0000a0 67 08 e4 bd 91 0c 84 bf b8 4b 01 3f 18 a3 c2 3e
       -0.11134415 -1.0316335 0.5050616 0.38015056
0000b0 91 c2 6d bf 88 72 a2 be 98 95 99 3e b9 0e 26 3f
       -0.9287501 -0.31728005 0.29996943 0.64866215
0000c0 52 bd 36 bd c9 3b 09 bf 87 0f 48 3e ed 4f 9f be
       -0.044614144 -0.5360685 0.19537173 -0.31115666
0000d0 fe d9 20 bf 6c 69 1d bf e6 79 2e be 08 d4 6b be
       -0.6283263 -0.61488986 -0.17038688 -0.23030102
0000e0 33 a4 4f 3f 1a 50 a1 bd 56 54 79 3e 6e 99 3a bf
       0.81109923 -0.07876606 0.24348578 -0.72890365
0000f0 2c 61 da 3d be 7d 89 bd 21 d5 6e 3f e4 93 7b bf
       0.10663065 -0.067134365 0.9329396 -0.9827254

bn2.running_var f4 [64]
000000 b7 ca f7 3e 4a 52 15 3f 78 d7 30 3f eb a4 d5 3e
       0.48396847 0.5832869 0.6907878 0.41727385
000010 ce 9d 2c 3f 8e 27 ce 3e 40 9e 36 3f 09 eb 08 3f
       0.6742829 0.40264553 0.7133522 0.53483635
000020 5c e2 98 3f 16 8d e6 3e 27 6e 01 3f dc be d4 3e
       1.1944079 0.45029515 0.50558704 0.41551864
000030 07 8a 9d 3f 1b a5 0c 3f 54 0e 42 3f b4 62 0d 3f
       1.2307748 0.5493943 0.75803113 0.55228734
000040 d2 43 26 3f 25 e6 54 3f 22 ee 47 3f 44 cf 16 3f
       0.64947236 0.8316367 0.78097737 0.5891001
000050 f7 a3 8f 3f 29 b1 17 3f cd fd 8a 3f 17 8b 4b 3f
       1.1221913 0.592547 1.0858704 0.7950911
000060 20 c4 e9 3e 54 54 17 3f 1c 21 08 3f 5e 8b 22 3f
       0.45657444 0.5911305 0.5317552 0.6349391
000070 56 2b 1e 3f 4b 73 c3 3f 3f 63 04 3f 7c db 9c 3e
       0.61784875 1.526956 0.5171394 0.30636203
000080 ce 23 b3 3f a4 56 dd 3e 6c c1 bd 3e 9b ac 67 3f
       1.3995302 0.43230164 0.37061632 0.9049775
000090 4f 14 de 3f 0d 87 de 3e 31 86 85 3f 54 f1 1e 3f
       1.7349948 0.4346241 1.0431577 0.6208699
0000a0 70 a7 f3 3e 38 a2 9c 3f 24 14 5c 3f 94 99 22 3f
       0.47588682 1.2237005 0.8596823 0.6351559
0000b0 56 f6 a8 3f b2 33 18 3f 2c 0f ce 3e df 80 3d 3f
       1.3200176 0.5945388 0.4024595 0.74024767
0000c0 fd 4c db 3e e4 7c 2c 3f 1c 19 50 3f c2 16 1c 3f
       0.42832175 0.6737807 0.81288314 0.60972226
0000d0 f9 e5 47 3f 65 04 3d 3f 1e a8 21 3f bd 8e 0b 3f
       0.78085285 0.7383483 0.6314715 0.54514676
0000e0 a2 09 6e 3f f6 ff e4 3e 1c 67 1b 3f 43 15 7c 3f
       0.9298345 0.44726533 0.6070421 0.9846994
0000f0 2d 01 16 3f c6 35 f8 3e 1e 5e 84 3f 8a 71 9a 3f
       0.58595544 0.48478526 1.0341222 1.2065899

conv3.weight f4 [64, 64, 3, 3]
000000 8a a0 40 3d 30 d0 00 bd 54 81 a4 3b 4f 23 3f bc
       0.047028102 -0.031448543 0.0050203 -0.011666133
000010 f6 69 95 3c 90 2c 14 bc 08 1b d5 3c 13 99 db 3b
       0.018239003 -0.009043828 0.026013866 0.0067015975
000020 62 0d 0f 3b 1b 4d 2b bd d8 53 a7 39 af 5f 21 3d
       0.0021828045 -0.04182158 0.0003191519 0.03939789
000030 bc 5b aa 3b 18 62 24 bd 18 3c ec 3c 0c 6a c5 3c
       0.005198924 -0.040132612 0.028837249 0.024098419
000040 f7 45 88 3d 43 a1 50 bc c3 8b 16 3d eb fa e1 bb
       0.0665397 -0.01273376 0.03675438 -0.006896367
000050 d1 94 8b bc 85 c4 79 bc eb c5 88 bc 14 00 42 bc
       -0.017038735 -0.015244608 -0.016695937 -0.011840839
000060 17 a4 d4 39 eb 04 c0 3c be 0d ca bb 8b 6e 0a 3d
       0.00040558047 0.023439845 -0.006166189 0.03379683
000070 f7 2f 81 bc 96 a9 db bc 5f 53 98 3c 59 ab 97 3c
       -0.015769942 -0.026814263 0.018594442 0.018514322
000080 fe d6 e2 3c ba 6e d1 3b 84 52 b2 3b 29 f5 0f 3c
       0.027690407 0.0063913735 0.0054419655 0.008786478
000090 13 41 f9 3c 7f 6f 16 bd 76 54 22 bd 3d 67 d5 3b
       0.030426538 -0.036727425 -0.03963133 0.006512551
0000a0 4e 61 6a 3a 0b 38 01 3d 1b bb 08 bd e7 e0 05 bc
       0.0008940891 0.031547587 -0.033381563 -0.008171297
0000b0 63 3e 6a bc bd f3 dd bc f4 f8 35 3c b3 7c 59 bc
       -0.014297101 -0.027093763 0.011106718 -0.0132743595
0000c0 d9 28 63 3c 29 97 bc 3c 4e 90 af bc ba 0f b5 3c
       0.013864719 0.023021298 -0.021431115 0.022102226
0000d0 56 ca b3 bc e7 45 38 bd 49 08 3c bc ac 81 1f bc
       -0.021947067 -0.04498854 -0.011476585 -0.009735506
0000e0 29 82 8c 3a 4e d5 5b 3d 12 f6 0f bd a5 20 e0 bc
       0.0010719943 0.05367022 -0.03514678 -0.027359316
0000f0 67 86 0e 3d de dd 3b 3d 6a 93 bb 3c a0 07 32 3d
       0.034796145 0.045865886 0.022897441 0.043464303
000100 82 5a fb bc b3 3f e9 3c 4f 85 73 3d ba af 1b 3c
       -0.030682806 0.028472757 0.059453305 0.009502346
000110 6b af 15 3c 6d 27 53 3c 0e f2 15 bd 13 8c a4 bb
       0.009136061 0.012887818 -0.036607794 -0.005021581
000120 ba 35 c0 bc 82 a3 00 3d fc 5a 39 3d 4a 91 fc 3c
       -0.023463119 0.031405933 0.045252785 0.030830998
000130 a5 68 c4 bb d8 b7 90 bc 9f 58 a6 bc e6 7f d8 bb
       -0.00599392 -0.017665789 -0.02030593 -0.0066070436
000140 4d 3f 41 3c 86 9f c5 bc a9 e9 88 3c fe 07 ee bc
       0.011794877 -0.024123918 0.01671298 -0.029056545
000150 ee 69 19 bc 52 69 48 bd 4d 6d 96 3c ee 68 16 bd
       -0.0093636345 -0.048928566 0.018362666 -0.036721162
000160 49 14 cd bc 79 2b 2c 3c 4c 58 16 bc 71 7f 0d bd
       -0.025034087 0.010508412 -0.009176325 -0.034545366
000170 3d 40 02 bd 4c 77 37 bd 4c e6 ab bc e8 df c0 bc
       -0.031799544 -0.044791505 -0.020983838 -0.023544267
000180 b9 33 d3 bc 55 22 c2 3c 3b 56 38 bc 80 64 2c bd
       -0.0257815 0.023698011 -0.011251028 -0.04208803
000190 ea e8 19 bd c5 e2 ef ba 6c 53 24 3b b2 8f f4 3c
       -0.03757564 -0.0018301836 0.0025074137 0.029853676
0001a0 71 55 4e bb 9e e5 41 3c 81 9c 09 bc 4e 6e 37 bc
       -0.0031484033 0.01183453 -0.00839913 -0.011195732
0001b0 99 a6 74 bc e0 92 66 bd 7b 4e ca bc bd 18 ae 3b
       -0.014932298 -0.056292415 -0.024695626 0.0053130076
0001c0 ce d2 a6 bb 3f bd bf bc e1 5b d1 3c 7d 65 e0 bc
       -0.005091048 -0.02340567 0.025556507 -0.027392143
0001d0 1c f8 8c 3d 72 79 5c bc e2 4e 42 3c 69 1d b9 bb
       0.068832606 -0.013456689 0.011859627 -0.005649258
0001e0 be 29 ea 3c 08 bc cc 3c 1b 88 da bc 36 d7 07 3d
       0.028584357 0.024992004 -0.026676228 0.033164226
0001f0 aa 2a a5 3c 13 67 ec bc 7e 0d 5d bd ac 92 d6 3b
       0.020161945 -0.028857743 -0.053967945 0.0065482464
000200 46 34 2b bc 26 e4 18 3d a3 4b 67 bb fe 56 c6 bc
       -0.010449475 0.037326954 -0.0035292886 -0.024211403
000210 2b 47 17 bd c0 d8 03 bd b6 32 2d ba 1b 06 49 bc
       -0.036933105 -0.03218913 -0.0006606983 -0.012269522
000220 b0 ce b1 ba 15 3e b3 3c 59 7e 1e 3d 22 f3 1b 3d
       -0.0013565626 0.021880189 0.038694713 0.038073666
000230 b6 53 be bc 4f 10 31 bd 0b 22 1e bb 95 79 bd bb
       -0.023233276 -0.043228444 -0.0024129178 -0.005782316
000240 39 66 ca bc e3 85 cc 3c af 3f ff 3c df 9f 16 bd
       -0.024706947 0.024966186 0.031158296 -0.03677356
000250 ca b6 82 bc 82 ba b8 bb bc 0f 54 3d 51 43 30 3d
       -0.015956301 -0.005637468 0.051772818 0.043032948
000260 ed 76 19 bd 93 4c de 3c f9 03 46 ba 83 f0 e4 bc
       -0.037466932 0.027136123 -0.00075536926 -0.027946716
000270 c0 10 9b bc cb ca 7c 3c 74 99 42 bb 46 58 ee ba
       -0.018928885 0.015429209 -0.0029693516 -0.0018184267
000280 47 ae d5 bc 8e bb 8e bc 82 99 d6 3c f0 1e 34 3c
       -0.026084078 -0.017423417 0.026196245 0.010993704
000290 20 30 8d 3c 66 b9 b7 bc f5 05 0e bd bc 9f d9 3b
       0.017234862 -0.022427272 -0.03467365 0.0066413563
0002a0 04 e5 27 3c ca db 45 bc a1 c0 20 3d 60 74 70 3c
       0.010247473 -0.012076328 0.039246205 0.014676183
0002b0 ca 62 87 bc 7d 8f a1 bc b4 94 1a 3d 10 da 80 bc
       -0.016526598 -0.01972174 0.03773947 -0.01572898
0002c0 6f eb 5c 3d 8b 16 91 ba 95 7c af bc 18 32 57 bd
       0.053935464 -0.001106934 -0.02142171 -0.052538007
0002d0 87 a7 c0 bc 6c 6d 3f bd b5 42 78 3c 07 a6 f5 bc
       -0.023517383 -0.046735212 0.015152623 -0.029986395
0002e0 b1 ab bc bc ab d3 db 3c a4 66 98 bc bf 30 cd bb
       -0.023031088 0.02683433 -0.01860363 -0.0062619145
0002f0 18 e4 e3 bc be e7 0d 3d 71 19 3d 3d 72 5f e6 bc
       -0.027818725 0.034644835 0.04616684 -0.028121684
000300 33 da 3f 3d f7 e5 dd 3b bc 27 5a bc 7f b0 8d bc
       0.04683895 0.0067717987 -0.0133151375 -0.017296074
000310 6b 8c 63 3c ab 34 37 bd 8c 63 1c 3d 6d 48 98 bc
       0.013888459 -0.044727962 0.038180873 -0.018589223
000320 c3 30 c2 3c fa b1 f6 bb 41 93 88 bc 15 4f 54 3d
       0.023704892 -0.0075285407 -0.016671779 0.05183323
000330 6e 0a d0 3c 72 fb 3b bd f0 92 ba 3b 0e ac ea 3b
       0.025395598 -0.045894094 0.005693786 0.007161624
000340 32 ce ba bc f4 06 a7 3c 53 be 08 bd 86 a3 e2 3c
       -0.0228034 0.020389058 -0.033384632 0.027665865
000350 bb b2 44 3b d7 fe 3c bc ef b1 06 bd a1 fa 42 bc
       0.0030013758 -0.011535368 -0.032884534 -0.011900575
000360 c1 6e 0a 3d 0f f2 b4 3c 2d fb ee bb 88 87 07 3d
       0.03379703 0.022088079 -0.007293126 0.033088237
000370 cc 75 24 bc 61 a9 3a bd 5e 27 11 bc a4 b6 7e bc
       -0.010037851 -0.04557169 -0.0088594835 -0.015546475
000380 4e 4a aa bc 49 ed 29 3c 48 bb 2a 3c d3 ba bd 39
       -0.020787384 0.010371515 0.010420628 0.00036188084
000390 8f a7 04 bc 3b 9d f6 bb ed cc 85 3c 8e 07 91 3b
       -0.00809659 -0.0075260676 0.016333068 0.0044259494
0003a0 1c 3d 1e b9 db e6 00 bc b7 ed 88 3b 5d ae 7e 3c
       -0.00015090819 -0.00786754 0.0041787284 0.015544501
0003b0 c9 32 a4 3b cf 01 59 bc 1f 29 20 bd 2c 96 33 3b
       0.005010937 -0.01324506 -0.039101716 0.0027402742
0003c0 90 06 c5 3c 94 71 3b bc c2 ae 82 bc 7b 0f 56 3c
       0.02405098 -0.011440653 -0.015952472 0.013065214
0003d0 0e 4d 05 3c 1d d2 08 3d 91 08 25 3c 5f 77 99 3c
       0.008136047 0.033403505 0.010072843 0.018733678
0003e0 b3 20 ab 3c 6e af 2d bd 69 df b6 bc 3b 5f 56 3c
       0.020889616 -0.04240363 -0.022323327 0.013084228
0003f0 a5 7c a7 3c fc e4 1f bd 4e b5 d2 3c a2 48 3a bd
       0.020445177 -0.039036736 0.025721218 -0.045479424

conv3.bias f4 [64]
000000 26 1a 02 bd a7 63 ea 3c 1c c5 05 3d f0 69 68 bc
       -0.03176322 0.028611971 0.03265868 -0.014185414
000010 06 34 c7 3c 1f 14 dd 3b a6 db c6 3b e6 f4 0a 3c
       0.024316799 0.0067467834 0.0060686646 0.00848124
000020 d4 0c d3 3b e0 e6 f1 bc 23 12 c0 bb 79 68 12 3d
       0.006440738 -0.029529035 -0.005861537 0.035744164
000030 bc 52 70 3c c3 a7 54 ba 02 1c 00 bd c4 5d 89 bc
       0.014668163 -0.00081121566 -0.03127671 -0.016768344
000040 2f 48 f6 3c 48 2b 64 bc d3 2d 1e 3d 4d ac bb 3c
       0.030063717 -0.013926335 0.03861792 0.022909308
000050 31 e9 fc 3c 77 34 ae 3b 76 77 0e 3c 8c e5 b5 bc
       0.030872913 0.005316313 0.008695474 -0.022204183
000060 4f 7b d8 3c 20 ea 10 bc b6 ab d1 bc a6 8e eb 3c
       0.026425986 -0.008844882 -0.025594573 0.028754544
000070 39 0f 2c 3d 96 c2 35 3b fb 02 32 3b 84 1e e3 3c
       0.042006705 0.002773439 0.002716242 0.027724512
000080 6e be b1 bb 00 73 5e bc 8b b9 fd 39 93 34 8b bc
       -0.0054243123 -0.013577223 0.0004839416 -0.016992843
000090 76 8d e3 3c bc f4 23 bd 43 db 02 3b 8e 93 0b 3d
       0.027777415 -0.04002832 0.0019967116 0.034076266
0000a0 c2 5e 31 bc 23 e5 fe bc a7 52 9a 3c e8 0f 17 bd
       -0.010825815 -0.03111512 0.01883824 -0.036880404
0000b0 7e a1 20 3d 3a 3d 11 3d 9a a4 15 3d 94 15 9f 3c
       0.03921651 0.03545878 0.03653393 0.019419469
0000c0 73 f8 da bc 0b e0 15 bc 2f fb 82 bc e7 d3 0c bd
       -0.026729798 -0.009147654 -0.015988914 -0.034381773
0000d0 91 e2 aa bc 42 7d d4 3c a0 45 79 bc 62 e3 bb bc
       -0.020859988 0.025938634 -0.015214354 -0.022935573
0000e0 96 4e 1a 3d 31 d5 1b bc e1 bc 26 3d 65 ef c3 bc
       0.0376726 -0.009511278 0.040707473 -0.023917863
0000f0 56 69 1f bd 8b 88 4c bb 2b 46 af bc d2 f7 35 39
       -0.038918816 -0.0031209316 -0.021395763 0.00017353825

bn3.weight f4 [64]
000000 9c f9 7f 3f 92 37 84 3f 2f 00 80 3f 2d f8 7f 3f
       0.9999025 1.0329459 1.0000056 0.9998806
000010 5b 84 80 3f ad 2b 7e 3f a8 5d 7f 3f 04 da 7d 3f
       1.0040392 0.99285394 0.99752283 0.9916079
000020 6a bf 80 3f 83 07 7d 3f 9e f3 7e 3f 38 37 82 3f
       1.0058415 0.98839587 0.9959048 1.0173101
000030 c1 83 7f 3f 30 18 7c 3f bc 5f 7e 3f ce e2 7f 3f
       0.99810416 0.9847441 0.9936483 0.9995545
000040 75 5e 7d 3f cd ae 7c 3f ef e8 7c 3f 7e b3 81 3f
       0.98972255 0.98704225 0.9879293 1.0132902
000050 fd c9 80 3f c9 28 82 3f 73 35 80 3f 65 96 7d 3f
       1.0061642 1.0168697 1.0016311 0.9905761
000060 f3 c8 82 3f bc 44 7f 3f 78 4b 7f 3f 6f 9f 81 3f
       1.0217575 0.99714255 0.9972453 1.012678
000070 03 09 81 3f 7c 94 81 3f 67 8e 7f 3f ee 49 80 3f
       1.0080875 1.0123439 0.99826664 1.0022562
000080 93 91 7e 3f 12 80 7d 3f 57 ff 81 3f bd e5 80 3f
       0.9944088 0.99023545 1.0156049 1.007011
000090 e6 ef 7e 3f 20 33 7b 3f 4b 91 81 3f fb cc 83 3f
       0.99584806 0.98124886 1.0122465 1.029693
0000a0 82 e9 7f 3f 14 9b 80 3f 69 6b 7b 3f 3e 8a 78 3f
       0.9996568 1.0047326 0.9821077 0.9708594
0000b0 31 91 7f 3f fa 52 83 3f c2 5d 80 3f c0 3d 7e 3f
       0.9983092 1.0259697 1.0028613 0.99312973
0000c0 df a0 80 3f 12 16 80 3f 16 bc 7b 3f 25 13 80 3f
       1.0049094 1.0006735 0.9833387 1.0005842
0000d0 23 76 83 3f 3b bd 81 3f 7f 01 7e 3f e2 c6 82 3f
       1.0270427 1.0135874 0.9922103 1.0216944
0000e0 4f 59 80 3f 66 ae 7f 3f de 44 81 3f e5 3c 80 3f
       1.0027255 0.99875486 1.0099142 1.0018584
0000f0 23 c4 80 3f 87 36 7f 3f 52 d6 80 3f f1 11 7c 3f
       1.0059856 0.9969258 1.0065405 0.98464876

bn3.bias f4 [64]
000000 8a a6 25 bc 6b 2a de 3c 8f de 59 3c c5 b8 0d 3c
       -0.010110507 0.027119836 0.013297691 0.0086500095
000010 f1 a3 5e 3c a7 b0 44 3c 1d 53 e3 bb 59 13 f5 3c
       0.013588891 0.012005008 -0.006937398 0.029916452
000020 01 47 6d 3b 4f 9f 8b 3c 8b e5 8d 3c e8 a2 aa 3c
       0.0036205652 0.017043738 0.017321369 0.020829633
000030 22 21 32 3b 95 1f 11 bd 99 d9 07 bc 7d 0b 87 3b
       0.0027180393 -0.03543051 -0.008291625 0.0041212426
000040 36 62 48 3b a9 37 0e 3c 59 df 4a bc 95 85 f5 3b
       0.0030576116 0.008680263 -0.012382352 0.007492731
000050 8c cb a7 bb 1c 4a 03 3c a7 f1 7e 3b 4c 9b 08 3d
       -0.0051207 0.0080132745 0.003890136 0.033351228
000060 71 e4 ab b9 5f c7 18 3a 8a 15 7a 3c c6 51 0d bc
       -0.00032785864 0.00058280485 0.015263924 -0.008625453
000070 75 1c 57 3c 7e bc c5 3c ed 2e 84 ba 64 b7 ad 3c
       0.013129343 0.024137732 -0.0010084786 0.021205612
000080 ff bc ea 3b e0 ce 50 bb 01 d1 e8 3b de 01 81 3c
       0.0071636434 -0.0031861588 0.0071049933 0.01574796
000090 d4 84 78 bb 7b c1 00 bc ed 1c 4c 3c 9f 0e 1a 3d
       -0.0037920969 -0.007858629 0.012458068 0.0376116
0000a0 b2 e4 01 bc da 6b 00 bc 24 ee 28 bb 0a 77 87 bc
       -0.00792806 -0.007838214 -0.0025776708 -0.016536254
0000b0 0a 9a fe bb 7d 4f 87 3c 00 16 89 3c 8a d2 76 bb
       -0.0077698277 0.016517395 0.016734123 -0.0037662112
0000c0 7a 0f a8 bb 41 79 b6 3b d4 ee 88 bb 17 df 8a 3b
       -0.005128798 0.005568654 -0.004178861 0.00423802
0000d0 83 f4 7d 3c ab fd 92 3c db 01 d9 3b b7 9d 37 3c
       0.015500191 0.017943224 0.0066225356 0.011207036
0000e0 26 72 40 3a 52 e0 ad 3c a1 a2 bb 3a 5b 32 db bb
       0.0007341228 0.021225128 0.0014315435 -0.0066893524
0000f0 15 11 1b 3b af 10 32 3b ca 0f b8 bb 3a 99 3d 3a
       0.0023661305 0.0027170589 -0.0056171166 0.00072326104

bn3.running_mean f4 [64]
000000 c7 48 ca be 4b 02 4c be b1 16 dc 3e 00 5f 55 3f
       -0.3950865 -0.1992275 0.42986062 0.83348083
000010 e9 71 ca be 72 97 c1 3d 06 da b4 3e 14 7d 07 3c
       -0.39540032 0.09452714 0.3532259 0.008269567
000020 2b f9 42 bf e8 95 6b bf 98 80 36 3f e7 a3 9a 3e
       -0.7616145 -0.92025614 0.7128997 0.30203173
000030 fc ea 2e bf ba 52 58 3f 66 23 d5 be fa 11 d3 bd
       -0.6832731 0.8450123 -0.4162857 -0.10306163
000040 70 a9 85 bf 85 41 41 3e 0d 82 0f 3f 4e 0f a9 bd
       -1.0442333 0.1887265 0.56057817 -0.08254872
000050 06 ba 53 3f 34 fa 9c be c4 df 9c 3d 81 1d 90 be
       0.82705724 -0.3065964 0.076598674 -0.2814751
000060 4b bd 36 3e 0c 7d 54 bf 55 23 72 3e b8 38 a9 3d
       0.17845647 -0.83003306 0.2364629 0.08262771
000070 16 c3 92 be 93 6b 2c bf 0e 62 60 3f 9b 21 30 bf
       -0.28664464 -0.67351645 0.8764962 -0.6880128
000080 5c 38 54 bf 14 7e cb 3d 5c 2e 55 3f eb c6 f1 be
       -0.828985 0.09936157 0.83273864 -0.47222075
000090 27 69 b2 be 50 22 9f bf 82 cf 8f 3f af a1 fc bd
       -0.3484585 -1.2432346 1.1235201 -0.12335526
0000a0 1f 8b 2f bf f8 24 6b 3f 34 0e 6c 3e 39 52 20 bf
       -0.68571657 0.91853285 0.23052293 -0.6262546
0000b0 d2 1d 2a bf 44 45 9e be 7c e7 12 3f 5c 0d 2f bf
       -0.6645175 -0.3091222 0.5738447 -0.6837976
0000c0 50 dd d0 3e 4f 78 41 3f 5f 99 1d 3d ca ae 6e bf
       0.40793848 0.755742 0.038476344 -0.93235457
0000d0 60 70 a8 be 2a 40 85 3d c2 1e 13 3f 0b 03 11 3d
       -0.32898235 0.06506379 0.5746881 0.035403293
0000e0 23 f4 2e be 42 b5 e6 3e 1a 3c 5c 3f d3 9c 5d 3f
       -0.17085318 0.45060164 0.8602921 0.8656742
0000f0 c6 25 8a 3e 50 da 69 3f 3b 64 4e bf a4 19 d6 3e
       0.26981944 0.91348743 -0.8062169 0.41816437

bn3.running_var f4 [64]
000000 f7 ca a9 3e 72 c3 cf 3e 06 a3 44 3f 99 1e 65 3f
       0.33162662 0.405788 0.76811254 0.89499813
000010 38 9d d5 3e 08 3d c6 3e 02 94 04 3f ec fb 4c 3f
       0.4172151 0.38718438 0.5178834 0.800719
000020 3c 55 8e 3f 4c b7 f4 3e cc 02 67 3f 3d 91 0e 3f
       1.1119761 0.47796094 0.9023864 0.55690366
000030 bb 7b ca 3e 19 b6 be 3e f2 78 a6 3e ad 53 83 3e
       0.39547524 0.37248304 0.3251415 0.25649777
000040 39 49 d3 3f d8 2a 37 3f b8 1e ae 3e 08 72 f3 3e
       1.6506721 0.7154975 0.34007812 0.47547936
000050 c7 a5 16 3f 65 b4 02 3f d6 a6 85 3e 39 14 95 3e
       0.58846706 0.5105651 0.26103848 0.2911699
000060 6b ba e4 3e 8b 79 0f 3f 06 2d 77 3f bc 1a 95 3e
       0.44673476 0.56044835 0.96553075 0.2912196
000070 f7 c9 9a 3e 4a 63 0f 3f 17 68 e2 3f 88 0b 87 3e
       0.30232212 0.5601088 1.7688016 0.26375985
000080 54 f6 1d 3f ad 6c 4b 3f de 4c 44 3f 9f eb 68 3f
       0.6170399 0.794627 0.7667979 0.9098453
000090 e4 9f a8 3e 6d d6 fb 3e 89 fc a2 3f fc 4b db 3e
       0.32934487 0.4918703 1.2733318 0.4283141
0000a0 08 43 cf 3e 3a d7 98 3f 66 79 46 3f d3 c9 f8 3e
       0.40480828 1.1940682 0.7752899 0.4859148
0000b0 34 a2 ab 3e 64 65 81 3e 7c 6c 39 3f 11 3b 77 3e
       0.3352219 0.25272667 0.7243116 0.24143626
0000c0 93 1f 1c 3f f0 c3 74 3f c2 85 21 3f be da 7c 3f
       0.6098568 0.95611477 0.63094723 0.98771274
0000d0 47 27 a2 3e 3f 87 07 3f 46 9c 91 3e ba d1 b6 3e
       0.3167059 0.52940744 0.2843954 0.35706884
0000e0 6a 71 46 3f f9 e8 dd 3e e7 b8 83 3f 66 52 19 3f
       0.77516806 0.43341807 1.0290803 0.59891355
0000f0 c3 f6 a2 3e 05 50 84 3f 1c b7 1c 3f fa 70 95 3e
       0.3182889 1.033692 0.612169 0.29187757
