models/connect4_model_epoch_10.pth (torch, 329112 bytes, 30 tensors)

conv1.weight f4 [64, 1, 3, 3]
0	0xbe8f60c2	-0.28003508
1	0xbe83e92e	-0.2576384
2	0xbe7af0ad	-0.24505873
3	0xbe5a561a	-0.21321908
4	0xbe5f51a2	-0.21808484
5	0xbc3fc218	-0.01170399
6	0xbe154fca	-0.14581218
7	0xbd8cf994	-0.06883541
8	0x3eafe73b	0.34356102
9	0xbd1c16fe	-0.038107865
10	0x3d1207d7	0.035652008
11	0xbe575f31	-0.21032406
12	0xbdc96a8a	-0.09834774
13	0xbd6420d5	-0.055695374
14	0xbe5a92b6	-0.21345028
15	0xbdb9ec1c	-0.090782374
16	0xbd43135c	-0.047625884
17	0xbdceaab5	-0.100911535
18	0x3d12c6b8	0.035834044
19	0xbc8de779	-0.017322289
20	0x3d66cc05	0.056346912
21	0xbe158208	-0.14600384
22	0xbe3f4c3f	-0.1868143
23	0x3c1b0b16	0.009463092
24	0x3eab685b	0.33478054
25	0x3e5f41e0	0.21802473
26	0x3a745f16	0.000932203
27	0xbe839612	-0.25700432
28	0x3d1a1de0	0.037626147
29	0x3e9575f0	0.29191542
30	0x3ead9c25	0.3390819
31	0xbcf12027	-0.029434277
32	0xbe03ff7f	-0.12890433
33	0x3bdde9e4	0.0067722667
34	0x3d8be7bf	0.068313114
35	0xbe82f503	-0.25577554
36	0xbd9677bd	-0.07347057
37	0x3e7c5669	0.24642338
38	0x3e4addc5	0.19811161
39	0x3cc88553	0.024477636
40	0xbe48a7b2	-0.1959522
41	0x3e5f544d	0.21809502
42	0x3e905f39	0.2819765
43	0xbe7fe986	-0.24991426
44	0xbe8b6526	-0.27225608
45	0xbe9ad68f	-0.3024182
46	0xbb49953f	-0.0030759124
47	0xbeb715f8	-0.35758948
48	0xbe8aa5e8	-0.270797
49	0xbd829273	-0.06375589
50	0x3dcf296b	0.10115322
51	0xbe8b47cb	-0.2720321
52	0xbd7b9e54	-0.06143029
53	0x3c5b0fae	0.013370438
54	0xbe964c6e	-0.29355186
55	0xbcec683d	-0.028858298
56	0x3dd500e9	0.10400564
57	0xbd52f83a	-0.05150626
58	0xbe662ebf	-0.2247877
59	0x3e239734	0.15975648
60	0xbdee075e	-0.11622499
61	0xbd80c688	-0.06287867
62	0xbc4815a1	-0.012212188
63	0xbe89c3c6	-0.26907176
64	0xbdf72863	-0.1206825
65	0xbe394791	-0.18093707
66	0xbe815b3b	-0.25264916
67	0xbc9baf3b	-0.019004455
68	0xbdafe986	-0.08589463
69	0x3e70ac88	0.23503315
70	0xbdb7dadc	-0.08977291
71	0x3ea7749a	0.32706147
72	0x3c6c8df3	0.01443814
73	0xbe37e487	-0.1795827
74	0xbe625875	-0.22104056
75	0x3e49cbc2	0.19706634
76	0x3e929455	0.28628793
77	0xbe8e4481	-0.2778664
78	0x3deb49b6	0.114886686
79	0xbe253b8d	-0.16135998
80	0xbd5860c7	-0.05282667
81	0xbcfc5b98	-0.030805394
82	0x3e9e135b	0.30874142
83	0x3e8eea65	0.27913204
84	0xbe777e20	-0.24169207
85	0xbe19e14b	-0.15027349
86	0x3d196024	0.037445202
87	0xbc6f344d	-0.014599872
88	0x3eaffb9d	0.34371653
89	0x3db3afa4	0.08773735
90	0xbe965242	-0.29359633
91	0xbd857679	-0.065167375
92	0x3e9041c2	0.2817517
93	0x3e8d0bf5	0.27548185
94	0xbe6e2bf4	-0.23258954
95	0xbe6274e8	-0.22114909
96	0x3e875684	0.26433194
97	0xbe52a699	-0.20571364
98	0xbd925789	-0.07145602
99	0xbe58dde3	-0.21178393
100	0x3d8a41fe	0.06750868
101	0x3d8bee18	0.06832522
102	0x3e1cabea	0.15299955
103	0xbe5de08c	-0.21667689
104	0x3e00310f	0.12518714
105	0xbe70b635	-0.23507006
106	0x3e64123f	0.22272585
107	0x3e6d859b	0.23195498
108	0x3c9f36d6	0.019435328
109	0xbe87e19d	-0.26539317
110	0x3e89c304	0.26906598
111	0xbbd6a5ea	-0.00655054
112	0x3e9594f4	0.29215205
113	0xbdb0644e	-0.086128816
114	0xbe6f48dc	-0.23367637
115	0x3e68ab37	0.22721563
116	0xbe73e6d9	-0.2381853
117	0xbe2cf05d	-0.16888566
118	0xbbfe8137	-0.0077668685
119	0x3e2a72fc	0.16645426
120	0xbe8ca522	-0.27469736
121	0xbe983891	-0.29730657
122	0x3eb01d73	0.34397468
123	0xbd924e39	-0.07143826
124	0xbe7e34db	-0.2482485
125	0x3d0ab776	0.03386637
126	0xbd913ab0	-0.07091272
127	0x38eebf90	0.00011384406
128	0x3e6e0244	0.23243052
129	0x3e5b97d5	0.21444638
130	0xbde4f871	-0.11180199
131	0x3d512557	0.051061
132	0xbe30716e	-0.1723077
133	0xbdbd4519	-0.09241695
134	0xbe981b33	-0.2970825
135	0x3d439a7f	0.04775476
136	0x3be7e4c6	0.0070768325
137	0x3dd5bf2e	0.10436855
138	0xbe2acba5	-0.16679247
139	0xbe34ef97	-0.17669521
140	0xbe351a97	-0.17685924
141	0x3e86366d	0.262134
142	0x3c13f691	0.009030954
143	0xbe940ee5	-0.28917614
144	0xbe8fa15a	-0.2805279
145	0x3e0f056b	0.1396691
146	0x3c38a3dd	0.011269537
147	0x3e2c0310	0.16798043
148	0x3d8da68a	0.069165304
149	0x3ea98b0f	0.33113906
150	0x3e9c0fb1	0.30480722
151	0x3e77ae16	0.24187502
152	0xbe691e54	-0.22765476
153	0xbe569c99	-0.20958175
154	0xbc8dc2d2	-0.017304812
155	0xbd52cf92	-0.051467486
156	0xbe2dc821	-0.16970874
157	0xbdf17ee4	-0.117917806
158	0x3e92d1c4	0.28675663
159	0x3e995518	0.29947734
160	0xbe9525c8	-0.29130387
161	0xbd1d2175	-0.038361985
162	0xbe5930ca	-0.21210018
163	0x3dfb5ac4	0.122731715
164	0x3ea3881d	0.31939784
165	0x3ea33e63	0.31883535
166	0xbe928884	-0.28619778
167	0xbd8847d4	-0.06654325
168	0x3e1e8795	0.15481408
169	0xbe858072	-0.26074558
170	0x3d9331c2	0.07187225
171	0x3d35d30d	0.044390727
172	0xbdbb6c4c	-0.09151515
173	0xbe882b29	-0.2659543
174	0xbe137240	-0.14399052
175	0x3da49e1d	0.0803797
176	0x3d90688c	0.07051191
177	0x3e4eae61	0.20183708
178	0x3dd50ee3	0.1040323
179	0x3e1e7d02	0.15477374
180	0x3dc68ec0	0.09695196
181	0xbea01088	-0.31262612
182	0x3dff070c	0.12452516
183	0xbd3a5360	-0.04548967
184	0xbcfb32f5	-0.030663947
185	0x3e697501	0.2279854
186	0xbddbdbfa	-0.107353166
187	0xbe8d458e	-0.2759213
188	0xbd6d4a99	-0.05793247
189	0x3e8e89c0	0.2783947
190	0xbe272d69	-0.16325916
191	0xbc89c97d	-0.01681971
192	0x3ea26e84	0.31724942
193	0x3d0ed288	0.034868747
194	0xbc4ff3f5	-0.012692441
195	0x3e729791	0.2369063
196	0x3e79aa28	0.24381316
197	0x3d6d222e	0.057893924
198	0xbd171019	-0.036880586
199	0xbe198e87	-0.14995776
200	0x3c706a5f	0.014673798
201	0xbe8fb8c7	-0.2807066
202	0xba970b42	-0.0011523741
203	0xbea9c99e	-0.33161634
204	0x3e0a595c	0.1351065
205	0xbe25e2c3	-0.16199784
206	0xbd629511	-0.055317942
207	0x3d25d6c6	0.040488027
208	0x3e9a7496	0.30167073
209	0x3e2e45b8	0.17018783
210	0x3d3c61d7	0.045991745
211	0xbe998ef2	-0.2999187
212	0x3e5a621a	0.21326485
213	0x3e7a2fef	0.24432348
214	0x3eac58c0	0.3366146
215	0xbca92942	-0.020649556
216	0x3d392e6f	0.0452103
217	0x3e08d925	0.13364084
218	0x3e8a92da	0.27065164
219	0xbe1c19a4	-0.15244156
220	0xbdb9f813	-0.090805195
221	0x3e9c1e2c	0.3049177
222	0xbe9e3276	-0.30897874
223	0xbd67d945	-0.05660369
224	0x3e04d72a	0.12972704
225	0x3e5deade	0.21671626
226	0xbe0b2e08	-0.13591778
227	0xbe86f085	-0.26355377
228	0x3af3d354	0.0018602409
229	0x3df1740a	0.11789711
230	0x3e96755a	0.29386407
231	0xbe6eeed8	-0.23333299
232	0x3e6d1395	0.23152001
233	0xbd1df0e2	-0.038559802
234	0x3dcac164	0.099001676
235	0xbd1a4858	-0.03766665
236	0xbe81546c	-0.2525972
237	0xbe9f400f	-0.3110356
238	0xbcd4326c	-0.02590295
239	0xbcd6d2b0	-0.02622351
240	0x3c6cb823	0.0144481985
241	0x3e286ff4	0.16448957
242	0x3dafec4a	0.085899904
243	0x3ea5dccb	0.32395014
244	0x3e91a208	0.28443933
245	0xbe7be632	-0.24599531
246	0xbd971cfe	-0.07378577
247	0x3c1419af	0.009039327
248	0xbd1187e2	-0.03552998
249	0x3d067da4	0.032834664
250	0xbea37d37	-0.3193147
251	0x3e92c6c4	0.2866727
252	0xbe2d56a9	-0.1692759
253	0x3e1ed749	0.15511812
254	0x3e977248	0.29579377
255	0x3e9498bd	0.2902278

conv1.bias f4 [64]
0	0xbc764589	-0.015031227
1	0xbe5c9cc9	-0.21544184
2	0x3b4f8f1d	0.0031670996
3	0x3e6ed59a	0.2332367
4	0x3d21444f	0.039371785
5	0x3e2f34c1	0.17109968
6	0x3db8e9b5	0.09028951
7	0x3d8d02a7	0.068852715
8	0x3e075565	0.13216169
9	0xbd02f63e	-0.031973116
10	0xbe0b68f5	-0.13614257
11	0x3e078b6b	0.13236777
12	0x3d4bbf1c	0.049742803
13	0x3e7ab577	0.24483286
14	0xbcd9b9ee	-0.026577916
15	0x3e3f5f23	0.18688636
16	0xbe80461c	-0.2505349
17	0xbd3db880	-0.04631853
18	0xbe4304c5	-0.19044788
19	0xbd14d478	-0.03633544
20	0xbea2496a	-0.31696635
21	0xbe9b12ca	-0.30287772
22	0xbea7dccf	-0.3278565
23	0x3e5d01b7	0.21582685
24	0x3dfc31d8	0.123141944
25	0xbe3f2bee	-0.18669102
26	0xbe8920bd	-0.2678279
27	0x3dc80014	0.0976564
28	0x3e9378b3	0.28803024
29	0xbe3ab828	-0.18234313
30	0xbe138eed	-0.1440999
31	0xbe3f12bd	-0.18659492
32	0xbe5513b5	-0.20808299
33	0xbe9fad56	-0.31186932
34	0x3e9b826b	0.3037294
35	0x3e784ae1	0.24247314
36	0x3e9bac71	0.30405
37	0xbba03620	-0.0048892647
38	0x3e636e1e	0.22209975
39	0x3d6374af	0.0555312
40	0x3e4a5c4b	0.1976177
41	0x3e0b0bf4	0.13578779
42	0x3e6edfaa	0.23327509
43	0xbdc4b144	-0.09604123
44	0xbdb4bec9	-0.08825452
45	0xbea19d42	-0.3156529
46	0xbde3f244	-0.11130193
47	0xbea59f1d	-0.32347956
48	0xbd9f6bc1	-0.07784224
49	0xbe975145	-0.2955419
50	0x3dec0a85	0.11525444
51	0xbd956571	-0.07294739
52	0xbd68a7c0	-0.056800604
53	0x3db98914	0.09059349
54	0xbe9b631a	-0.30349046
55	0x3d164f36	0.036696635
56	0xbea2e0f1	-0.31812242
57	0xbdae3642	-0.085064426
58	0x3e01cfef	0.12676977
59	0x3e2ba2bf	0.16761301
60	0x3e0d3f91	0.1379378
61	0xbe812cbd	-0.25229445
62	0xbdd2aff1	-0.102874644
63	0x3cefa5b2	0.029253814

bn1.weight f4 [64]
0	0x3f8056a7	1.0026444
1	0x3f802ead	1.0014244
2	0x3f7de6bd	0.99180204
3	0x3f8255af	1.0182399
4	0x3f7d886f	0.99036306
5	0x3f831168	1.0239687
6	0x3f7d4d76	0.9894632
7	0x3f8178d7	1.0115002
8	0x3f804932	1.0022337
9	0x3f7cdade	0.98771465
10	0x3f7fb298	0.9988189
11	0x3f78387f	0.96961206
12	0x3f804f2f	1.0024165
13	0x3f81dc59	1.014537
14	0x3f80506f	1.0024546
15	0x3f7ea6ac	0.9947307
16	0x3f83fd15	1.031161
17	0x3f7d6961	0.9898892
18	0x3f805a03	1.0027469
19	0x3f828cab	1.0199178
20	0x3f810f47	1.0082787
21	0x3f823f09	1.0175487
22	0x3f80a302	1.0049746
23	0x3f7ea203	0.9946596
24	0x3f7b955b	0.98274773
25	0x3f7de6c6	0.9918026
26	0x3f7f0e56	0.9963125
27	0x3f80c25a	1.0059311
28	0x3f7f7419	0.99786526
29	0x3f802592	1.0011466
30	0x3f7fe3bc	0.9995687
31	0x3f75ff9e	0.96093166
32	0x3f80882d	1.0041558
33	0x3f83a86a	1.0285771
34	0x3f7a9924	0.97889924
35	0x3f80b751	1.0055944
36	0x3f7df635	0.9920381
37	0x3f81762c	1.0114188
38	0x3f8218fb	1.0163873
39	0x3f782bd8	0.969419
40	0x3f8084da	1.0040543
41	0x3f7f2f20	0.9968128
42	0x3f822d08	1.0169992
43	0x3f7fb2d6	0.99882257
44	0x3f81b611	1.0133687
45	0x3f81b53f	1.0133437
46	0x3f7ea394	0.9946835
47	0x3f7c8d46	0.98653066
48	0x3f7b2e1c	0.9811723
49	0x3f82872c	1.0197501
50	0x3f7ceb63	0.9879667
51	0x3f7db636	0.99106157
52	0x3f7de94e	0.9918412
53	0x3f7aab50	0.9791765
54	0x3f8080fa	1.003936
55	0x3f7e5a7f	0.99356836
56	0x3f7d64a0	0.98981667
57	0x3f7ff277	0.99979347
58	0x3f820f4a	1.0160916
59	0x3f7c038d	0.9844292
60	0x3f803a0c	1.0017715
61	0x3f7e3b85	0.9930957
62	0x3f7d3f25	0.98924476
63	0x3f7c0014	0.9843762

bn1.bias f4 [64]
0	0x384f4380	4.941551e-05
1	0xbbb128f5	-0.005406494
2	0xbc72bc44	-0.014815394
3	0xbbf2dc1c	-0.007411493
4	0xbc20aa62	-0.009806247
5	0xbc038719	-0.008027815
6	0x3be672e5	0.0070327395
7	0xba575dc2	-0.000821557
8	0xbbc3b8a0	-0.0059729367
9	0x3c0360dd	0.0080186995
10	0xbb05d99a	-0.002042389
11	0xbc66a2ea	-0.014076928
12	0xbb59b695	-0.00332204
13	0x3c81dfbb	0.015853753
14	0xbc3013b0	-0.010746881
15	0xbab8936a	-0.0014082019
16	0xbcb8fa3a	-0.022580255
17	0x3bab4b0b	0.0052274517
18	0xbc5c76ba	-0.013456041
19	0xbc48d784	-0.012258414
20	0x3c358d1f	0.011081009
21	0xba9ba6da	-0.0011875287
22	0x3a09f61a	0.0005262807
23	0xbc33256f	-0.010934218
24	0xbc80f568	-0.015742019
25	0xbcae22ce	-0.02125683
26	0xbcf6a186	-0.030106317
27	0x3c66c7ea	0.014085749
28	0xbc8589e8	-0.01630111
29	0xbd0f53b6	-0.034991942
30	0x3c5c1165	0.013431882
31	0x3b596af9	0.0033175333
32	0xbcbfc095	-0.02340726
33	0xbcd091ec	-0.025460206
34	0xbbd19dc0	-0.006396979
35	0xbb7cdef3	-0.0038585037
36	0xbcad07f8	-0.021121964
37	0xbbb193c9	-0.0054192287
38	0x3c0d98ae	0.008642359
39	0xba8472e6	-0.0010105043
40	0xbbf9e467	-0.0076261046
41	0x3c895ddc	0.016768388
42	0xbc21f78f	-0.009885683
43	0x3c3acfb9	0.011402064
44	0x3b919344	0.0044426043
45	0xb972d3e6	-0.00023157857
46	0xbc13e103	-0.009025815
47	0xbbf88bba	-0.007585016
48	0xbc897a35	-0.016781906
49	0xbc7cf245	-0.015438621
50	0xbab855da	-0.0014063672
51	0xbc880e5d	-0.016608411
52	0x3b3bf11e	0.0028677653
53	0x3b0bc25c	0.0021325564
54	0xbc54527f	-0.012959122
55	0xbbf9d7cf	-0.0076246033
56	0xbce7f6f0	-0.028315991
57	0x3ab9afa4	0.0014166725
58	0x3c0f579a	0.008748913
59	0xbbb2065f	-0.0054328884
60	0xb98a7850	-0.0002641105
61	0x3b9993b9	0.0046867994
62	0xbc532aa6	-0.012888586
63	0x39704dbc	0.00022917142

bn1.running_mean f4 [64]
0	0xbbda81ec	-0.00666832
1	0xbe562995	-0.209143
2	0x382acf58	4.0724262e-05
3	0x3e6f9b64	0.2339912
4	0x3d278307	0.04089644
5	0x3e35afe3	0.17742877
6	0x3dc07272	0.09396829
7	0x3d8d707a	0.06906219
8	0x3e084b39	0.13309945
9	0xbd0ea2e7	-0.034823325
10	0xbe0a4cb8	-0.13505828
11	0x3e05c8bb	0.13064854
12	0x3d49ea4a	0.0492957
13	0x3e7e0ad4	0.24808818
14	0xbcbc8bb1	-0.023015829
15	0x3e4281dd	0.18994851
16	0xbe846fc3	-0.25866517
17	0xbd3f853d	-0.046757925
18	0xbe426d05	-0.189869
19	0xbd21a0bf	-0.03945994
20	0xbea13846	-0.31488246
21	0xbe9f99ff	-0.31172177
22	0xbea3e5bd	-0.32011214
23	0x3e556452	0.2083905
24	0x3dfb6861	0.12275768
25	0xbe422587	-0.18959628
26	0xbe87d65b	-0.26530728
27	0x3dc7ffe6	0.09765606
28	0x3e926c21	0.2859812
29	0xbe3f537b	-0.18684189
30	0xbe1284ba	-0.14308444
31	0xbe400303	-0.18751149
32	0xbe595e49	-0.21227373
33	0xbea22431	-0.31668237
34	0x3e9dd885	0.30829254
35	0x3e781fa6	0.24230823
36	0x3e9a66f0	0.3015666
37	0x3b20c44f	0.0024531072
38	0x3e64e5d3	0.22353296
39	0x3d76d97c	0.060266003
40	0x3e4b3c8b	0.19847314
41	0x3e0d2fb4	0.13787729
42	0x3e751e05	0.23937233
43	0xbdc6271b	-0.096754275
44	0xbdb846ac	-0.089978546
45	0xbea137be	-0.3148784
46	0xbdf038a4	-0.11729553
47	0xbea8526f	-0.32875392
48	0xbd9ffa29	-0.07811386
49	0xbe97702a	-0.29577762
50	0x3deccc32	0.11562385
51	0xbd98b9a9	-0.07457287
52	0xbd60fb01	-0.054926876
53	0x3dc546d9	0.09632654
54	0xbe9a5daa	-0.30149585
55	0x3d2a2161	0.04153574
56	0xbea9865c	-0.3311032
57	0xbdb22e87	-0.08700281
58	0x3e07196d	0.13193293
59	0x3e345c0a	0.17613235
60	0x3e0ba6f1	0.13637902
61	0xbe82b462	-0.25528246
62	0xbdcbdadd	-0.09953854
63	0x3d014897	0.031563368

bn1.running_var f4 [64]
0	0x3d908435	0.070564665
1	0x3c87befb	0.016570559
2	0x3d87909e	0.066193804
3	0x3dc7c709	0.0975476
4	0x3dcf999d	0.10136721
5	0x3d80e281	0.06293202
6	0x3d1d308d	0.03837638
7	0x3da5f582	0.081034675
8	0x3daad9b8	0.08342308
9	0x3dcc6667	0.09980469
10	0x3dea9619	0.1145441
11	0x3dc51dcb	0.09624823
12	0x3dd3100e	0.103057966
13	0x3d9fedb8	0.07809013
14	0x3d81ddcb	0.06341132
15	0x3d82a3bb	0.06378885
16	0x3dde1e64	0.1084564
17	0x3dc6c143	0.097048305
18	0x3dfc0145	0.1230493
19	0x3d436790	0.047706187
20	0x3d732a7e	0.059366696
21	0x3d52982c	0.051414654
22	0x3d85fb01	0.06542016
23	0x3e054477	0.13014399
24	0x3d7515f6	0.059835397
25	0x3db726e6	0.08942966
26	0x3d6221ae	0.0552079
27	0x3dd3d445	0.103432216
28	0x3df9055e	0.12159227
29	0x3d4fb963	0.050713908
30	0x3d73feef	0.059569295
31	0x3ddc4666	0.10755615
32	0x3e003567	0.12520371
33	0x3dd42814	0.10359207
34	0x3d99248d	0.07477675
35	0x3dff5298	0.124669254
36	0x3db20694	0.08692661
37	0x3d1977ef	0.037467893
38	0x3d955038	0.07290691
39	0x3d661e21	0.056181077
40	0x3d61ee80	0.055159092
41	0x3dbdaf1c	0.09261915
42	0x3d7af5bb	0.061269503
43	0x3dde8638	0.10865444
44	0x3d35d470	0.04439205
45	0x3e08ffe3	0.13378863
46	0x3d18e77b	0.037330132
47	0x3d977be2	0.07396676
48	0x3db9d44c	0.090736955
49	0x3d9bf7ae	0.076156005
50	0x3d76be14	0.060239866
51	0x3dba2931	0.09089888
52	0x3d456bee	0.048198633
53	0x3dda3958	0.10655469
54	0x3da01bfe	0.07817839
55	0x3d961fbb	0.07330271
56	0x3dafdddc	0.08587238
57	0x3da48d15	0.08034722
58	0x3d13cd23	0.036084305
59	0x3db4240e	0.087959394
60	0x3dd99e0a	0.10625847
61	0x3d87c6a9	0.06629688
62	0x3d5f232e	0.05447691
63	0x3dcf67cb	0.10127219

conv2.weight f4 [64, 64, 3, 3]
0	0xbc2575b3	-0.010098862
1	0xbd23cbb3	-0.039989185
2	0x3c16dd5f	0.009208052
3	0x3b131fc0	0.0022449344
4	0xbce4fc72	-0.027952407
5	0x3b7d7a32	0.003867757
6	0x39894062	0.00026178645
7	0xbc3dd49e	-0.011586336
8	0x3d013dc5	0.03155305
9	0xbcb1b497	-0.021692557
10	0xbc0cacda	-0.008586133
11	0x3ca68e3d	0.020331496
12	0xbb2ef9de	-0.0026699225
13	0xbb93ec4d	-0.004514253
14	0xbd08b962	-0.03337992
15	0xbc865a72	-0.01640055
16	0x3c8d8a7d	0.01727795
17	0xbd3277ca	-0.04357127
18	0x3cd1757e	0.02556872
19	0xbc6b4972	-0.014360772
20	0xbbc45650	-0.0059917346
21	0x3bf3d6d6	0.007441382
22	0xbb1635af	-0.0022920182
23	0x3a449edf	0.000750048
24	0x3b8ac347	0.0042347047
25	0x3d80f37f	0.06296443
26	0x3cb5d3fd	0.02219581
27	0xbca335e9	-0.019923167
28	0x3d1e1ab6	0.038599692
29	0x3cae978b	0.021312496
30	0xb9750aa0	-0.00023368979
31	0x3d043400	0.032276154
32	0x3ce6bbb7	0.028165681
33	0x3cae4552	0.021273289
34	0xbba8e3f8	-0.005154129
35	0x3c478c84	0.012179498
36	0xbc89f9ba	-0.016842712
37	0xbba7f2cf	-0.0051253806
38	0x3d5dba58	0.05413279
39	0xbceb49a5	-0.02872164
40	0xbb1de481	-0.0024092498
41	0xbc533955	-0.012892087
42	0x3b063b80	0.0020482242
43	0x3cfd4a32	0.030919168
44	0x3c493746	0.012281245
45	0xbd05c51e	-0.03265869
46	0xbd5abd8c	-0.053403422
47	0x3c5ed1d9	0.013599836
48	0x3ca6d8a5	0.020366976
49	0xbd0767cb	-0.03305797
50	0xbc9dbce4	-0.01925511
51	0xbcca1ea2	-0.02467281
52	0xbc06bab0	-0.008223221
53	0xbcb3c14c	-0.021942757
54	0x3cc516da	0.024058748
55	0x3ca19279	0.019723164
56	0xbaf1ea12	-0.0018456599
57	0xbcb7b118	-0.022423312
58	0xbd17115e	-0.036881797
59	0xbd000aaf	-0.03126019
60	0x3cf13abf	0.029446958
61	0xbd241021	-0.040054444
62	0xbcd86fc7	-0.026420487
63	0xbb13393c	-0.0022464534
64	0x3cc0bf47	0.023528708
65	0xbd4c7c4d	-0.04992323
66	0xbbd1d881	-0.006403983
67	0xbc1adae0	-0.009451598
68	0x3d0d4bdb	0.03449617
69	0xbc843600	-0.01613903
70	0x3c86141b	0.016367009
71	0x3cafaff0	0.021446198
72	0xbc9ad56e	-0.0189006
73	0xbcf61ad0	-0.030042082
74	0x3cbd0381	0.02307296
75	0x3c857ccb	0.016294857
76	0x3d2c9862	0.04213751
77	0xbd88a243	-0.06671574
78	0xbcc22284	-0.023698099
79	0xb95418ac	-0.00020227086
80	0xbcaa46db	-0.02078574
81	0xbce6cd08	-0.028173938
82	0xbd7e1369	-0.06203023
83	0xbd221726	-0.039572857
84	0xbccfdcae	-0.025373783
85	0xbca01a92	-0.01954392
86	0xbcdc8645	-0.026919493
87	0x3d393b2a	0.04522244
88	0xbd1323e9	-0.03592292
89	0xbd145474	-0.036213353
90	0xbce297e5	-0.02766032
91	0xbd1b2be7	-0.037883665
92	0x3d2cacd5	0.042157013
93	0x3ce24af9	0.02762364
94	0xbd6b6cea	-0.057476915
95	0x3c7d8ac6	0.015474981
96	0x3d355df8	0.04427907
97	0xbcf38430	-0.029726118
98	0x3d1c4578	0.038152188
99	0xbc9de8c4	-0.01927603
100	0xbbe782ae	-0.007065139
101	0xbca69d2e	-0.020338621
102	0x3c62ce70	0.013843164
103	0x3d5c9b30	0.053858936
104	0xbcf33996	-0.029690545
105	0x3d237491	0.03990609
106	0xbc5ff945	-0.01367027
107	0xbc4a64ba	-0.012353117
108	0xbc06b33c	-0.008221444
109	0xbb823d49	-0.003974591
110	0xbba01233	-0.004884982
111	0x39b7368e	0.00034945126
112	0xbb2ae332	-0.002607536
113	0xbc9ecee0	-0.019385755
114	0xba1cf06c	-0.00059867534
115	0xbce2137f	-0.027597187
116	0xbd387d0f	-0.04504114
117	0xbd3987b5	-0.045295436
118	0xbd394c4b	-0.045238774
119	0xbc8d274f	-0.017230658
120	0xbc4a94ae	-0.01236455
121	0xbceb9058	-0.028755352
122	0xbd5ae6c5	-0.053442735
123	0xb99c76c2	-0.0002984312
124	0x3cf54569	0.029940324
125	0x3c5b10ca	0.013370702
126	0xbd727339	-0.059191916
127	0x3904ebe8	0.00012676383
128	0x3c0b1f45	0.008491342
129	0xbcbcd18c	-0.023049138
130	0x3d3c914b	0.046037
131	0xbcf06585	-0.029345283
132	0xbca311fb	-0.019906035
133	0xbd16ad19	-0.036786173
134	0x3d1444c4	0.036198393
135	0x3d2acf99	0.041701887
136	0xbc9491e6	-0.018135976
137	0xbcc2ffe9	-0.023803668
138	0x3bc669a4	0.006055074
139	0xbd402be4	-0.046916857
140	0x3c303530	0.010754868
141	0x3c99da42	0.018780831
142	0x3d5a632b	0.05331723
143	0xbb822b5c	-0.003972454
144	0x3ceb3890	0.028713495
145	0x3d03bc3e	0.032161944
146	0x3c56e71e	0.013116626
147	0xbd24ef9b	-0.040267568
148	0xbc833753	-0.016017592
149	0xbd15401e	-0.0364381
150	0x3ce02de0	0.027365625
151	0xbcdf792a	-0.027279455
152	0xbaedb4b2	-0.0018135516
153	0xbcd58650	-0.026065022
154	0x3d0c7379	0.03428981
155	0x3d257e66	0.040403746
156	0xbc9a8966	-0.018864345
157	0xbcd9d3ed	-0.026590312
158	0x3bfeed8c	0.0077797826
159	0xbca306d8	-0.019900724
160	0x3c6d7c6b	0.014494996
161	0x3cdf1c24	0.027235098
162	0xbd02904e	-0.0318759
163	0x3d2cd5cd	0.042196084
164	0x3d05fe33	0.032713126
165	0x3d1a0e4b	0.037611287
166	0xbd5a0cc5	-0.053234834
167	0x3d1d6a59	0.0384315
168	0x3d17a7ac	0.03702514
169	0xbd8b92bf	-0.06815099
170	0x3d4da4d6	0.050206028
171	0x3cbf0d0f	0.023321657
172	0xbc8075d2	-0.015681181
173	0x3c412bd4	0.011790235
174	0xbc0d6c89	-0.008631834
175	0xbd550de1	-0.05201519
176	0x3cc47d81	0.023985626
177	0xbb9c6dc3	-0.004773827
178	0x3d2e12ea	0.042498507
179	0xbcbc6a33	-0.022999858
180	0x3d106aef	0.03525823
181	0x3a0df4d0	0.0005415203
182	0x3c7d9a6f	0.015478714
183	0xbcb20f53	-0.021735823
184	0x3ccd3857	0.025051279
185	0xbca19fc8	-0.01972951
186	0x3ce35ed5	0.02775518
187	0x3c93e8cd	0.018055344
188	0x3d3de154	0.046357468
189	0x3c1a1d2d	0.00940637
190	0x3c1171ba	0.008877212
191	0xbca65ce8	-0.020307973
192	0xbc50294b	-0.0127051575
193	0x3b587eb3	0.0033034503
194	0x3cdf9c6f	0.027296273
195	0xbb4f455c	-0.0031627035
196	0xbd3a69d4	-0.04551108
197	0xba1808b4	-0.0005799637
198	0xbc63031a	-0.01385572
199	0xbb4ab134	-0.0030928375
200	0x3d299ad0	0.041407406
201	0x3c94fdc3	0.01818741
202	0xbc11c358	-0.008896671
203	0xbcfd1ea0	-0.030898392
204	0xbc93eff4	-0.018058755
205	0x3d4e328e	0.05034118
206	0xbd35c508	-0.044377357
207	0x3d0256ab	0.031820934
208	0xbcc5e3d2	-0.024156485
209	0xbd87bf68	-0.06628305
210	0x3b95a847	0.0045671794
211	0xbc27fc27	-0.010252989
212	0x3cbd88a0	0.023136437
213	0xbad0217e	-0.0015879122
214	0xbb91a22c	-0.004444381
215	0xbbf6dc7e	-0.007533609
216	0x3cadbcf1	0.021208258
217	0x3b01715f	0.0019751412
218	0x3cbe4f6e	0.023231234
219	0x3c5d1bd2	0.013495402
220	0xbca17b9c	-0.019712262
221	0xbd2e99ac	-0.04262702
222	0xbca72acf	-0.020406155
223	0x3c1ad7cd	0.009450865
224	0xbc989225	-0.018624375
225	0x3c5fc262	0.013657184
226	0x3c66b98b	0.014082323
227	0x3c374b2b	0.011187355
228	0xbd49c860	-0.049263358
229	0x3d2d1649	0.04225758
230	0x3c7dbad7	0.015486441
231	0xbc435dc8	-0.011924215
232	0x3cc45841	0.023967864
233	0x3ca8d8cd	0.020611191
234	0xbc7184bd	-0.01474112
235	0xbd570df9	-0.05250356
236	0xbcd244dc	-0.0256676
237	0x3cdb40ef	0.026764361
238	0xbc9c736c	-0.019098006
239	0x3ce0057e	0.027346369
240	0x3c4a2e62	0.01234016
241	0x3ac3aa12	0.0014928004
242	0xbd199de1	-0.03750408
243	0xbc1d66eb	-0.009607057
244	0xbc727859	-0.014799201
245	0x3bd3d953	0.006465116
246	0x3c86ad40	0.016440034
247	0xbc216159	-0.00984987
248	0xbc3c49ff	-0.011492251
249	0x3b33e031	0.002744686
250	0x3d059f41	0.03262258
251	0x3c28128d	0.010258329
252	0xbd141c58	-0.036159843
253	0x3cef4d06	0.029211532
254	0xbd313d30	-0.043271244
255	0x3cf30318	0.029664561

conv2.bias f4 [64]
0	0xbc5c6517	-0.013451836
1	0x3d022464	0.031772986
2	0x3cdfab18	0.027303264
3	0xbb0dfdad	-0.0021666095
4	0x3cef369d	0.029200846
5	0x3c4e3829	0.012586632
6	0x3d239ad8	0.039942592
7	0xbc6d90db	-0.014499868
8	0xbbcd8c48	-0.0062728263
9	0x3d2a4cb0	0.04157704
10	0x38c7f8d4	9.535407e-05
11	0x3d01d1ce	0.031694226
12	0xbb3c1ed5	-0.00287049
13	0xbba86e21	-0.0051400815
14	0x3c8816a7	0.016612364
15	0x3d10d5af	0.035360035
16	0x3c1e098e	0.009645833
17	0x3d2244e2	0.039616473
18	0xbb9c8ebf	-0.004777759
19	0xbd04fa8e	-0.03246551
20	0xbcd6f0da	-0.026237894
21	0x3c7b4204	0.015335564
22	0xbb5fab14	-0.003412907
23	0x3bc4178c	0.0059842523
24	0x3c08dd33	0.008353519
25	0x3c281286	0.010258323
26	0xbd11ebac	-0.035625145
27	0xbcd2aba3	-0.025716608
28	0x3d1c0880	0.038094044
29	0x3c19d4ba	0.009389097
30	0x3d12980b	0.03578953
31	0xbc75c12d	-0.01499967
32	0x3b128a81	0.0022360387
33	0x3b816802	0.0039491663
34	0xbd160645	-0.036627073
35	0xbd2bb0e8	-0.041916758
36	0x3cbb8720	0.022891581
37	0xbcb373b5	-0.02190576
38	0x3b326371	0.0027219916
39	0xba29c75e	-0.00064765464
40	0x3b43dba2	0.002988555
41	0x3d06219f	0.032746907
42	0x3cba2b05	0.022725591
43	0xbd1a3e36	-0.037656985
44	0x3afa8cb6	0.0019115421
45	0xbcf93a84	-0.03042341
46	0x3d0cb495	0.034351904
47	0x3b99d21b	0.004694236
48	0x3d13bcbe	0.03606867
49	0x3c8fa6a3	0.017535513
50	0x3b02e698	0.001997387
51	0x3bffdc0e	0.007808215
52	0xbb89984b	-0.004199063
53	0x3d0b1723	0.03395761
54	0xbcb61255	-0.022225538
55	0xbc781342	-0.01514131
56	0xbd047501	-0.032338146
57	0xb93e1495	-0.0001812748
58	0xbc2b7f94	-0.010467429
59	0x3d07c419	0.033145998
60	0xbcacc1d9	-0.021088528
61	0x3c94ccaf	0.018164007
62	0xba057fa6	-0.00050925685
63	0xbc850d00	-0.01624155

bn2.weight f4 [64]
0	0x3f7b69f1	0.9820853
1	0x3f82a0d7	1.0205334
2	0x3f8020c9	1.0010005
3	0x3f80a5cc	1.0050597
4	0x3f7fa17a	0.9985577
5	0x3f804299	1.0020324
6	0x3f7c6e97	0.98606247
7	0x3f7f9466	0.99835813
8	0x3f820c20	1.015995
9	0x3f7c8e90	0.98655033
10	0x3f8043bd	1.0020672
11	0x3f806884	1.0031896
12	0x3f7e7610	0.993989
13	0x3f7c7882	0.9862138
14	0x3f7e0856	0.9923147
15	0x3f80dc36	1.0067203
16	0x3f7e1f63	0.9926664
17	0x3f7ccc4c	0.9874923
18	0x3f82840e	1.019655
19	0x3f7b8dca	0.9826323
20	0x3f80c882	1.006119
21	0x3f820ddd	1.0160481
22	0x3f7d0f4b	0.9885146
23	0x3f78e21a	0.97220004
24	0x3f7d80ec	0.99024844
25	0x3f77e5fa	0.9683529
26	0x3f833237	1.0249699
27	0x3f798253	0.97464484
28	0x3f7e251a	0.9927536
29	0x3f82927b	1.0200952
30	0x3f8158dc	1.0105243
31	0x3f841b09	1.032075
32	0x3f810212	1.0078757
33	0x3f7a2175	0.977073
34	0x3f84b48f	1.0367602
35	0x3f80df8d	1.0068222
36	0x3f812ce6	1.0091827
37	0x3f818768	1.0119448
38	0x3f7b6b63	0.98210734
39	0x3f818f55	1.0121866
40	0x3f7dee60	0.99191856
41	0x3f84fadd	1.0389057
42	0x3f805698	1.0026426
43	0x3f7b3f0f	0.98143095
44	0x3f815ad5	1.0105845
45	0x3f82232d	1.0166985
46	0x3f7a10d0	0.97681904
47	0x3f7ce59f	0.98787874
48	0x3f815aa7	1.010579
49	0x3f81e39f	1.014759
50	0x3f7d8aca	0.990399
51	0x3f827664	1.019238
52	0x3f81ed40	1.0150528
53	0x3f833cd9	1.0252944
54	0x3f80b8b7	1.005637
55	0x3f7f6f92	0.9977962
56	0x3f7d6a17	0.98990005
57	0x3f77ec09	0.96844536
58	0x3f7d0c25	0.98846656
59	0x3f7e4ecc	0.99338984
60	0x3f80c9d3	1.0061592
61	0x3f835a1d	1.0261875
62	0x3f7cbce0	0.987257
63	0x3f824a1f	1.017887

bn2.bias f4 [64]
0	0xbbe1eb7b	-0.0068945265
1	0x3b417cc0	0.002952382
2	0x3b9bef47	0.0047587487
3	0xbcbeeead	-0.023307169
4	0xbcac807a	-0.021057356
5	0xbbbe3a59	-0.0058052954
6	0xbcc986de	-0.024600442
7	0xbd158d1a	-0.036511518
8	0x3acd252a	0.0015651335
9	0x3a4217ca	0.00074040575
10	0x3c602025	0.013679539
11	0x3c841903	0.016125208
12	0xbc761e46	-0.015021866
13	0xbc05380a	-0.008131037
14	0x3c696abb	0.014246638
15	0x3b1df8d8	0.0024104621
16	0x3c3a5846	0.011373585
17	0xbc6b623f	-0.014366685
18	0x3baa1996	0.0051910384
19	0xbd240050	-0.04003936
20	0x3bf10a79	0.0073559848
21	0x3c346b8d	0.01101197
22	0x3bf35e1e	0.007426991
23	0xbbe02c38	-0.006841209
24	0xbc98f9fd	-0.018673891
25	0xbc13d40b	-0.009022723
26	0x3bae33e5	0.005316245
27	0xbb18073c	-0.0023197671
28	0xbb09e281	-0.0021039548
29	0x3cb7ee16	0.022452395
30	0x3b47e68d	0.003050241
31	0x3cc024f5	0.023455122
32	0x3ba6e8ac	0.0050936546
33	0xbb06754a	-0.0020516687
34	0x3d2db584	0.042409435
35	0x3ae326a7	0.0017330245
36	0xbb9027f2	-0.004399293
37	0x3c8fb01c	0.01754003
38	0x3c38ee3d	0.011287269
39	0x3c299f4c	0.010352921
40	0x3b32f844	0.0027308622
41	0x3bda7049	0.0066662175
42	0xbaa5cef8	-0.0012650182
43	0xba6d177d	-0.00090443325
44	0x3bff57ce	0.0077924496
45	0x3cab3c4a	0.020902772
46	0x3c053165	0.008129452
47	0xbc177896	-0.0092450585
48	0xbc55119f	-0.0130046895
49	0x3c41184b	0.011785577
50	0xbc18991a	-0.009313846
51	0x3be419f1	0.0069611003
52	0x3c9a4438	0.018831357
53	0xbb4a977d	-0.0030913048
54	0x3afef56c	0.0019451804
55	0xbc152510	-0.009103075
56	0x3c2b1f84	0.010444526
57	0xbd0d3ad9	-0.03447995
58	0x3d0a3b61	0.033748034
59	0xbc332abc	-0.010935482
60	0xbc37d9c8	-0.011221357
61	0x3c17e1e4	0.009270165
62	0x3c5052bd	0.012715039
63	0xbc2d19d1	-0.010565237

bn2.running_mean f4 [64]
0	0xbdfd2958	-0.12361401
1	0xbe715f8e	-0.23571607
2	0xbf08c08b	-0.534188
3	0xbe64542e	-0.22297737
4	0xbe0d0243	-0.13770394
5	0x3eb6a70c	0.35674322
6	0xbef6da3b	-0.48213372
7	0xbe9c8318	-0.30568767
8	0xbf57b808	-0.84265184
9	0xbe2b6b55	-0.16740163
10	0x3f0dc8e7	0.5538468
11	0xbebdd1c7	-0.3707411
12	0xbfbf8710	-1.4963093
13	0xbdc1b0d3	-0.09457555
14	0xbf8fab18	-1.1224089
15	0x3c0d9c12	0.008643167
16	0xbea548c1	-0.3228207
17	0xbe383d04	-0.17992026
18	0xbf2d515d	-0.67702276
19	0xbed62601	-0.4182587
20	0x3f027d0e	0.5097207
21	0xbe699a12	-0.2281268
22	0xbf358d19	-0.7091842
23	0x3f4b5b88	0.7943654
24	0xbe7ad0c1	-0.24493696
25	0x3e381f00	0.17980576
26	0xbf05a0e2	-0.5219861
27	0xbed44a56	-0.41462964
28	0x3e47832e	0.19483635
29	0xbfb55c6e	-1.4168832
30	0xbc886866	-0.016651344
31	0x3e88280a	0.26593047
32	0xbf77edd9	-0.968473
33	0xbee37d1f	-0.44431397
34	0x3cb5043b	0.022096744
35	0xbf5fc180	-0.8740463
36	0xbfd00a10	-1.6253071
37	0xbbf6b59f	-0.007528975
38	0x3f650c64	0.8947203
39	0xbea4f775	-0.32220045
40	0xbf304d6b	-0.6886813
41	0xbf9492bb	-1.1607279
42	0xba884a98	-0.0010398207
43	0x3d0e19de	0.034692638
44	0xbf75fc92	-0.96088517
45	0xbee22224	-0.44166672
46	0x3eecf305	0.4627916
47	0x3ede1a3f	0.433794
48	0xbe59c5e6	-0.21266899
49	0xbf0a9158	-0.54128027
50	0x3e2a5bd1	0.16636588
51	0xbd634ff6	-0.05549618
52	0xbe3b7c91	-0.18309237
53	0xbf4fe4b4	-0.8120835
54	0xbebfaca6	-0.37436408
55	0xbee4e1d6	-0.4470355
56	0x3eae7354	0.34072363
57	0x3e5a47af	0.21316408
58	0xbe27f5d6	-0.16402373
59	0xbf8b0738	-1.0861578
60	0xbb178dcc	-0.002312529
61	0xbe568452	-0.20948914
62	0x3f61b125	0.88160926
63	0xbf5a7834	-0.85339665

bn2.running_var f4 [64]
0	0x3f58994c	0.8460891
1	0x3ef1348b	0.471104
2	0x3f6c37d3	0.9227268
3	0x3ef482fb	0.4775618
4	0x3f543866	0.8289856
5	0x3f02de7d	0.5112074
6	0x3f952456	1.1651714
7	0x3f3afa20	0.7303791
8	0x3f8219e5	1.0164152
9	0x3f297029	0.6618677
10	0x3f50b4c4	0.81525826
11	0x3f13468a	0.5752951
12	0x40091de7	2.14245
13	0x3f280fa2	0.65648854
14	0x3fd8d517	1.694003
15	0x3f087e0a	0.5331732
16	0x3f1f7a37	0.6229586
17	0x3f6079b1	0.87685686
18	0x3f3cfd0a	0.73823607
19	0x3f620350	0.88286304
20	0x3f972857	1.1809186
21	0x3f423e78	0.7587657
22	0x3f94af48	1.1615992
23	0x3f803988	1.0017557
24	0x3f22a8a7	0.63538593
25	0x3f4396c8	0.7640195
26	0x3f1ef27d	0.6208876
27	0x3f42ea94	0.7613919
28	0x3f3a8426	0.7285789
29	0x401b7d40	2.4295197
30	0x3f19e5ef	0.60116476
31	0x3eb8564f	0.36003348
32	0x3f986493	1.1905693
33	0x3f42c4ef	0.76081747
34	0x3e9c4942	0.3052464
35	0x3f8a502d	1.0805718
36	0x401c1754	2.4389238
37	0x3f05a735	0.5220826
38	0x3f6f14e4	0.9339125
39	0x3f2b20a8	0.66846704
40	0x3f8577fa	1.0427239
41	0x3fabfd6c	1.3436713
42	0x3f358a6d	0.70914346
43	0x3f35ac53	0.7096607
44	0x3fb2e2ee	1.3975503
45	0x3f4fa6ce	0.811139
46	0x3f228d0a	0.6349646
47	0x3f5b40d2	0.8564578
48	0x3f3c4a39	0.73550755
49	0x3f532233	0.8247406
50	0x3f8a428f	1.0801562
51	0x3f0b1973	0.5433571
52	0x3f08b4f3	0.53401107
53	0x3f85d907	1.0456856
54	0x3f51577d	0.8177412
55	0x3f73753f	0.9510078
56	0x3f00e2e4	0.5034621
57	0x3f391985	0.72304565
58	0x3f3e56bc	0.74351096
59	0x3fab893b	1.3401254
60	0x3f32f673	0.699073
61	0x3f14b07e	0.58081806
62	0x3f980b8b	1.1878523
63	0x3f98ee50	1.1947727

conv3.weight f4 [64, 64, 3, 3]
0	0x3d422815	0.047401506
1	0xbcbf1458	-0.02332513
2	0x3c19f97b	0.00939786
3	0xbc0ac2dd	-0.008469311
4	0x3b51bd2b	0.0032003622
5	0xbc3a197e	-0.011358617
6	0x3c5f6a15	0.013636132
7	0x3ca3a071	0.019973965
8	0xbc7c6033	-0.015403795
9	0xbd5cf7b5	-0.05394717
10	0x3c1fd075	0.00975429
11	0x3d08fe92	0.033445902
12	0xbbd71041	-0.006563217
13	0xbce6a367	-0.028154088
14	0x3d049a30	0.032373607
15	0x3c3c443a	0.011490876
16	0x3d752530	0.059849918
17	0xbc794e41	-0.015216411
18	0x3d421989	0.047387633
19	0xbca0bc45	-0.019621024
20	0xbcdd1d0c	-0.02699139
21	0xbc39e808	-0.0113468245
22	0xbcac3876	-0.021023016
23	0xbc5037e4	-0.012708638
24	0xbbdbee1a	-0.0067117335
25	0x3d00b5a9	0.031423245
26	0xbbd03bca	-0.0063547837
27	0x3ceec8c5	0.029148469
28	0xbc3cea29	-0.0115304375
29	0xbcbf596c	-0.02335807
30	0x3c6a53a6	0.01430217
31	0x3c19618e	0.009361638
32	0x3d09c00f	0.033630427
33	0x3c01ee6f	0.007930382
34	0x3cf4f7b8	0.029903278
35	0x3c7fe9a9	0.015619674
36	0x3d06d40c	0.032917067
37	0xbd035ed2	-0.03207285
38	0xbcfda4fc	-0.03096246
39	0xbc2e3dce	-0.010634853
40	0xba6ac5a8	-0.00089558447
41	0x3d033b34	0.032038882
42	0xbd1b3f67	-0.037902262
43	0xbc760541	-0.015015901
44	0xbcc5b85a	-0.024135757
45	0xbcf26a0f	-0.029591588
46	0x3c0f6315	0.00875165
47	0xbba54e48	-0.0050447322
48	0x3cb958d5	0.022625366
49	0x3cdc3934	0.026882745
50	0xbcec085b	-0.028812578
51	0x3cba22a5	0.022721598
52	0xbc6dea24	-0.0145211555
53	0xbd3282c7	-0.04358175
54	0xbc132172	-0.008980142
55	0xbbc7e512	-0.0061003054
56	0x3c0d6bf9	0.0086317
57	0x3d43075e	0.047614448
58	0xbce5a2a4	-0.028031655
59	0xbcc00c3d	-0.023443336
60	0x3d20fbf3	0.039302777
61	0x3d07197c	0.03298329
62	0x3c4c6186	0.012474423
63	0x3d616631	0.055029098
64	0xbd0f33f8	-0.03496167
65	0x3d0aab91	0.033855025
66	0x3d8592c1	0.06522132
67	0x3c16acd0	0.009196475
68	0x3c83dce3	0.016096538
69	0x3c051692	0.008123057
70	0xbd147a84	-0.036249653
71	0xbc34eb91	-0.0110424915
72	0xbcf1c35a	-0.029512096
73	0x3d25d775	0.04048868
74	0x3d4bcf51	0.04975826
75	0x3c5dc30e	0.013535274
76	0xbba593bf	-0.005053013
77	0xbce47646	-0.027888428
78	0xbd067b4c	-0.03283243
79	0xbc86bf45	-0.016448626
80	0xbc08beb1	-0.008346246
81	0xbcf8c514	-0.030367412
82	0x3c8ce5d7	0.01719944
83	0xbcc09a6d	-0.023511136
84	0xbbc58ebd	-0.0060289786
85	0xbd34b37d	-0.044116486
86	0x3cbe6689	0.023242252
87	0xbd366aca	-0.044535436
88	0xbd06f961	-0.03295267
89	0x3c5421ac	0.012947481
90	0xbc88e4bf	-0.016710637
91	0xbd076eec	-0.033064768
92	0xbcd23e71	-0.02566454
93	0xbcf6ddb2	-0.03013501
94	0xbca30408	-0.019899383
95	0xbd1c7536	-0.03819772
96	0xbd1b6861	-0.03794134
97	0x3cb78adc	0.02240508
98	0xbac0916e	-0.0014691779
99	0xbd3f597a	-0.04671619
100	0xbcda2799	-0.02663021
101	0xbbb91b20	-0.0056489855
102	0xbae12e24	-0.0017179889
103	0x3ca66d63	0.020315832
104	0x3b33519f	0.0027361882
105	0xbb1b6a8e	-0.0023714635
106	0xbc5865d4	-0.0132078715
107	0xbc9cfcd5	-0.019163528
108	0xbc3b359c	-0.011426356
109	0xbd8c3c08	-0.068473876
110	0xbcc434a1	-0.023950877
111	0x3c301b61	0.010748715
112	0xbc9481cf	-0.018128304
113	0xbcd46a18	-0.025929496
114	0x3ca140ef	0.019684283
115	0xbd267d59	-0.040646885
116	0x3d746970	0.059670866
117	0xbc940f2a	-0.018073637
118	0x3c5871ec	0.013210755
119	0xbbc11f94	-0.005893657
120	0x3d49faa2	0.049311288
121	0x3ca9af9d	0.020713622
122	0xbcb60eae	-0.022223797
123	0x3ce0b7f3	0.027431464
124	0x3ae29ef4	0.0017289803
125	0xbce7021c	-0.028199248
126	0xbd5385fb	-0.051641446
127	0x3b8c8f94	0.004289577
128	0xbc861d6a	-0.016371448
129	0x3cf7e270	0.030259341
130	0xbb38b49f	-0.002818383
131	0xbce32486	-0.027727377
132	0xbd18728c	-0.037218615
133	0xbd4214b5	-0.04738303
134	0xbbf93931	-0.0076056947
135	0xba5f768a	-0.00085244386
136	0xbc2d96db	-0.010595049
137	0x3d149488	0.036274463
138	0x3c8fa440	0.017534375
139	0x3d004173	0.031312417
140	0xbcad3bf0	-0.021146744
141	0xbd556e0d	-0.052106906
142	0xbc579ccd	-0.013159943
143	0xbca8561e	-0.020548876
144	0xbcd09374	-0.025460936
145	0x3c90c1ad	0.017670477
146	0x3cf94f16	0.030433219
147	0xbd1e2b72	-0.03861565
148	0xbc57e457	-0.013176999
149	0xbb6a1069	-0.0035715348
150	0x3d592131	0.05301017
151	0x3d3066f6	0.04306694
152	0xbce2aa5e	-0.027669128
153	0x3d252bb0	0.040324867
154	0x3bad5c26	0.005290526
155	0xbd122038	-0.035675257
156	0xbc49c120	-0.012314111
157	0x3cab61ab	0.020920595
158	0xbc15730a	-0.009121666
159	0xb98f0262	-0.0002727686
160	0xbc9eca46	-0.01938356
161	0xbcf971ed	-0.030449832
162	0x3cfd7a74	0.03094218
163	0x3bb9c58a	0.0056693004
164	0x3cab442c	0.02090653
165	0xbc9aa0b4	-0.018875457
166	0xbd0f90d2	-0.03505022
167	0x3cb8de1a	0.022566844
168	0x3c0bb978	0.008528106
169	0xbc8782ab	-0.0165418
170	0x3d447e59	0.047972057
171	0xba2cf3ab	-0.00065975887
172	0xbc90b865	-0.017666051
173	0xbba39561	-0.0049921726
174	0x3d0f1a64	0.034937277
175	0xbccbf549	-0.024897235
176	0x3d4f5cf5	0.05062576
177	0x3b10f139	0.0022116436
178	0xbd1249f4	-0.03571506
179	0xbd5e0393	-0.054202627
180	0xbca1f320	-0.019769251
181	0xbd19926e	-0.03749316
182	0x3b6ee7e1	0.0036454129
183	0xbd29aeb8	-0.04142639
184	0xbc902999	-0.01759796
185	0x3ce18ff1	0.027534457
186	0xbc7848cf	-0.015154078
187	0xbc9af90b	-0.018917581
188	0xbd211864	-0.0393299
189	0x3ceeed2e	0.02916583
190	0x3d69653f	0.05698132
191	0xbd19e833	-0.037574958
192	0x3d493836	0.049125873
193	0x3c7be0b1	0.015373395
194	0xbc960b82	-0.018316034
195	0xbce1c83e	-0.027561303
196	0x3c8c41f2	0.017121289
197	0xbd463f8e	-0.048400454
198	0x3d0d06ec	0.03443043
199	0xbd016316	-0.031588636
200	0x3cebf827	0.028804852
201	0xbc6d6f91	-0.014491932
202	0xbd0afec1	-0.03393436
203	0x3d3a33e0	0.045459628
204	0x3cad9b1a	0.021192122
205	0xbd85496e	-0.06508146
206	0xbb627e1b	-0.0034560028
207	0x3bd91c8e	0.0066257184
208	0xbcbdcf3f	-0.023170112
209	0x3cca5940	0.02470076
210	0xbd04e327	-0.03244319
211	0x3cb2e54f	0.021837858
212	0x3be098ea	0.0068541663
213	0xbc191162	-0.009342523
214	0xbcf818b9	-0.030285226
215	0xbc26ad77	-0.010173193
216	0x3d2eb2d3	0.04265101
217	0x3c9ad062	0.018898193
218	0x3af72c53	0.0018857814
219	0x3d20f1b1	0.039292995
220	0xbcc16efc	-0.023612492
221	0xbd35bf3d	-0.044371832
222	0xbc2e6775	-0.010644783
223	0xbc989dec	-0.01862999
224	0xbca4b686	-0.020106565
225	0x3c548ea3	0.01297346
226	0x3b8acc5e	0.0042357882
227	0xbc165a90	-0.009176865
228	0xbc6ea01a	-0.014564538
229	0xbb02eacc	-0.0019976376
230	0x3ca40f42	0.020026807
231	0x3b8c1121	0.004274503
232	0xbbe513e7	-0.006990898
233	0xbc284095	-0.010269304
234	0xbb205176	-0.0024462617
235	0x3cc1a00a	0.023635883
236	0xba641c80	-0.00087017566
237	0xbc7d7bdf	-0.015471428
238	0xbd2891d0	-0.041154683
239	0x3ba4bb92	0.005027243
240	0x3c0c84ee	0.008576615
241	0xbc709c7d	-0.014685747
242	0xbc18d2e0	-0.00932762
243	0x3c7ba994	0.015360255
244	0x3c15cd6c	0.009143215
245	0x3d1eca2d	0.03876703
246	0xbbb2e8f4	-0.005459899
247	0x3c695df8	0.014243595
248	0x3c9e31e3	0.019310897
249	0xbd4014c8	-0.04689482
250	0xbd238891	-0.03992516
251	0x3b865ae8	0.0041001923
252	0x3c9a2e43	0.018820887
253	0xbcf7a681	-0.030230762
254	0x3cbd0b61	0.023076715
255	0xbd127fd9	-0.035766456

conv3.bias f4 [64]
0	0xbd04961a	-0.03236971
1	0x3cea1bf0	0.028577775
2	0x3d076b11	0.03306109
3	0xbc65ee49	-0.014033862
4	0x3ccd77b1	0.025081487
5	0x3bd9ece1	0.0066505526
6	0x3bd42b20	0.0064748675
7	0x3c09bd87	0.008407003
8	0x3bd4215d	0.006473704
9	0xbcf13d12	-0.029448066
10	0xbbd5bfb3	-0.0065230965
11	0x3d104901	0.035225872
12	0x3c80fce2	0.015745584
13	0xba90b721	-0.0011040905
14	0xbcff028b	-0.031129142
15	0xbc8cbb58	-0.017179176
16	0x3cf69f78	0.030105338
17	0xbc7c1393	-0.015385526
18	0x3d1dc922	0.038521893
19	0x3cba8365	0.022767732
20	0x3cfbfcdc	0.030760221
21	0x3baaef1f	0.0052164937
22	0x3c059662	0.00815353
23	0xbcb39a09	-0.021924036
24	0x3cde0c84	0.027105577
25	0xbc1b2b9f	-0.009470849
26	0xbcd77186	-0.02629925
27	0x3cec9d18	0.028883502
28	0x3d2da3bc	0.042392477
29	0x3b256241	0.0025235566
30	0x3b0ecf7e	0.0021791155
31	0x3ce68ac5	0.028142342
32	0xbba49c43	-0.0050235107
33	0xbc50bc3f	-0.012740194
34	0x3aa3e32f	0.0012503619
35	0xbc829b81	-0.01594329
36	0x3ce8d96e	0.028423991
37	0xbd25376b	-0.040336054
38	0x3b0a13ce	0.0021068933
39	0x3d0cfed8	0.034422725
40	0xbc473e42	-0.0121608395
41	0xbcfd99be	-0.030957099
42	0x3c95fc5d	0.018308813
43	0xbd173252	-0.036913224
44	0x3d232af2	0.039835878
45	0x3d130c4a	0.03590039
46	0x3d155e16	0.03646668
47	0x3c9ee319	0.019395398
48	0xbcde6802	-0.027149204
49	0xbc11580b	-0.008871089
50	0xbc7d81ba	-0.015472824
51	0xbd0e8dd9	-0.034803245
52	0xbca4a955	-0.020100275
53	0x3cd21de4	0.025649019
54	0xbc761cac	-0.015021484
55	0xbcbee122	-0.023300711
56	0x3d1b67f2	0.037940927
57	0xbc2b001b	-0.010437037
58	0x3d256ae3	0.04038514
59	0xbcc525b1	-0.024065824
60	0xbd203480	-0.039112568
61	0xbb72a0d8	-0.003702214
62	0xbca7b2b9	-0.020470964
63	0x39d39426	0.00040355435

bn3.weight f4 [64]
0	0x3f8232e3	1.0171779
1	0x3f839463	1.0279659
2	0x3f7f5653	0.99741095
3	0x3f7ed807	0.9954838
4	0x3f8069d9	1.0032302
5	0x3f806615	1.0031153
6	0x3f7f489c	0.9972017
7	0x3f7f2bf7	0.9967646
8	0x3f809f3e	1.0048597
9	0x3f7a846a	0.978583
10	0x3f7ef3f7	0.9959101
11	0x3f8259af	1.0183619
12	0x3f7e870e	0.9942483
13	0x3f7f7b2b	0.99797314
14	0x3f7fc623	0.9991171
15	0x3f80e231	1.0069028
16	0x3f7dbc2c	0.9911525
17	0x3f7c8a38	0.98648405
18	0x3f7eed04	0.9958041
19	0x3f8282ae	1.019613
20	0x3f7f4f26	0.99730146
21	0x3f81688e	1.0110033
22	0x3f80c656	1.0060527
23	0x3f81a9b0	1.012991
24	0x3f82e223	1.0225261
25	0x3f7fe00e	0.99951255
26	0x3f8105f3	1.007994
27	0x3f832c19	1.0247833
28	0x3f7f4837	0.99719566
29	0x3f80f79e	1.0075567
30	0x3f7bc998	0.9835448
31	0x3f803ae4	1.0017972
32	0x3f7f9ae7	0.9984574
33	0x3f7df3e9	0.992003
34	0x3f7fd58d	0.9993523
35	0x3f825260	1.0181389
36	0x3f811ff8	1.0087881
37	0x3f7bfff8	0.9843745
38	0x3f7cf009	0.98803765
39	0x3f83ec0c	1.0306411
40	0x3f809d9a	1.0048096
41	0x3f7d33c9	0.9890714
42	0x3f797b9a	0.97454226
43	0x3f78b3b6	0.9714922
44	0x3f7f89d1	0.99819666
45	0x3f852d21	1.0404397
46	0x3f7b30c0	0.9812126
47	0x3f7b3e31	0.9814177
48	0x3f7e9b7d	0.99456006
49	0x3f7dc2bf	0.99125284
50	0x3f7e9db7	0.99459404
51	0x3f809df5	1.0048205
52	0x3f82a988	1.0207987
53	0x3f825023	1.0180706
54	0x3f7fdbfa	0.9994503
55	0x3f8318c7	1.0241936
56	0x3f805c42	1.0028155
57	0x3f81307b	1.009292
58	0x3f7e69f6	0.99380434
59	0x3f7f176d	0.9964512
60	0x3f80f967	1.0076112
61	0x3f7b6b95	0.9821103
62	0x3f818038	1.0117254
63	0x3f7b3328	0.98124933

bn3.bias f4 [64]
0	0xb9a90f70	-0.00032245694
1	0x3ccabe01	0.024748804
2	0x3c486412	0.01223089
3	0x3cacc1b6	0.021088462
4	0x3c9f4c58	0.019445583
5	0x3ba2900a	0.0049610185
6	0xbc3b1424	-0.011418376
7	0x3d0070f0	0.031357706
8	0x39d85cc0	0.00041267835
9	0xbb59d597	-0.0033238882
10	0x3cdf0abf	0.027226804
11	0x3cc8a0a0	0.024490654
12	0xbb9d8b10	-0.0048078373
13	0xbd0eeecd	-0.034895707
14	0xbba6efe9	-0.0050945175
15	0x39f6da51	0.00047083435
16	0x3afa28cb	0.0019085644
17	0x3bdd3402	0.0067505846
18	0xbb6cd6e2	-0.0036138822
19	0x3c214fd1	0.00984569
20	0xbb91e473	-0.004452282
21	0x3c0174ed	0.007901412
22	0x3c818adc	0.015813284
23	0x3d005ab2	0.031336494
24	0xbc3be92e	-0.011469169
25	0xbbddea83	-0.0067723407
26	0x3cd49b05	0.025952825
27	0x3b83a336	0.004017259
28	0x3ad02089	0.0015878837
29	0x3c21bd05	0.009871726
30	0x3b12f292	0.0022422415
31	0x3c1dfb6b	0.009642462
32	0x3c01e0cf	0.007927134
33	0xbc204444	-0.009781901
34	0x3b5c1711	0.0033583085
35	0x3c692f4c	0.014232468
36	0x3bd847a2	0.006600336
37	0xbc6864c4	-0.014184181
38	0x3c17710b	0.00924326
39	0x3d3a4996	0.045480333
40	0xbc89b4aa	-0.01680978
41	0xbbdb9e79	-0.006702241
42	0xbc25f9b6	-0.0101303365
43	0xbc8adb8d	-0.016950393
44	0xbc8482a1	-0.01617557
45	0x3ce697a7	0.028148485
46	0x3a8b9a1f	0.001065079
47	0xbc3ede6e	-0.011649711
48	0xbca64571	-0.020296784
49	0x3c092a71	0.008371935
50	0xbc21d203	-0.009876731
51	0xbc5c02ac	-0.013428371
52	0x3c9f9c87	0.019483818
53	0x3cae8e4d	0.021308089
54	0x38627220	5.3988886e-05
55	0x3b9975b1	0.0046832194
56	0xbbca6ce2	-0.0061775306
57	0x3d007fbc	0.031371817
58	0x3a3b2cde	0.00071401696
59	0xbc0bf559	-0.008542382
60	0x3be33f9b	0.0069350726
61	0xbbff5d24	-0.0077930856
62	0xbbdb4b7b	-0.0066923476
63	0x3a0b6bf4	0.00053185155

bn3.running_mean f4 [64]
0	0xbf29db8d	-0.6635063
1	0xbead911c	-0.33899772
2	0x3e6664ab	0.2249934
3	0x3eaca99a	0.33723146
4	0xbe762b19	-0.24039878
5	0x3e5b0272	0.21387652
6	0xbe8607fd	-0.2617797
7	0xbe9324c4	-0.28738987
8	0xbf1ea709	-0.61973625
9	0xbf91f10c	-1.1401687
10	0x3f14b314	0.5808575
11	0x3e9697c3	0.2941266
12	0xbf00feaf	-0.50388616
13	0x3f7b19ad	0.98086053
14	0xbefab725	-0.48967853
15	0xbd785faa	-0.060638107
16	0xbf60ff89	-0.87889916
17	0x3e1f3816	0.15548739
18	0x3e5b7130	0.21429896
19	0xbd9564f1	-0.07294644
20	0x3f186043	0.59521884
21	0xbf042d86	-0.51631963
22	0xbe880067	-0.26562807
23	0xbeaabf30	-0.3334899
24	0x3e0403ce	0.12892076
25	0xbf00adc5	-0.5026515
26	0x3e92f89e	0.28705305
27	0xbccc0704	-0.024905689
28	0xbe487ad1	-0.195781
29	0xbef4753a	-0.47745687
30	0x3e68b68b	0.22725885
31	0xbf4049e2	-0.75112736
32	0xbf102a38	-0.5631442
33	0xbe5f654d	-0.21815987
34	0x3f46722b	0.77517956
35	0xbe1fdc25	-0.15611322
36	0xbf164668	-0.5870118
37	0xbfa4647d	-1.2843167
38	0x3f4c39e5	0.7977584
39	0xbd39c1f2	-0.045350976
40	0xbf2d765a	-0.67758715
41	0x3f25d1c2	0.6477319
42	0x3e4aba79	0.19797696
43	0xbf2a3b10	-0.6649637
44	0xbf40b2d7	-0.7527289
45	0xbe50e94e	-0.20401499
46	0x3eef2830	0.46710348
47	0xbf30cdfe	-0.6906432
48	0x3e8117a9	0.25213364
49	0x3f005e6b	0.5014407
50	0x3ec22af6	0.37923402
51	0xbf03e1fd	-0.51516706
52	0xbf0d440e	-0.5518197
53	0x3f08ba05	0.53408843
54	0x3f136258	0.57571936
55	0xbe921de2	-0.28538424
56	0x3e44e24c	0.1922695
57	0x3ef37e29	0.4755719
58	0x3e9871ec	0.29774415
59	0x3f5a3213	0.8523266
60	0x3e07320d	0.13202687
61	0x3f4993e6	0.787413
62	0xbef8d475	-0.48599592
63	0x3e508c12	0.20365933

bn3.running_var f4 [64]
0	0x3e87a999	0.2649658
1	0x3f19fc70	0.60150814
2	0x3f10de7c	0.56589484
3	0x3f2f3fe9	0.68456894
4	0x3e8ed89b	0.27899632
5	0x3eafbb81	0.34322742
6	0x3ecc26b2	0.39873272
7	0x3eee3c8f	0.46530578
8	0x3ecf8102	0.40528113
9	0x3edb04a7	0.42776987
10	0x3ecfac7a	0.40561277
11	0x3f57f2c0	0.8435478
12	0x3ea61252	0.32435852
13	0x3ece0c2c	0.4024366
14	0x3e7138d4	0.23556834
15	0x3e63be54	0.22240573
16	0x3f5d19ab	0.8636729
17	0x3f05a21b	0.5220048
18	0x3ec29958	0.38007617
19	0x3ee3da4a	0.4450248
20	0x3ebb96e2	0.36638552
21	0x3eed96f1	0.46404222
22	0x3ea5cd7f	0.32383344
23	0x3e8a75c3	0.2704297
24	0x3ef23045	0.47302452
25	0x3eaaca6c	0.3335756
26	0x3eb76828	0.35821652
27	0x3eb4cca5	0.3531238
28	0x3ed8c2f6	0.42336243
29	0x3ef979d1	0.4872575
30	0x3fbddf4b	1.4833769
31	0x3ec1d166	0.3785507
32	0x3ee5d244	0.44886982
33	0x3f0024d9	0.50056225
34	0x3f0ee3bc	0.55816245
35	0x3ef03bc2	0.46920592
36	0x3e92da01	0.2868195
37	0x3ed3b288	0.41347146
38	0x3f968b39	1.1761237
39	0x3eef00df	0.46680352
40	0x3ea46bd5	0.3211352
41	0x3f670581	0.90242773
42	0x3e9f56e9	0.31120995
43	0x3eadabb3	0.3392006
44	0x3eb84614	0.35990965
45	0x3e5e2c6d	0.21696635
46	0x3ed68763	0.41900167
47	0x3ea63a80	0.32466507
48	0x3e932f88	0.287472
49	0x3f16744f	0.5877122
50	0x3f0f4c11	0.55975443
51	0x3f016aa2	0.50553334
52	0x3ecfc76b	0.4058183
53	0x3ec19d42	0.3781529
54	0x3f10d195	0.56569797
55	0x3ef604ae	0.48050445
56	0x3f234c83	0.6378862
57	0x3eb647be	0.3560161
58	0x3f5146ff	0.81748956
59	0x3eb6d431	0.35708764
60	0x3eaeaf32	0.34118038
61	0x3f4a65b8	0.7906146
62	0x3e9345e9	0.28764275
63	0x3ea4afdc	0.3216542

policy_conv.weight f4 [2, 64, 1, 1]
0	0x3e11dcc0	0.14244366
1	0xbd9a0919	-0.075212665
2	0x3d774909	0.060372386
3	0xbc3783e8	-0.0112008825
4	0xbdbd89ad	-0.09254775
5	0x3e0c23e9	0.13685574
6	0xbd218d86	-0.039441608
7	0x3de68315	0.11255471
8	0xbdfdf996	-0.1240112
9	0x3cf0563b	0.029337993
10	0x3dd4b300	0.10385704
11	0xbe0c09de	-0.13675639
12	0xbd89c3f3	-0.067268275
13	0xbcc4a9b4	-0.024006702
14	0x3d4d8bf4	0.050182298
15	0x3d08fe38	0.033445567
16	0xbd2472fe	-0.040148728
17	0x3dd85a5a	0.10564108
18	0xbdaac92a	-0.0833915
19	0x3ac04e7e	0.001467183
20	0x3db4e236	0.08832209
21	0xbe03e33d	-0.12879653
22	0x3d79b463	0.060963046
23	0x3defa9a5	0.11702279
24	0xbcadb6aa	-0.021205265
25	0xbd2d7f32	-0.04235763
26	0x3e087bbf	0.13328455
27	0x3d928a4f	0.071552865
28	0xbd83cf29	-0.06435997
29	0xbd2807f6	-0.041023217
30	0x3c8d5b13	0.017255342
31	0x3c1a9e33	0.009437132
32	0xbe1bbc36	-0.15208516
33	0xbddfd1ff	-0.109287255
34	0x3d954ce8	0.07290059
35	0xbdcd8d75	-0.100367464
36	0x3d0cc66a	0.03436891
37	0x3d01f631	0.031728927
38	0x3d1cf845	0.038322706
39	0xbd66abab	-0.05631606
40	0x39551ffc	0.00020325178
41	0x3b910d5e	0.0044266423
42	0x3d5453d5	0.05183776
43	0x3c71087d	0.014711496
44	0x3cf1b686	0.02950598
45	0xbd140eb2	-0.036146827
46	0x3dc86c67	0.09786301
47	0x3b59d37e	0.0033237631
48	0x3c9f419d	0.019440467
49	0x3dc79296	0.09744756
50	0x39c1dbee	0.0003697569
51	0xbe05cbdc	-0.13066047
52	0xbd7bf50e	-0.061513
53	0xbdb610e2	-0.08889939
54	0x3dc8bb89	0.098013945
55	0xbda15e47	-0.0787931
56	0xbcf7a859	-0.030231642
57	0x3d8ef9c1	0.069812305
58	0x3cf92f47	0.030418051
59	0x3a3b77b3	0.00071513205
60	0x3dde7e65	0.108639516
61	0x3da9c826	0.082901284
62	0xbdd63fde	-0.104614004
63	0x3c39dfad	0.011344832
64	0x3c40ea0b	0.01177455
65	0xbd6047ce	-0.05475598
66	0x3c2d3fc4	0.010574285
67	0xbdea7d38	-0.11449665
68	0x3da48dd4	0.08034864
69	0x3d352477	0.04422423
70	0xbd97f9af	-0.0742067
71	0xbcd0889c	-0.025455765
72	0x3c7e07b1	0.015504763
73	0x3d11113a	0.03541682
74	0xbcde7028	-0.02715309
75	0xbc6ff8ae	-0.014646692
76	0x3de5c122	0.11218478
77	0x3d402382	0.046908863
78	0x3dec7d7a	0.1154737
79	0x3cdf53ae	0.027261581
80	0x3d3a8519	0.045537088
81	0x3d18079c	0.037116632
82	0xbd832eae	-0.06405388
83	0x3dd78674	0.10523692
84	0xbdbfb914	-0.09361473
85	0xbdaa0b89	-0.083029814
86	0xbd8ec8d7	-0.06971901
87	0x3dab2a96	0.08357732
88	0xbdf11086	-0.1177073
89	0x3db4c719	0.08827037
90	0x3d853a4d	0.065052606
91	0x3d76e650	0.060278237
92	0xbc34a5df	-0.011025875
93	0x3cf5704a	0.02996077
94	0xbdaa1353	-0.08304467
95	0xbc644b01	-0.013933898
96	0x3d8ffd92	0.070307866
97	0xbdf17103	-0.117891334
98	0xbd3b0dc0	-0.04566741
99	0x3dcceedb	0.100064956
100	0xbdc699a2	-0.09697272
101	0xbbf30ba0	-0.0074171573
102	0xbdbe0685	-0.09278587
103	0xbd19f112	-0.03758342
104	0x3e040a1c	0.12894481
105	0xbd00f371	-0.031482164
106	0x3cfa3946	0.030544888
107	0x3d38651a	0.045018293
108	0xbc952cf0	-0.018209904
109	0x3dae2ee2	0.08505036
110	0xbd5bb04b	-0.053634923
111	0x3c39d05f	0.011341183
112	0xbd5f72d2	-0.05455286
113	0xbd7c56d3	-0.06160624
114	0x3d3f6fa2	0.04673732
115	0x3da5ad42	0.08089687
116	0xbde563ed	-0.112007
117	0xbbb8d8ec	-0.0056410935
118	0x3dc4590a	0.09587295
119	0xbd683656	-0.056692444
120	0xbcb3ce7c	-0.021949045
121	0x3d818340	0.06323862
122	0xbda36ab5	-0.07979337
123	0x3c35cd42	0.011096301
124	0xb9d1a116	-0.00039983605
125	0xbcb69022	-0.022285525
126	0x3df11e7e	0.11773394
127	0xbc75ed8b	-0.015010248

policy_conv.bias f4 [2]
0	0xbdb3b3f3	-0.08774557
1	0xbd005291	-0.03132874

policy_bn.weight f4 [2]
0	0x3f7d60aa	0.9897562
1	0x3f83c166	1.0293396

policy_bn.bias f4 [2]
0	0x3a20c45f	0.0006132777
1	0x3d242125	0.04007067

policy_bn.running_mean f4 [2]
0	0xbc000318	-0.007813238
1	0xbcc43c49	-0.023954527

policy_bn.running_var f4 [2]
0	0x3f7ae92e	0.98012054
1	0x3f036d7d	0.5133894
