models/connect4_model_epoch_1.pth (torch, 329001 bytes, 30 tensors)

conv1.weight f4 [64, 1, 3, 3]
000000 aa 99 9a be 8f ea 7d be aa d2 6d be e1 e7 4f be
       -0.3019536 -0.24796508 -0.23224893 -0.20303299
000010 24 c4 78 be d7 32 0e bb b7 ce 09 be c9 99 9d bd
       -0.24293572 -0.0021697783 -0.13457762 -0.07695348
000020 44 7a a9 3e ad 50 f3 bc f9 95 22 3d 4c b5 4f be
       0.33101094 -0.029701555 0.039693806 -0.20284003
000030 e3 1a ed bd 5a 33 87 bd 4d 5e 3f be bf e8 a6 bd
       -0.11577394 -0.066015914 -0.18688317 -0.081498615
000040 25 a4 6b bd f9 99 c5 bd 63 a8 17 3d 7b d5 83 3c
       -0.057529587 -0.096485086 0.03702582 0.016093006
000050 33 3a 3c 3d 78 6a 10 be f1 fe 56 be 1e 66 8b 3c
       0.04595394 -0.14103115 -0.2099569 0.017016467
000060 c2 8d a3 3e 61 cb 57 3e af 67 09 bb 21 ad 6f be
       0.3194409 0.21073677 -0.0020966341 -0.23405887
000070 e8 13 e3 3c 80 7c 94 3e ae 85 a3 3e 01 e7 44 bd
       0.027719453 0.29001236 0.31937927 -0.048071865
000080 a4 d0 fa bd b5 29 56 3c ea c4 d5 3d 1f 19 92 be
       -0.12246826 0.013071467 0.10437949 -0.2853479
000090 b6 b5 97 bd af 9c 85 3e 34 a8 43 3e 22 9d cd 3c
       -0.074077055 0.26096103 0.19107133 0.02509934
0000a0 6b 2a 4b be fd 6c 5c 3e 1d 77 93 3e c3 43 89 be
       -0.198404 0.2152595 0.28801814 -0.2680951
0000b0 6e f3 75 be 9a f6 a1 be c7 22 be 3b 6b c2 a4 be
       -0.24018642 -0.31633455 0.0058024856 -0.3217958
0000c0 1e 01 82 be bf 8a bd bd 53 54 be 3d e2 3d 94 be
       -0.25391477 -0.09254979 0.09293427 -0.28953463
0000d0 9c dc be bd 61 15 a9 3c df 77 94 be 2b be 50 bd
       -0.09319422 0.020640077 -0.28997704 -0.05096261
0000e0 00 29 ee 3d ae 00 82 bd 40 9c 5e be ec f8 11 3e
       0.11628914 -0.06347786 -0.21739292 0.14255112
0000f0 e5 79 10 be ce b4 9c bd dd 93 12 bb fd 6e 8c be
       -0.14108999 -0.07651673 -0.0022365965 -0.27428427
000100 ca 24 0d be 11 79 2e be dc 43 75 be 38 f1 8e bc
       -0.13783565 -0.1703837 -0.23951668 -0.017449006
000110 78 c8 68 bd e9 0d 71 3e 57 94 e0 bd 11 02 a8 3e
       -0.056831807 0.23540463 -0.109657936 0.32814077
000120 b5 ab 26 3c 4f 7f 1b be 0d 1e 75 be c9 75 4f 3e
       0.010172774 -0.15185283 -0.23937245 0.20259775
000130 05 b6 8b 3e 9a 89 8d be e8 48 e4 3d f4 a4 1c be
       0.27287307 -0.27644044 0.11146718 -0.152973
000140 c8 0b 67 bd 2a 8b 12 bd 1b 16 96 3e af 69 96 3e
       -0.05640772 -0.03577725 0.2931374 0.29377505
000150 9a c5 89 be 26 5c f2 bd fc d2 26 3d b4 b3 37 bc
       -0.2690857 -0.11833982 0.040728554 -0.011212278
000160 90 90 a6 3e b7 9d a7 3d 04 a2 92 be eb 07 1d bd
       0.32532167 0.081843786 -0.28639233 -0.03833763
000170 30 2c 80 3e df 4a 86 3e 51 9d 78 be 79 82 57 be
       0.25033712 0.26228997 -0.24278761 -0.21045865
000180 bf d2 92 3e 1f b1 57 be 40 fc a5 bd 8f c5 63 be
       0.28676412 -0.2106366 -0.081047535 -0.22243331
000190 28 25 a2 3d f0 d4 ae 3d a6 ff 3c 3e 57 ae 39 be
       0.07917243 0.08536708 0.18456897 -0.18132912
0001a0 e3 82 cc 3d de fa 73 be f4 35 64 3e 58 73 76 3e
       0.09985902 -0.23826167 0.22286206 0.24067438
0001b0 2f 7d 1c 3b dd 8d 89 be ab af 74 3e 05 c6 27 bc
       0.0023878326 -0.26866046 0.23895137 -0.010240083
0001c0 40 8a 94 3e 58 0b ca bd 8e 20 69 be 5f 72 7e 3e
       0.29011726 -0.09865445 -0.22766325 0.24848317
0001d0 b3 28 75 be 2e d3 24 be 49 88 03 bc 35 04 3d 3e
       -0.23941307 -0.16096184 -0.008028098 0.18458636
0001e0 dd 56 99 be 0f 3e 8d be 6e 89 a6 3e aa 53 a2 bd
       -0.29949084 -0.2758641 0.32526726 -0.07926114
0001f0 63 fd 7a be 3e 74 29 3d d0 e7 16 bd 52 61 9a bb
       -0.24510722 0.041370623 -0.036842167 -0.0047113085
000200 dc 58 6b 3e ab d8 54 3e 0d 9f 0b be 4f bc bc 3c
       0.22983116 0.20785777 -0.13634892 0.023039011
000210 49 c9 51 be 97 3c d4 bd 59 e8 8c be a0 b3 22 3d
       -0.2048694 -0.10363119 -0.27521017 0.039722085
000220 bf b1 e9 3b 96 55 e5 3d 45 24 25 be 7b f6 3a be
       0.0071317847 0.11197965 -0.16127117 -0.18258087
000230 91 12 1e be c7 9f 83 3e 22 5a 2f bc 2e 76 9f be
       -0.1543677 0.25707838 -0.010702642 -0.3114485
000240 88 20 8c be 6c 76 20 3e 23 9c 1c 3d 0a 14 37 3e
       -0.2736857 0.15670174 0.03823484 0.17878738
000250 ee b8 2d 3d 91 ed a3 3e 65 0d 9b 3e 24 f0 7e 3e
       0.04241269 0.32017186 0.30283657 0.24896294
000260 35 72 59 be 9a 6f 55 be f6 ac eb b9 91 89 65 bc
       -0.21234973 -0.20843354 -0.0004495156 -0.014009849
000270 13 24 36 be ee 0a de bd b6 2f 8e 3e c7 38 98 3e
       -0.17787199 -0.108419284 0.27770776 0.29730818
000280 6d 8a 99 be 1a 72 9c bc 0e 2d 5b be bc 49 2f 3e
       -0.29988423 -0.019097377 -0.21403906 0.17117971
000290 b8 3e 9a 3e d7 51 98 3e 28 02 a8 be b1 d9 19 bd
       0.30125976 0.2974994 -0.32814145 -0.037561122
0002a0 29 db 1f 3e f1 fa 70 be c0 93 b7 3d c7 51 41 3d
       0.15610947 -0.23533227 0.08963728 0.04719713
0002b0 cf b5 ac bd f5 b0 70 be fe 12 0e be ae 6b a0 3d
       -0.08433115 -0.23505004 -0.13874432 0.07833038
0002c0 bb 93 80 3d db 5c 60 3e b0 31 e1 3d af cc 30 3e
       0.06278177 0.21910422 0.10995805 0.1726558
0002d0 5f cd a6 3d 69 81 9d be 71 ba dd 3d 75 5f 42 bc
       0.0814464 -0.30762795 0.108265765 -0.011863579
0002e0 b6 e4 b0 ba 11 f9 63 3e be d0 07 be 31 a2 90 be
       -0.0013495896 0.2226298 -0.13263223 -0.28248742
0002f0 b6 e8 91 bd df 2a 8c 3e e3 ab 21 be 22 46 e5 bc
       -0.07124464 0.27376458 -0.15788226 -0.027987543
000300 44 a4 a8 3e 3e 61 b8 3c 54 5c 21 3c cb 9d 7c 3e
       0.32937825 0.022507306 0.009848673 0.24669568
000310 50 27 6f 3e 59 bb 40 3d b2 81 27 bd 89 16 13 be
       0.2335484 0.04705367 -0.04089517 -0.14364065
000320 95 32 03 bc c7 e7 86 be 56 b8 9e 3c 1d 51 a7 be
       -0.008007665 -0.26348707 0.019375008 -0.32679072
000330 9b 6d 05 3e bd d1 3f be 8a 5f 87 bd 6c a9 43 3d
       0.13030092 -0.18732353 -0.066100195 0.047768995
000340 33 8b 8d 3e ec da 43 3e 9f e4 5c 3d 46 35 91 be
       0.27645263 0.19126481 0.053928968 -0.28360957
000350 c2 c9 6a 3e 8b 26 89 3e 45 da aa 3e 5d fc 81 bc
       0.22928527 0.26787218 0.3336965 -0.015867407
000360 30 31 8e 3d b7 81 0b 3e e6 11 89 3e d2 6f 12 be
       0.069429755 0.13623701 0.26771468 -0.14300469
000370 28 c2 a3 bd 28 c3 99 3e 2a 4e a5 be c3 79 92 bd
       -0.07996017 0.30031705 -0.32286197 -0.071521305
000380 b2 64 00 3e e4 34 62 3e 8a 20 f5 bd 69 96 7a be
       0.12538412 0.22090489 -0.11969097 -0.2447144
000390 88 ca 1c bc b5 d8 d2 3d e7 e2 a2 3e e9 ff 68 be
       -0.009569772 0.1029524 0.31813738 -0.22753872
0003a0 80 b1 6d 3e 07 5f 27 bd 5b 54 b8 3d 15 59 2d bd
       0.23212242 -0.04086211 0.090004645 -0.042321283
0003b0 a3 1b 61 be 5a 4d a8 be e3 dc c7 bc 60 0e fd bc
       -0.21983199 -0.32871515 -0.02439732 -0.030890644
0003c0 56 28 83 3c d2 b9 3e 3e 38 b7 92 3d f6 a6 94 3e
       0.016010445 0.18625572 0.071638525 0.2903363
0003d0 ee 59 a6 3e 01 34 69 be d4 73 b0 bd 01 49 51 ba
       0.32490486 -0.22773744 -0.086158425 -0.0007983596
0003e0 8c be 2a bd 0e 44 cb 3c c8 9f a1 be 29 7c 8e 3e
       -0.041685626 0.024812724 -0.31567216 0.27829102
0003f0 29 6d 28 be e8 d5 32 3e 84 fc 9c 3e d6 35 82 3e
       -0.16447891 0.17464411 0.30661404 0.254317

conv1.bias f4 [64]
000000 a2 15 00 bc 77 db 55 be 12 05 e6 ba ab 0d 72 3e
       -0.007817658 -0.208845 -0.0017549118 0.23638026
000010 43 f0 40 3d 23 18 2b 3e 1d 58 a6 3d c1 a2 86 3d
       0.04710413 0.16708426 0.08122275 0.065740116
000020 8b 41 03 3e 5e 5a fe bc 94 4b 0b be 18 8c 09 3e
       0.12817971 -0.03104895 -0.1360305 0.13432348
000030 d0 d1 4d 3d aa 0d 76 3e 08 85 a3 bc 40 8c 30 3e
       0.05024892 0.2402865 -0.019960895 0.17241001
000040 4f df 80 be 49 52 4f bd a9 35 42 be 46 10 05 bd
       -0.2517037 -0.050615583 -0.18965782 -0.032486223
000050 e0 29 a8 be 16 a0 9a be cf dc a8 be 61 57 59 3e
       -0.32844448 -0.3020026 -0.32980964 0.21224739
000060 44 43 ff 3d 69 24 3f be 48 15 87 be f6 67 ce 3d
       0.12464002 -0.18666233 -0.26383424 0.10078423
000070 55 b2 93 3e c3 95 3d be 66 37 0b be 82 85 40 be
       0.28846994 -0.18514161 -0.13595352 -0.18800929
000080 02 84 54 be 2d 32 a0 be d7 b3 9b 3e 69 43 7c 3e
       -0.20753482 -0.3128828 0.30410644 0.2463509
000090 95 c7 99 3e 33 25 a1 3b e4 6a 60 3e c4 d2 52 3d
       0.30035082 0.0049177646 0.21915776 0.051470533
0000a0 ee 88 4f 3e 4b aa 09 3e f3 99 6f 3e a8 d0 c5 bd
       0.20267078 0.13443868 0.2339857 -0.09658939
0000b0 f1 af b6 bd 84 fc a3 be fc 84 e7 bd 0a a8 a7 be
       -0.08920277 -0.32028592 -0.11304662 -0.3274539
0000c0 7c 74 9b bd 9c 94 9c be 61 ba f0 3d dd a8 97 bd
       -0.07590577 -0.3058213 0.11754299 -0.07405255
0000d0 32 68 6f bd 5b 12 b3 3d f0 90 99 be a0 5d 02 3d
       -0.058448978 0.087437354 -0.2999339 0.03182757
0000e0 58 37 a2 be 92 2a ab bd d5 dd 02 3e b6 e1 27 3e
       -0.3168285 -0.08357729 0.12779935 0.16394696
0000f0 d4 2d 0a 3e 78 7c 81 be be 93 c3 bd 0a 9a 04 3d
       0.13494045 -0.25290275 -0.09549664 0.032373466

bn1.weight f4 [64]
000000 3e a1 80 3f e8 65 7f 3f d1 c1 80 3f 03 5c 80 3f
       1.0049207 0.9976487 1.0059148 1.002808
000010 d3 04 80 3f 59 76 7f 3f 05 6d 80 3f e0 fb 7f 3f
       1.0001472 0.9978996 1.003327 0.99993706
000020 87 c9 7d 3f 39 60 7e 3f 41 a3 7e 3f 06 73 80 3f
       0.9913563 0.99365574 0.99467856 1.0035102
000030 a3 e2 7f 3f 71 37 80 3f aa 8c 7e 3f f7 57 7f 3f
       0.99955195 1.0016919 0.99433386 0.997436
000040 14 c8 80 3f 8e 68 80 3f 44 fe 7d 3f e4 9b 80 3f
       1.0061059 1.0031908 0.99216104 1.0047574
000050 30 b9 80 3f 3c a9 80 3f cd c3 7e 3f 86 f4 7f 3f
       1.0056515 1.0051646 0.9951752 0.9998249
000060 49 1e 80 3f ae 9a 7e 3f 94 ac 80 3f 86 77 80 3f
       1.0009242 0.9945477 1.0052667 1.0036476
000070 31 7b 7e 3f 73 53 7f 3f 6d 00 80 3f 06 d1 7f 3f
       0.99406725 0.9973671 1.000013 0.9992832
000080 7c 54 80 3f 39 b7 7f 3f 04 69 7e 3f fa bf 80 3f
       1.0025783 0.9988895 0.9937899 1.0058587
000090 d4 30 7e 3f 63 e5 7f 3f 15 eb 7e 3f f0 65 7e 3f
       0.99293256 0.9995939 0.99577457 0.99374294
0000a0 79 09 80 3f 24 5e 80 3f 60 c3 80 3f 59 f7 7e 3f
       1.0002891 1.002873 1.0059624 0.9959617
0000b0 21 ed 7f 3f ae 3a 80 3f 7c 6a 7f 3f e0 ba 7d 3f
       0.99971205 1.0017908 0.9977186 0.99113274
0000c0 ac bb 80 3f b8 40 80 3f 0f 6c 80 3f 38 d2 80 3f
       1.0057273 1.001975 1.0032977 1.0064154
0000d0 74 c2 80 3f 13 e5 7e 3f 9a 26 80 3f 1d 7f 7e 3f
       1.0059342 0.9956829 1.001178 0.9941271
0000e0 9b 6e 80 3f 69 08 81 3f 3d 63 80 3f 8a 82 7f 3f
       1.0033754 1.0080692 1.0030285 0.9980856
0000f0 79 85 80 3f 4c fe 80 3f 06 d6 7d 3f 83 b3 7e 3f
       1.0040733 1.0077605 0.991547 0.99492663

bn1.bias f4 [64]
000000 0d a7 79 39 d6 59 27 3b e6 21 90 3b e4 f2 32 bb
       0.00023808722 0.0025535724 0.0043985723 -0.0027305419
000010 4c 3b fd 3b 91 98 2d bb 59 34 39 3b e6 7b 96 bb
       0.007728016 -0.0026488642 0.0028259961 -0.0045924066
000020 a3 ce 0d bc 95 ec 98 3b aa 42 4a 38 ac ef a8 3b
       -0.008655223 0.0046668747 4.822264e-05 0.0051555242
000030 bd 14 d7 ba bc 9f b7 3b ed af e1 ba df 57 10 bb
       -0.0016409379 0.0056037586 -0.0017218568 -0.0022025032
000040 cf 6c fa ba aa 60 81 3b 68 f8 40 bb d4 1b 35 bb
       -0.0019105914 0.003948291 -0.0029444937 -0.0027634995
000050 5b 59 d9 3b f1 81 b4 ba 0f 7d ed bb 28 dc d7 bb
       0.0066329665 -0.0013771636 -0.007247574 -0.006587524
000060 07 9c 8e bb f8 98 9d bb 9b 70 9f 3b 46 4b b9 bb
       -0.004352096 -0.004809495 0.0048657185 -0.0056547252
000070 c6 c5 b8 3b cf 2a da bb 60 41 be 3a 15 d5 9a 3b
       0.005638811 -0.006657935 0.0014515333 0.0047251084
000080 fe 92 92 3a d3 c5 98 bb 93 c3 8b bb dd c5 98 3a
       0.0011182723 -0.0046622544 -0.0042652576 0.0011655648
000090 b7 1f 2e ba 6d 59 4f 3b 12 a4 60 bb e4 22 e1 bb
       -0.0006642299 0.0031638995 -0.003427748 -0.0068706144
0000a0 a8 79 c7 bb 75 e9 ad 3b db b2 0d 3b ce 25 9d bb
       -0.0060875006 0.0053073713 0.0021621499 -0.0047957664
0000b0 f6 d4 d9 3b c0 b1 2a bb ae 73 5c 3b eb 1a 96 bb
       0.0066477014 -0.0026045889 0.0033638286 -0.0045808456
0000c0 22 c1 15 3c a9 f5 a8 bb ee 8a d8 3b f5 3d 63 bb
       0.009140285 -0.005156238 0.0066083586 -0.003467438
0000d0 60 10 9e 3b 24 86 f7 b8 9f 11 a3 bb 75 26 73 3b
       0.0048237294 -0.000118028634 -0.004976466 0.003710178
0000e0 0d 19 d9 bb ec 38 ff 3b 97 b2 31 ba 0b 8b c3 bb
       -0.0066253007 0.007788768 -0.0006778626 -0.005967503
0000f0 88 38 a4 38 4e a6 c5 bb ef 98 de bb ed 8e 9a bb
       7.830659e-05 -0.006031788 -0.0067931334 -0.004716745

bn1.running_mean f4 [64]
000000 50 ba ac b8 bd 07 25 be e6 4f 5e bb c6 bb 3e 3e
       -8.2363025e-05 -0.16116233 -0.0033922135 0.18626317
000010 53 22 1b 3d 29 1d 10 3e d1 ff 8d 3d b1 87 5d 3d
       0.03787453 0.14073624 0.06933559 0.054084484
000020 f1 8d d1 3d d4 f1 de bc ce ed da bd c4 17 d6 3d
       0.10232151 -0.027214922 -0.10689889 0.10453752
000030 9e 65 21 3d f7 b2 48 3e 23 45 4f bc 28 4d 0f 3e
       0.03940355 0.1959952 -0.012650761 0.13994277
000040 d3 1f 54 be 68 80 1e bd e2 b5 19 be f5 d0 ec bc
       -0.20715265 -0.038696676 -0.15010789 -0.028908232
000050 6f c7 83 be a2 2d 7d be 65 55 83 be ca 68 25 3e
       -0.25738093 -0.24724439 -0.25651088 0.16153255
000060 43 c9 ca 3d 0e ba 1a be da ce 54 be 90 ae a2 3d
       0.09901669 -0.15110037 -0.20782033 0.079434514
000070 66 e3 68 3e 43 be 19 be a9 54 dc bd 07 10 19 be
       0.22742996 -0.15013985 -0.10758335 -0.1494752
000080 c8 90 2c be e2 95 81 be f8 95 7b 3e 92 0b 48 3e
       -0.16852105 -0.25309664 0.24568927 0.19535664
000090 5c bd 71 3e 67 2a 2f 3c 80 9b 33 3e ac 83 36 3d
       0.23607391 0.010691262 0.17539787 0.044559166
0000a0 af 6a 24 3e f9 b1 e0 3d 9b f1 44 3e 6d 77 9c bd
       0.16056322 0.109714456 0.1923279 -0.07639966
0000b0 d8 d6 91 bd cd 6a 82 be d6 25 c2 bd 13 f1 86 be
       -0.07121056 -0.25472108 -0.09479873 -0.263558
0000c0 94 56 79 bd f8 6c 79 be d1 0c c1 3d de ad 77 bd
       -0.060873583 -0.24357975 0.09426273 -0.060468547
0000d0 d5 5a 3c bd fa f5 99 3d f4 b2 72 be 8a 34 f5 3c
       -0.04598506 0.075176194 -0.23701078 0.02993228
0000e0 55 7c 86 be e2 02 8c bd b8 7b d5 3d 30 3d 0e 3e
       -0.26266733 -0.06836487 0.10423988 0.13890529
0000f0 0e de d5 3d c7 15 50 be 97 27 98 bd ae 88 f4 3c
       0.10442744 -0.20320807 -0.07429426 0.02985033

bn1.running_var f4 [64]
000000 79 9f 7e 3e 3f 50 5c 3e a9 52 76 3e 2e 1e 81 3e
       0.24865521 0.21514986 0.2405497 0.25218338
000010 f9 64 86 3e 15 bd 72 3e 37 3f 67 3e b1 87 7e 3e
       0.2624891 0.23704942 0.22582708 0.2485645
000020 17 54 7f 3e 72 85 81 3e c2 db 86 3e 86 4c 83 3e
       0.24934421 0.25297123 0.26339537 0.2564432
000030 81 0f 86 3e c3 10 82 3e 78 c5 73 3e a3 21 78 3e
       0.26183704 0.25403413 0.23805797 0.24231581
000040 cf f5 86 3e d2 81 83 3e 2e 6a 89 3e 38 d6 6a 3e
       0.26359412 0.25684983 0.2683882 0.2293328
000050 ed 6b 73 3e cd 57 72 3e 87 4f 77 3e f8 d8 8a 3e
       0.23771639 0.23666306 0.24151431 0.2711866
000060 95 1e 79 3e 78 bb 80 3e e6 4b 6f 3e 04 24 84 3e
       0.24328072 0.25143027 0.23368797 0.25808728
000070 36 dc 84 3e 3a ef 6a 3e df fa 70 3e ce 58 84 3e
       0.25949258 0.2294282 0.235332 0.25849003
000080 9c 43 89 3e 4f ab 83 3e 24 a5 7b 3e f9 e7 8b 3e
       0.26809394 0.25716636 0.24574715 0.2732542
000090 d4 1d 82 3e 19 8f 66 3e 8a c2 78 3e 5f 5b 6f 3e
       0.25413382 0.22515525 0.24292961 0.23374699
0000a0 c5 bd 6f 3e dc 37 83 3e 00 30 75 3e 5e ad 8a 3e
       0.23412235 0.25628555 0.23944092 0.27085394
0000b0 22 f8 6b 3e b1 fe 89 3e 83 9f 67 3e 1e 64 7f 3e
       0.23043874 0.26952127 0.22619443 0.24940535
0000c0 26 f6 82 3e 14 18 7c 3e cf 69 73 3e b4 92 7e 3e
       0.2557842 0.2461856 0.23770832 0.2486065
0000d0 98 e6 6e 3e 62 3c 88 3e d2 63 7f 3e 64 5f 79 3e
       0.23330152 0.26608568 0.24940422 0.24352795
0000e0 e0 1a 82 3e 8d cd 7c 3e 90 42 69 3e ac 99 7f 3e
       0.2541113 0.24687786 0.22779298 0.24960965
0000f0 06 ea 84 3e 7a ae 75 3e 7a d9 6e 3e 76 b2 82 3e
       0.25959796 0.23992339 0.23325148 0.2552678

conv2.weight f4 [64, 64, 3, 3]
000000 f2 18 73 3c b9 39 37 bc 79 59 c2 3c 96 b1 21 3c
       0.01483749 -0.011183196 0.023724305 0.009869
000010 54 e1 b4 bc 64 12 93 bc f5 b3 eb 3b 5b a2 f7 ba
       -0.022080101 -0.017953105 0.0071930834 -0.001889299
000020 f5 3a 9b 3c ba cb 80 bc 5b ab e1 39 84 d7 b3 3c
       0.018949011 -0.015722144 0.00043043014 0.021953352
000030 0d 00 b8 bc b4 a9 63 bb 6d 00 bc bc e8 aa 10 bd
       -0.022460962 -0.0034738602 -0.022949422 -0.03531924
000040 fc 69 73 3c 8a ca 0f bd e6 9b a6 3b fb ff ae bc
       0.014856812 -0.035105266 0.0050845025 -0.021362295
000050 2b ab 73 3c 8e 81 4e 3c b4 c5 c7 bb 57 92 59 bc
       0.014872353 0.01260413 -0.006096566 -0.013279519
000060 e3 c4 74 bc 17 14 17 3d 70 48 04 3d f7 25 37 bc
       -0.01493952 0.036884394 0.032295644 -0.011178485
000070 26 3f 3c 3d f3 e0 f6 3c f7 07 91 bb fb 98 20 3d
       0.04595866 0.030136561 -0.0044259983 0.039208394
000080 38 8a f8 3c f3 6b c4 3c 2c 66 f6 3b 3d 6b 40 bb
       0.030339345 0.023977255 0.007519504 -0.0029360794
000090 cf 95 af bc e1 dd f4 bb ce b5 0a 3d 4b 9d eb bc
       -0.021433739 -0.007472739 0.03386479 -0.028761527
0000a0 31 7d 9e 3c 02 77 d2 bb f9 3c 65 bc 01 50 2a 3d
       0.019346805 -0.0064228782 -0.013991588 0.041580204
0000b0 a9 00 01 3c 29 21 6c bc 3e d4 78 bc 3a 89 d2 bb
       0.007873693 -0.014412203 -0.015187321 -0.00642505
0000c0 60 a0 ef 3c 3b 4a de bc 71 bd de bc e0 25 12 bd
       0.029251277 -0.027135005 -0.027189942 -0.03568065
0000d0 ea 29 95 ba 42 83 ee bc c9 67 f5 3c f4 c6 1d 3d
       -0.0011380289 -0.029115323 0.029956715 0.038519815
0000e0 8a 84 60 3c 6c 28 5d bc 6e 5b 09 bd f1 24 a4 bb
       0.013703475 -0.013498407 -0.03353446 -0.0050092866
0000f0 32 55 94 3c 50 67 b4 bc 70 9c 05 bd c6 ff 45 3c
       0.01810703 -0.02202192 -0.032619894 0.012084907
000100 2b 89 0f 3d 45 0f 18 bd 41 12 4a bc 90 c1 da 3b
       0.035042923 -0.037123937 -0.012333454 0.0066759065
000110 80 67 d9 bb fe a4 53 bc 2b 08 2e 3c 6d 00 8f 3c
       -0.0066346526 -0.012917755 0.010622065 0.017456258
000120 06 5d fb bc f9 cc bc bc 63 d3 ff 3c 61 be 87 bc
       -0.030684005 -0.023046957 0.031228727 -0.016570272
000130 23 c8 2b 3d 41 2e 41 bd 21 f5 80 bc ee 1a ff 3a
       0.041938912 -0.04716325 -0.015741887 0.0019462982
000140 96 d3 67 bc dd f9 a7 bc c4 40 1c bd 23 dd 8c bc
       -0.014149567 -0.020504886 -0.038147703 -0.01719529
000150 43 b8 b1 bc d7 f1 cb bc 5b 91 65 bc 09 62 09 3d
       -0.021694308 -0.024895592 -0.014011706 0.03354076
000160 11 56 fc bc bd bd 09 bc 03 67 38 bc c2 3b ff bc
       -0.030802758 -0.008407054 -0.011255029 -0.031156424
000170 42 7b e4 3c 6c 00 87 3c ac 0d 26 bd f4 e1 4e 3c
       0.027890805 0.016479693 -0.040540382 0.012627114
000180 e3 fa 22 3d 4b df 45 bc a6 73 d7 3c 9b 64 84 bc
       0.039790045 -0.012077163 0.026300263 -0.016161254
000190 b9 08 24 3c 31 d6 ec bb 89 c4 28 3c f1 5e e9 3c
       0.010011845 -0.007227682 0.010300764 0.028487654
0001a0 01 d7 89 bc 6c e0 f8 3c 14 7d 0d 3c 6c 8d 8f bb
       -0.016826155 0.03038045 0.008635778 -0.0043808725
0001b0 ab 3e 49 bb 04 4d 04 3c 27 ea 70 bb 30 ac 0d ba
       -0.003070752 0.008075003 -0.003676066 -0.0005404381
0001c0 d8 ff cb 3a f4 85 8a bb a8 dd 9d 3c 39 b6 10 bd
       0.0015563918 -0.0042273942 0.019270733 -0.03533003
0001d0 32 e0 0c bd 89 2e af bc 24 34 0b bd 67 b4 5d bc
       -0.034393497 -0.021384494 -0.033985272 -0.013531781
0001e0 7e 20 ea bb d6 54 d4 bc 32 c8 34 bd 01 f9 5d bc
       -0.0071449867 -0.02591936 -0.044136234 -0.013548137
0001f0 a1 05 b6 3c cb ef 10 3c 32 46 4c bd 97 18 f3 b9
       0.022219481 0.008846234 -0.04987163 -0.00046366893
000200 6e 26 67 bb 61 05 e9 bc 75 23 29 3d bc 4a 8a bc
       -0.0035270709 -0.028444948 0.04129358 -0.01688134
000210 e9 d8 81 bc f9 8d cf bc 3f df ce 3c 71 c9 3e 3c
       -0.015850501 -0.025336253 0.025252936 0.011644707
000220 e4 0e ae bc 65 e9 33 bc 5c e6 f5 39 cb 81 26 bd
       -0.021247335 -0.010980939 0.00046901673 -0.040651124
000230 12 ad 10 3c c3 64 c7 3b 74 f0 01 3d 8b 1d 81 3c
       0.008830326 0.00608501 0.031723455 0.015761157
000240 30 d4 01 3d cf f7 e4 3c b9 f3 80 3c e9 b8 ef bc
       0.0316965 0.027950196 0.015741216 -0.029262977
000250 15 1d 46 3c 5b 8b d1 bc c5 3c e8 3c 39 c8 5c bc
       0.012091895 -0.025579145 0.02834929 -0.013475471
000260 47 10 dc bc 0e 2a 9d bc 92 34 1f 3d a5 c1 36 3d
       -0.02686323 -0.019185092 0.038868494 0.044618268
000270 45 a9 64 bb d5 74 91 bb 6e 0b 29 bb 8f 09 0a bd
       -0.0034890932 -0.0044389763 -0.0025794166 -0.033700522
000280 7b a8 40 3b f0 dd a0 3c 07 49 88 bc 10 86 05 3d
       0.0029397297 0.019637078 -0.016636385 0.032598555
000290 c7 b4 0d 3d 97 9e a9 3c 01 83 3e bd 51 c7 37 3d
       0.03459623 0.020705504 -0.046511654 0.044867817
0002a0 a6 b3 1e 3d 4c b5 19 bd cc ac 1a 3d 02 8c 04 3d
       0.038745545 -0.037526414 0.03776245 0.032360084
0002b0 1f ae 30 3b d8 ee 07 3d 00 a7 32 3c 2a 58 25 bd
       0.0026959253 0.033186764 0.010904074 -0.040367283
0002c0 45 72 8a bc 32 3e 3b bb 30 4e e2 3c 91 ad be bc
       -0.016900191 -0.0028571007 0.027625173 -0.023276122
0002d0 ad e2 1e 3d 6a 6a a9 bb 12 d7 ab 3c cd 14 b4 bc
       0.038790394 -0.0051701562 0.020976577 -0.021982575
0002e0 8e 21 db 3c 44 5e 3e 3b 4f 94 f3 3c 7d ca 01 3c
       0.026749399 0.0029047886 0.029733805 0.007921812
0002f0 ae 24 27 3d a8 62 09 bc d6 9e 46 3b 02 ac 24 bc
       0.040806465 -0.008385338 0.0030307076 -0.0100507755
000300 f4 16 a1 bb 75 6a 54 bc 36 f1 a6 3c a4 1e 8f bc
       -0.0049160663 -0.012964834 0.02037869 -0.017470665
000310 65 3b 2d bd 78 0f f8 3a 50 05 1b bc ce ff 1e 3b
       -0.04229297 0.0018925508 -0.009461716 0.0024261358
000320 af 2c 20 3d 02 45 66 bb 57 f1 e8 3a 85 f6 48 bd
       0.039105114 -0.0035136347 0.001777212 -0.049063224
000330 3f 60 13 bb be a1 02 3d b3 5d b4 bc 9a 95 cd 3c
       -0.0022487787 0.03189253 -0.022017336 0.02509575
000340 ca c3 1c bc 43 82 1c bd f4 f0 80 3b fb 90 b8 bb
       -0.009568164 -0.038210165 0.003934974 -0.0056325174
000350 9f 07 09 3d 94 eb 05 bd 94 9a 9b bb ce f3 23 bb
       0.033454534 -0.032695368 -0.0047486518 -0.0025017145
000360 b4 8e bb 3c 8b d8 6f 3c 97 21 e9 3c 04 c8 1e b9
       0.022895195 0.01463903 0.0284584 -0.00015142566
000370 d0 4b 0b bd 6a af aa bc 67 00 e7 bc 2d 6a 3f 3c
       -0.034007847 -0.020835597 -0.028198434 0.011683029
000380 80 1e 06 bc f6 34 74 3c 34 91 01 3d 88 5e 90 3b
       -0.008185983 0.014905205 0.031632617 0.0044058003
000390 40 4e 05 bd 0a 35 f6 3c b7 d5 7b 3c 15 fd a4 bc
       -0.03254533 0.030054588 0.015370778 -0.02014021
0003a0 8e 51 cd 3c 64 ad b2 3c 28 d3 30 bc 8a 5c 21 bd
       0.025063302 0.021811195 -0.010792531 -0.039394893
0003b0 b1 56 5c bc c3 05 19 3d cf da 05 bd f3 19 3e 3c
       -0.013448403 0.03735901 -0.032679375 0.011602866
0003c0 e7 80 9b ba 6d 94 04 bc e0 ea a0 bc 5c 0b db 39
       -0.0011863977 -0.008092028 -0.019643247 0.00041779398
0003d0 b3 54 3c bc 99 21 d9 3c 74 cd 82 bc b3 31 3b 39
       -0.011494803 0.026505278 -0.015967108 0.00017852224
0003e0 67 fd f6 bb 37 bc 2f 3b e7 42 16 3d eb 1c 32 3c
       -0.007537532 0.0026815066 0.036684897 0.010871152
0003f0 5f 44 ca bc 38 ed ea 3c a8 93 38 bd d8 10 a8 3c
       -0.024690805 0.028677568 -0.04506269 0.020515844

conv2.bias f4 [64]
000000 dd 89 70 bc 89 62 01 3d 6f d8 dc 3c 72 be c1 38
       -0.014681307 0.03158811 0.026958672 9.23843e-05
000010 f6 a8 eb 3c 85 cb 34 3c 60 a2 21 3d fa fb 61 bc
       0.02876709 0.011034851 0.039461493 -0.013792986
000020 06 59 c4 bb 06 98 2e 3d 94 82 7a 3a d1 b1 05 3d
       -0.0059920577 0.04262545 0.0009556201 0.032640282
000030 49 5b 82 bb c0 02 82 bb 2e f4 85 3c 89 66 0d 3d
       -0.003978167 -0.003967613 0.016351786 0.034521613
000040 b7 3f 20 3c dd 1d 21 3d 5b 16 b0 bb 3d 6f 05 bd
       0.009780816 0.03933512 -0.0053737587 -0.03257679
000050 cd 5a ca bc b4 56 63 3c 27 d4 61 bb 9e 3a bc 3b
       -0.0247015 0.013875652 -0.0034458728 0.0057442924
000060 68 5e 18 3c ea 0c 29 3c 06 b2 13 bd d0 ee cf bc
       0.009299852 0.01031802 -0.03605845 -0.02538243
000070 0e 82 1c 3d b1 ff 20 3c 8a 94 12 3d 1a 5b 8e bc
       0.038209967 0.009826587 0.03578619 -0.017377425
000080 12 de 15 3b e9 35 54 3b ff 00 12 bd c0 3f 2a bd
       0.002286796 0.0032380766 -0.03564548 -0.041564703
000090 e9 cb be 3c 3a 06 af bc a1 8a 88 3b d2 9d 17 ba
       0.023290591 -0.021365274 0.0041669165 -0.000578371
0000a0 d7 cb 4a 3b 9f c8 05 3d df ea b8 3c 99 a4 1f bd
       0.0030944252 0.03266203 0.022572933 -0.038975332
0000b0 1e 90 fb 3a b4 2b fc bc 0c 5c 01 3d 68 ed 68 3b
       0.001919273 -0.030782558 0.031581923 0.0035541896
0000c0 8c f8 19 3d b7 58 98 3c 99 27 36 3b 49 f6 14 3c
       0.03759055 0.01859699 0.0027794598 0.009091922
0000d0 3a 94 9e bb da 3a 0b 3d c4 e6 b6 bc 6f d7 74 bc
       -0.0048394473 0.033991672 -0.022326834 -0.0149439415
0000e0 3e 9b 04 bd ac 9f cd b8 12 11 1b bc da 00 0b 3d
       -0.032374613 -9.804903e-05 -0.009464519 0.03393636
0000f0 de 8f b1 bc 8e f6 9d 3c b1 10 99 ba 2e 9e 87 bc
       -0.021675047 0.019282605 -0.0011677948 -0.016554918

bn2.weight f4 [64]
000000 02 3b 7e 3f 9a 27 7e 3f 12 c0 80 3f 96 da 80 3f
       0.9930879 0.9927918 1.0058615 1.0066707
000010 47 67 80 3f 22 84 7f 3f 0b bb 7e 3f 7d a8 7f 3f
       1.0031518 0.99810994 0.99504155 0.9986647
000020 d2 41 7f 3f bd 4e 80 3f 4f 38 7f 3f 16 34 7f 3f
       0.9970981 1.0024029 0.99695295 0.9968885
000030 c0 25 7f 3f 0a 25 81 3f 21 f3 7d 3f ef cb 80 3f
       0.99666977 1.0089428 0.9919911 1.0062236
000040 c8 a7 7f 3f dc f8 7d 3f 24 94 7e 3f e3 50 7e 3f
       0.9986539 0.99207854 0.99444795 0.99342173
000050 f9 c3 80 3f a4 03 81 3f 7e 1c 7d 3f d3 1d 80 3f
       1.0059806 1.0079236 0.988716 1.0009102
000060 82 bb 80 3f 28 60 7e 3f fd b2 80 3f fc a2 7e 3f
       1.0057223 0.9936547 1.0054623 0.99467444
000070 ca ac 80 3f 57 9f 80 3f e5 14 80 3f 38 6d 81 3f
       1.0052731 1.0048627 1.0006377 1.0111456
000080 b0 6b 7d 3f 85 60 7d 3f fa 17 80 3f 6f f6 7d 3f
       0.98992443 0.989754 1.0007317 0.9920415
000090 df a4 7f 3f 10 57 7e 3f 0c b7 80 3f a2 eb 7d 3f
       0.9986095 0.99351597 1.0055861 0.9918767
0000a0 a8 ce 7e 3f 48 eb 7f 3f 8e 30 81 3f a6 37 7f 3f
       0.9953408 0.99968386 1.0092943 0.9969429
0000b0 96 5f 7e 3f 2a f7 7f 3f ef e8 80 3f 74 a3 7f 3f
       0.993646 0.9998652 1.0071086 0.99858785
0000c0 00 0b 80 3f f0 98 7e 3f 6c df 80 3f ad 6d 80 3f
       1.0003357 0.99452114 1.0068183 1.003347
0000d0 e3 0c 7f 3f db c3 7e 3f b1 fc 7e 3f 7f 06 80 3f
       0.9962904 0.995176 0.99604326 1.0001982
0000e0 6c 10 7f 3f a8 97 7e 3f 18 2f 81 3f 88 d5 7d 3f
       0.9963443 0.9945016 1.0092497 0.9915395
0000f0 bc 7b 80 3f ef ac 80 3f 61 1f 81 3f 80 21 80 3f
       1.0037761 1.0052775 1.0087701 1.0010223

bn2.bias f4 [64]
000000 5e 39 c4 bb 56 38 c0 bb 93 41 92 3b 26 4d 3a bb
       -0.005988284 -0.0058660908 0.0044633835 -0.0028427332
000010 61 8d b5 3b 0e 9a 75 bb f4 f8 d4 bb dd 4a 94 bb
       0.0055405353 -0.0037475857 -0.006499404 -0.004525526
000020 58 49 e0 b9 79 ab 84 3b 98 f3 69 bb 4a bc 50 ba
       -0.00042779255 0.0040487614 -0.0035698172 -0.00079626276
000030 68 97 2b bb 02 bf 0c 3c 47 7c 60 bb f6 ed c9 3b
       -0.0026182774 0.008590462 -0.0034253763 0.0061624004
000040 62 03 2a 3b 59 37 d4 bb 29 75 d7 ba b3 d7 c6 bb
       0.0025941958 -0.0064763245 -0.0016438115 -0.006068194
000050 16 ba c0 3a 33 78 00 3c 45 63 94 bb 82 ed e9 3a
       0.0014703895 0.007841158 -0.0045284354 0.0017847272
000060 cf e7 cb 3b 61 40 98 3b d6 d3 7a 3b 15 f3 a4 bb
       0.006222702 0.0046463464 0.0038273237 -0.0050338604
000070 49 95 94 3b 02 08 99 3b 62 1e 2d 3c e4 9d c9 3b
       0.0045343977 0.004670144 0.010566326 0.006152855
000080 f1 b2 07 bc 96 40 d8 bb e9 9a be ba ec e1 c1 bb
       -0.008282409 -0.006599496 -0.0014542016 -0.0059168246
000090 9e 42 32 3b 13 a8 71 b9 e2 63 bb 3b 4b 69 8a bb
       0.0027200351 -0.00023046164 0.005718694 -0.0042239777
0000a0 a6 4b 16 3a 33 84 04 3a 3b 16 95 3b e1 fa 0c 3b
       0.00057333184 0.00050550996 0.004549769 0.002151184
0000b0 92 e6 ee bb 09 e7 d2 3b c2 a2 d4 3b ef 8f 25 bb
       -0.0072906697 0.006436233 0.006489129 -0.0025262793
0000c0 58 74 7d bb 2d a1 dc bb 0c d9 be 3b 67 ae 4f 3b
       -0.0038674083 -0.006733081 0.005824214 0.0031689645
0000d0 66 5e 6d 3b d4 ed 81 bb 72 13 1e bb 12 3f 09 3c
       0.0036219596 -0.003965119 -0.0024120477 0.008376854
0000e0 3c 65 2c bb 71 61 cc bb d8 7c 02 3c ee ca 9a bb
       -0.0026305458 -0.006237202 0.007964335 -0.004723898
0000f0 0a ac a1 bb a0 dc 92 3b 3c a6 02 3c fb 95 66 bb
       -0.0049338387 0.004481867 0.007974204 -0.003518461

bn2.running_mean f4 [64]
000000 8e a9 3b 3e 5d 09 da bd de 24 a8 bd b6 b3 59 3e
       0.18326399 -0.10646317 -0.08210157 0.2125996
000010 47 9e 2b 3e 4d ad 39 bd 3d f1 3f 3c 30 4a e4 3d
       0.16759597 -0.045331288 0.0117152305 0.11146963
000020 50 a3 4c be b1 3e 58 3b b4 b4 23 bd 7a fb 67 3d
       -0.19984174 0.0032996351 -0.039967254 0.05663631
000030 a6 05 88 be 6b 98 2f 3e c6 6e af bd b7 81 76 3e
       -0.2656681 0.17147987 -0.0856605 0.2407292
000040 49 09 43 be db e7 db 3c 38 20 15 bd 32 06 ee bb
       -0.19046511 0.026843956 -0.03640768 -0.007263922
000050 55 74 9c 3e 4c d2 95 be 94 d1 e9 bd e8 64 b2 3e
       0.30557504 -0.29262006 -0.11416927 0.3484261
000060 64 fe 0c 3e 43 d5 3e 3d 30 66 22 3e 38 1d 5e bd
       0.13768917 0.0465901 0.15859294 -0.054227084
000070 74 a2 a3 3e 4c 6f 91 be 56 f2 00 3e 50 09 cb bd
       0.3195988 -0.28405225 0.12592444 -0.099138856
000080 de 2e 23 bd d8 57 97 bd 6f af df bd a4 25 72 bd
       -0.039839618 -0.07389802 -0.10922133 -0.05911793
000090 eb 0d f6 be 91 44 47 bd e4 0a dc 3e b2 60 9c be
       -0.48057494 -0.048649374 0.4297706 -0.30542523
0000a0 7a 75 c3 be f3 14 a2 be df 66 93 3e b8 70 ff 3d
       -0.38175565 -0.31656608 0.28789422 0.12472671
0000b0 44 1d d8 be 56 5b 80 bd 0e 98 28 3e 71 92 19 3e
       -0.42209828 -0.06267421 0.16464254 0.14997269
0000c0 28 63 74 3e 68 62 77 be 81 9b 51 3e ae 44 c9 bb
       0.2386595 -0.24158633 0.20469476 -0.0061422205
0000d0 c5 4a cc be 5e 0c 82 be ba d4 1c 3d 16 cc 58 bc
       -0.39900795 -0.2540006 0.03828881 -0.013232252
0000e0 94 a3 20 3e 04 5b 2b bd 71 55 47 3e 3b 2c 0f 3c
       0.156874 -0.041834846 0.19466187 0.008738573
0000f0 22 7b 5e 3e 67 af dd 3c 65 d0 88 3e cd b2 82 be
       0.21726659 0.027061177 0.26721492 -0.2552704

bn2.running_var f4 [64]
000000 e7 0e cf 3e 0a e4 ae 3e c0 59 b0 3e e0 d0 b2 3e
       0.40441057 0.34158355 0.34443474 0.34924984
000010 37 94 b5 3e a2 4f 9c 3e 1c e2 a6 3e 77 55 a7 3e
       0.3546464 0.30529505 0.32594383 0.32682392
000020 87 1a bc 3e 08 db b8 3e a5 46 a8 3e 1d 2a 90 3e
       0.3673899 0.36104608 0.32866398 0.2815713
000030 f1 24 be 3e fd 0c b5 3e 59 7f b7 3e 1b 55 ab 3e
       0.3713756 0.35361472 0.35839346 0.33463368
000040 16 e7 d9 3e 29 61 b6 3e fe 7b 9d 3e f6 a4 af 3e
       0.42559117 0.35621002 0.3075866 0.34305543
000050 cb fc ed 3e 63 90 d9 3e 6f 1e b4 3e 41 0c fa 3e
       0.46481928 0.4249297 0.3517947 0.48837474
000060 d7 16 9a 3e 05 82 aa 3e 9d e4 c6 3e 15 9b b8 3e
       0.3009555 0.33302322 0.38846293 0.36055818
000070 a6 79 d7 3e 29 39 e7 3e eb 25 a2 3e af f0 9c 3e
       0.42084998 0.45160797 0.31669554 0.30652377
000080 78 e1 c2 3e e1 d6 9d 3e 1b b0 b1 3e 7b 32 a0 3e
       0.38062644 0.30828002 0.3470467 0.31288514
000090 e8 67 1f 3f f1 c4 a8 3e 15 76 fd 3e f8 d5 d9 3e
       0.62267923 0.32962754 0.49504152 0.42546058
0000a0 02 a6 f3 3e b4 fc e7 3e 1a 06 e1 3e 47 d1 d3 3e
       0.4758759 0.45309985 0.43949968 0.41370603
0000b0 fc 05 fe 3e 14 ed ad 3e 5d c7 af 3e 0b 9a b5 3e
       0.4961394 0.3396994 0.3433179 0.35469088
0000c0 3e dd c3 3e 40 b1 cd 3e 96 fc c5 3e 35 11 ba 3e
       0.38254732 0.40174294 0.3866927 0.36341253
0000d0 05 c6 02 3f a7 4b c9 3e bb 0a a5 3e a3 30 ad 3e
       0.51083404 0.3931553 0.3223475 0.3382617
0000e0 47 86 b7 3e 74 ed 99 3e 44 78 c2 3e ef dc ba 3e
       0.35844633 0.30063975 0.3798238 0.36496684
0000f0 15 59 ba 3e 68 38 9e 3e e7 aa d0 3e 12 04 d4 3e
       0.3639609 0.3090241 0.40755388 0.41409355

conv3.weight f4 [64, 64, 3, 3]
000000 af 6b 1e 3d 02 75 15 bc b5 4b e7 3b bb c2 4c 3b
       0.038676914 -0.009122135 0.0070585855 0.0031243998
000010 0a 92 cb 3c 20 53 d3 bb e7 2f d2 3c 4c 5c 52 3c
       0.02484991 -0.0064491183 0.025657607 0.012839388
000020 03 4f e8 3c 06 1a d7 bc 25 55 00 bc 32 9a e3 3c
       0.028357988 -0.026257526 -0.0078328 0.027783487
000030 47 50 99 3c 5e b2 fc bc 22 76 bc 3c 1a 9f ea 3c
       0.018715037 -0.03084677 0.023005549 0.028640319
000040 76 4f 20 3d 98 80 44 bc d9 33 79 3c 56 eb 2e bb
       0.03913828 -0.01199355 0.015210115 -0.0026690564
000050 62 e4 09 bd f2 10 91 bb 40 fc 44 bb 60 6f 00 3b
       -0.03366507 -0.004427069 -0.003005758 0.0019597635
000060 80 ba ea bb 71 95 ad 3c 8a bf 36 bc bf b6 33 3d
       -0.007163346 0.021189423 -0.011154065 0.043875452
000070 2c 00 58 bc fc 48 e1 bb 2d c6 3c 3c c4 8a ea bb
       -0.013183635 -0.0068751555 0.011521858 -0.0071576554
000080 7a 07 37 3d 15 b4 36 3c d1 c4 94 3b d3 62 7d 3c
       0.044684865 0.011151333 0.004540064 0.015465456
000090 31 d6 12 3d 31 31 c3 bc fb 06 17 bd 35 02 0a bc
       0.0358488 -0.023827167 -0.03687189 -0.008423378
0000a0 82 f6 8e bb b6 ca b1 3c fe 36 87 bc f7 ff 1c 3c
       -0.004362882 0.021703105 -0.016505715 0.009582511
0000b0 05 4f 0e bc a8 a1 04 bd be 72 93 3c 12 22 ce bc
       -0.008685832 -0.03238073 0.01799905 -0.02516273
0000c0 8c ee 87 3b 01 6a 20 3d 77 de 26 bc ac 88 f3 3b
       0.00414831 0.039163593 -0.010184876 0.007432064
0000d0 6e 9b b0 bc ea 68 11 bd 02 11 2d bc c9 7b a6 3b
       -0.02155849 -0.035500444 -0.010563137 0.0050806743
0000e0 ec fb a8 ba 01 cd 18 3d f6 5f e5 bc 7e ab 3d bc
       -0.0012892461 0.037304882 -0.02799986 -0.011576531
0000f0 bb ff 33 3d dc 61 22 3d 11 1b c4 3c 3f 44 1e 3d
       0.043945055 0.039644107 0.023938688 0.038639303
000100 ac c0 e8 bc 04 0b eb 3c 49 95 14 3d d7 c0 cd 3b
       -0.028412186 0.028691776 0.036275182 0.006279092
000110 5b 64 ed 3c 42 57 d1 3b 1c c9 c3 bc c8 1f 32 3c
       0.028978517 0.006388576 -0.023899607 0.010871835
000120 ea 92 f3 bc 19 2e de 3c 0c 6e cd 3c 56 ab 07 3d
       -0.02973314 0.02712159 0.025076889 0.033122383
000130 4a c7 51 3a 2b f5 73 bc fc e9 0d bd 96 27 b8 ba
       0.00080024137 -0.014889996 -0.034646973 -0.0014049883
000140 c6 c7 86 3c 85 40 2d bc fc 8c 8c 3c 0b ed f5 bc
       0.016452681 -0.010574465 0.01715707 -0.030020257
000150 f7 d1 5c 3c 2a ea 1c bd d9 de b8 3b 37 55 0c bd
       0.013477794 -0.038309254 0.0056418 -0.034260955
000160 02 95 67 bc 68 b6 fa 3c 4f c5 d0 3c 44 89 0d bd
       -0.014134647 0.030604556 0.02548471 -0.034554735
000170 d6 d0 95 bc 89 83 0b bd 23 3e b9 bc 32 27 aa bc
       -0.018288057 -0.03406099 -0.022612637 -0.020770643
000180 7e 02 ef bc 6c 51 d3 3b f5 82 9c bc 55 04 05 bd
       -0.029175993 0.006448915 -0.019105414 -0.032474834
000190 06 5f d8 bc 26 4d 47 3c fb c1 07 3c a7 93 ec 3c
       -0.026412498 0.01216439 0.008285995 0.028879
0001a0 3d 4c 7d 3b 3c bb 91 3c 2d de 16 3b 94 4b ca bc
       0.0038650178 0.017789476 0.002302061 -0.024694242
0001b0 9e 18 b0 bb 4e 19 26 bd 4a 53 3d bd 10 86 cb bb
       -0.0053740283 -0.040551476 -0.04622201 -0.00621105
0001c0 4f 93 3b bc 9b 46 19 bd 93 ac 0b 3d 3f f1 9e bc
       -0.011448695 -0.03742085 0.034100126 -0.019402144
0001d0 97 79 0e 3d 4a 06 83 bb cb 4a 84 3c bf 85 78 3c
       0.034783926 -0.0039985524 0.016148945 0.015168606
0001e0 6a 13 1e 3d e7 1e e3 3c 49 24 96 bc 4c 28 b8 3c
       0.038592733 0.027724696 -0.018327849 0.022480153
0001f0 de 21 15 3b 1f 39 5a bc 0b d7 0f bd 88 49 a6 3c
       0.0022755782 -0.013319283 -0.03511719 0.020298734
000200 97 96 8f ba 45 95 3f 3d d0 a0 92 bc da 16 e8 bc
       -0.0010954913 0.046773214 -0.017898947 -0.028331209
000210 a0 23 cf 39 ce d3 ae bc 5e d6 84 bc 56 b3 00 bd
       0.0003950866 -0.02134123 -0.0162155 -0.031421028
000220 20 ca e8 3b 14 ce f8 3c 12 98 0e 3d 1f 61 0e 3d
       0.0071041733 0.030371703 0.034812994 0.03476059
000230 cc 9b ad bc e2 a6 14 bd 7e 3b 7c 3c d4 3d cb 3b
       -0.021192454 -0.036291964 0.015395043 0.006202439
000240 59 86 d7 bc ab de 0f 3d af 30 06 3d 93 1a 16 bd
       -0.02630918 0.035124462 0.032761272 -0.036646437
000250 c7 26 2d bc 8a 8d e6 39 fa eb 2b 3d 1f 2b f5 3c
       -0.010568327 0.00043974473 0.04197309 0.029927788
000260 ce cb 31 bd 08 62 f0 3c 96 ae ee 3c be 40 0f bd
       -0.043407254 0.02934362 0.029135983 -0.034973852
000270 4f 12 ca bc 36 62 d7 3c 9e e4 29 3c 2a 3e f6 3b
       -0.024666933 0.026291948 0.010369448 0.0075147348
000280 e3 e4 7f bc a7 67 27 bc c5 5b 12 3d e4 b3 67 3c
       -0.015618536 -0.010217584 0.03573205 0.01414201
000290 26 98 ca 3b e2 a3 f3 bc 0d 96 c5 bc a3 96 7a 3a
       0.0061826883 -0.029741231 -0.024119401 0.000955919
0002a0 b9 6a 8a bc 02 38 95 bc 3f 44 08 3d ab 1a 04 3c
       -0.016896592 -0.018215183 0.03326821 0.008062999
0002b0 4d 80 a2 bc 94 77 f7 bc 65 32 de 3c 84 66 61 39
       -0.01983657 -0.030208386 0.02712364 0.00021495862
0002c0 4d cf 08 3d 19 ab bb 3b 1f ce 25 bb 59 5a 1d bd
       0.033400822 0.0057271835 -0.002529986 -0.03841624
0002d0 45 f9 3a bc 22 ca 10 bd 3a 77 10 3d 48 46 fa bc
       -0.01141197 -0.03534902 0.035269953 -0.03055109
0002e0 89 b2 ab bc 51 74 1c 3d 47 6d 85 bc 47 58 9c bc
       -0.020959156 0.038196865 -0.016287459 -0.019085063
0002f0 6c 60 55 bc d2 69 af 3c 72 96 24 3d a6 c3 d4 bc
       -0.013023477 0.021412764 0.04018254 -0.025972199
000300 0b 7f 33 3d ea 2f 35 bc 2d 87 a6 bb f8 65 81 bc
       0.04382233 -0.011058787 -0.005082032 -0.015795693
000310 a4 00 e1 ba 51 78 1d bd 4f a3 1b 3d ce 04 5f bc
       -0.0017166329 -0.03844482 0.03799754 -0.013611985
000320 ea a8 be bb 14 7e f4 bb e8 b1 e1 3a 02 63 21 3d
       -0.005818476 -0.0074613187 0.0017219158 0.03940106
000330 43 d4 eb 3c 52 48 bb bc fd 46 dc bb 04 14 a2 3c
       0.028787738 -0.022861633 -0.0067223297 0.019784935
000340 94 a1 00 bc cd 18 1c 3d 1f 07 f6 bc 79 6c 31 3d
       -0.007851023 0.03810959 -0.030032692 0.04331634
000350 76 2c 0f 3c 48 b8 83 bc 95 49 fd bc 46 95 cc bc
       0.008738628 -0.016079083 -0.030918876 -0.024973523
000360 da 56 09 3d aa 35 d8 3c 2e 41 7b bb 22 15 00 3d
       0.033530094 0.026392777 -0.003833841 0.031270154
000370 a6 82 4f bc 28 1e 0c bd c1 1a 12 bd e2 1b 58 3a
       -0.012665426 -0.034208447 -0.035670046 0.0008243901
000380 1b 01 c9 bb a8 04 2c 3c 38 96 93 3c 44 96 b8 3c
       -0.006134165 0.010499157 0.018015966 0.02253259
000390 2d c1 c5 bc bb ef 4e bb f4 3c 84 3c d6 ca a0 3c
       -0.024139965 -0.0031575996 0.016142346 0.01962797
0003a0 47 6c c3 3b 16 1d c9 bb 29 c3 d0 3c bb 32 3f 3b
       0.0059638354 -0.0061375005 0.025483685 0.0029174525
0003b0 11 c9 8e 3b 62 0f 45 3c 60 f3 1e bd 64 51 bb 3b
       0.004357465 0.012027593 -0.03880632 0.0057164896
0003c0 29 0f a1 3c 3e 83 09 bd 55 6a b2 bc 64 d7 81 3c
       0.01966055 -0.033572428 -0.021779219 0.015849777
0003d0 fa 35 1f 3c bd fa 18 3d f0 ee fa 3b 2b a0 f5 3b
       0.009717459 0.037348498 0.007657878 0.0074959
0003e0 ac e9 ab 3c 98 cf c5 bc 50 32 5f bc 57 47 ca bb
       0.020985447 -0.02414684 -0.013622835 -0.006173055
0003f0 04 65 49 3c 2f 62 1a bd 5b c7 b5 3c 6b f3 0b bd
       0.01229215 -0.03769129 0.022189787 -0.03416769

conv3.bias f4 [64]
000000 d5 61 02 bd de 85 e7 3c cf 45 07 3d ed 93 73 bc
       -0.03183158 0.028262075 0.03302556 -0.014866811
000010 57 6a c5 3c 0c 8c f8 3b dd 15 dd 3b 2a b6 fa 3b
       0.024098558 0.0075850543 0.006746991 0.00765111
000020 89 d9 cc 3b 3d 63 ec bc 03 d2 c1 bb fe 1d 15 3d
       0.006251518 -0.028855914 -0.005914928 0.036405556
000030 5d d4 7a 3c 92 a7 88 ba 76 c3 fa bc 57 cb 8a bc
       0.01530942 -0.0010425916 -0.030610781 -0.016942663
000040 c6 71 f8 3c b9 76 66 bc f7 1f 1c 3d 90 11 c0 3c
       0.030327689 -0.014066392 0.03811642 0.023445874
000050 0d d8 fe 3c 14 20 c6 3b 76 69 0f 3c 96 64 b7 bc
       0.03110888 0.0060463045 0.008753171 -0.02238683
000060 57 8e e0 3c 66 3d f7 bb 34 be e1 bc 78 43 ec 3c
       0.027411623 -0.007545161 -0.027556516 0.028840765
000070 b9 eb 2b 3d 20 30 31 3b 1e 65 3b 3b 89 a4 e0 3c
       0.04197285 0.0027036741 0.0028594206 0.027422206
000080 af 00 e7 bb f2 fc 6c bc 22 38 1b 39 87 74 8c bc
       -0.007049642 -0.014464604 0.00014802863 -0.017145408
000090 64 4c df 3c 29 04 22 bd 8a 7e 00 3b 2a 9a 0b 3d
       0.027258106 -0.03955475 0.0019606673 0.03408257
0000a0 03 4c 36 bc b4 21 fe bc cf ec 9d 3c b0 ef 17 bd
       -0.011126521 -0.03102193 0.019277958 -0.03709382
0000b0 21 58 22 3d d8 f4 11 3d ce 03 15 3d f5 01 9f 3c
       0.039634828 0.03563389 0.03638058 0.019410113
0000c0 f9 f7 de bc 44 56 11 bc 74 9c 82 bc 1c 2a 0c bd
       -0.027217852 -0.008870665 -0.015943743 -0.034219846
0000d0 98 50 b8 bc 8d 76 d2 3c 3f 9b 72 bc fb 1b ba bc
       -0.022499368 0.025691295 -0.014807521 -0.02271842
0000e0 6e 7a 1b 3d 86 ba 23 bc e8 82 24 3d 3e 65 c4 bc
       0.037958555 -0.009993201 0.040163904 -0.023974057
0000f0 42 f6 23 bd 6f 67 67 bb c5 ae b0 bc 46 1e 83 39
       -0.04002977 -0.0035309454 -0.021567712 0.00025008823

bn3.weight f4 [64]
000000 81 b9 7f 3f dd df 80 3f 42 ad 80 3f 3c 00 81 3f
       0.9989243 1.0068318 1.0052874 1.0078197
000010 13 d7 7e 3f e7 62 7e 3f d8 6d 80 3f 8a 34 80 3f
       0.9954693 0.99369663 1.0033522 1.0016034
000020 89 36 7f 3f 7e 68 80 3f 1c ca 80 3f d3 0e 80 3f
       0.9969259 1.0031888 1.0061679 1.0004524
000030 b5 c9 7f 3f a6 42 7e 3f a9 fa 7d 3f a6 c9 7e 3f
       0.99917156 0.9932045 0.992106 0.9952644
000040 b5 36 80 3f 92 70 7e 3f 72 c4 7e 3f fb 66 7f 3f
       1.0016695 0.9939052 0.995185 0.9976651
000050 d8 32 81 3f 6e cf 7e 3f 1f de 7e 3f 57 20 80 3f
       1.0093641 0.9953526 0.9955768 1.0009869
000060 a6 e1 80 3f 86 d3 7f 3f 43 2c 80 3f 56 55 80 3f
       1.0068862 0.99932134 1.0013508 1.0026042
000070 93 6e 7f 3f d9 02 81 3f bb bc 80 3f bf 74 7e 3f
       0.997781 1.0078994 1.0057596 0.9939689
000080 d2 63 7e 3f c5 a1 7f 3f b8 c1 80 3f 15 7a 7f 3f
       0.99371064 0.99856216 1.0059118 0.9979566
000090 c7 f5 7d 3f 65 92 7e 3f 34 d9 80 3f 89 cc 80 3f
       0.9920315 0.9944213 1.0066285 1.0062419
0000a0 79 9d 7f 3f 87 a3 80 3f a5 d1 7e 3f ca 84 7e 3f
       0.9984966 1.0049905 0.9953864 0.9942137
0000b0 59 21 80 3f 39 39 80 3f 69 18 7f 3f a4 b5 7e 3f
       1.0010177 1.0017463 0.9964662 0.9949591
0000c0 7a 93 7f 3f 97 f0 80 3f 83 96 7f 3f a2 f5 7e 3f
       0.99834406 1.0073422 0.9983904 0.99593556
0000d0 fc c1 80 3f 2e f6 7e 3f ed 74 7f 3f 6a 7c 7e 3f
       1.0059199 0.9959439 0.9978779 0.9940859
0000e0 57 62 80 3f 7f 21 80 3f 76 ef 80 3f 50 8f 80 3f
       1.0030011 1.0010222 1.0073078 1.0043736
0000f0 65 36 80 3f 53 79 80 3f 8f bc 80 3f 8b 09 7f 3f
       1.00166 1.0037025 1.0057544 0.99623936

bn3.bias f4 [64]
000000 53 c4 14 bb be 96 a4 3b bf 54 a5 3b ca 84 62 3b
       -0.0022700026 0.0050228527 0.005045503 0.0034564012
000010 5f 03 67 3b 5d fe 04 3b 92 d7 23 3a 54 9b c3 3b
       0.0035249812 0.0020293214 0.0006250079 0.0059694443
000020 ee d8 4b bb 08 fe ba 3b 4e f8 f8 3b c2 57 ad bb
       -0.0031104642 0.0057065524 0.0075979596 -0.0052900026
000030 4a ef 12 3c 15 8a 07 bc 40 48 ea bb 7a cb ce 39
       0.008968184 -0.008272667 -0.007149726 0.00039442984
000040 9e 78 95 3b 7e d0 b0 b9 e9 0b 12 bc c9 cb ce ba
       0.004561498 -0.00033724675 -0.008913972 -0.0015777285
000050 7b eb 95 b9 02 6a 11 bb e9 96 0d bc e6 9b 8f 3b
       -0.0002859494 -0.002218843 -0.008641937 0.004382598
000060 e1 59 d1 3b bd 4c 9b bb f8 cf cf ba b3 de 1d bc
       0.006388888 -0.0047393725 -0.0015854826 -0.009635615
000070 f3 10 65 ba f0 4c fe 3b 15 53 a1 bb c0 bd 8f 3b
       -0.00087381824 0.0077606365 -0.004923234 0.0043866336
000080 b3 ba 63 bb ae 7e 4f bb 82 e1 c6 3b e9 56 1d 3c
       -0.0034748733 -0.00316612 0.006069363 0.0096032405
000090 55 d2 b1 bb 49 a5 a1 3a de 1f 06 3c 9d e6 fe 3b
       -0.005426685 0.0012332584 0.008186309 0.007778956
0000a0 8a 99 9f 39 ac 45 5d bb 1a d6 ab b9 03 6e a6 bb
       0.0003044124 -0.0033763452 -0.0003277518 -0.0050790324
0000b0 a2 ef b9 3a 19 42 3b 3b 57 c9 48 bb ed 55 38 3b
       0.0014185796 0.0028573333 -0.0030637586 0.0028127388
0000c0 69 d3 ce bb 2a f7 5f 3b 39 8a a7 3a 58 49 c4 ba
       -0.006311823 0.003417442 0.0012782282 -0.0014975471
0000d0 17 a7 e2 3b 9a 2f 50 3b fb ff 80 3b 8d 90 8b bb
       0.0069168913 0.0031766654 0.0039367652 -0.004259175
0000e0 f0 80 b0 3a 28 31 90 3b cf 9f d3 39 53 07 71 bb
       0.0013466161 0.004400391 0.00040364123 -0.0036778047
0000f0 4a 6c 94 3b d2 4e cd 3b f3 64 f1 3b e1 c7 65 bb
       0.0045295106 0.0062654996 0.0073667704 -0.0035061764

bn3.running_mean f4 [64]
000000 42 24 3e be a7 27 13 be 42 c0 cd 3d 87 24 05 3f
       -0.18568519 -0.14370595 0.10046436 0.5200886
000010 3e a6 fb bd 45 ac 96 3e 6b 3d e5 3e f7 c8 58 bd
       -0.122875676 0.29428306 0.4477342 -0.05292603
000020 34 50 41 be c5 47 a9 be 8c 74 99 3e 8e 76 3c 3e
       -0.18878251 -0.33062568 0.2997173 0.184046
000030 0a be 29 be c0 de 63 bd 93 61 9c bc 92 c0 53 bd
       -0.165764 -0.055632353 -0.019089496 -0.05169732
000040 b6 4c 93 be 87 c9 be 3c f0 8b 9f 3e c6 3f 9e 3d
       -0.28769463 0.023289455 0.3116145 0.077270076
000050 aa 31 ae 3e 21 5b 34 be f8 50 9d bc 2f fe d3 bd
       0.34022266 -0.17612888 -0.019203648 -0.10351216
000060 2b b9 44 3e ea 65 47 be 54 26 8f bd f0 de b0 3d
       0.19211261 -0.19472471 -0.069897324 0.08636272
000070 37 d9 0f be 3d 2d 8a be e9 8a 83 3e 46 14 ba be
       -0.14047705 -0.2698764 0.25691918 -0.36343592
000080 04 52 4b be 7b 33 8c 3d 65 9e 85 3e 7a 50 9f bd
       -0.19855505 0.068457566 0.26097408 -0.077790216
000090 51 1b 8d be ee 2f 15 bf 64 09 ed 3e c1 ef d0 bd
       -0.27559903 -0.5827626 0.46296227 -0.102019794
0000a0 02 52 21 be 4b 99 47 3e 18 9b 4c 3d 16 ca 0d be
       -0.1575394 0.1949207 0.049952596 -0.13846621
0000b0 f2 33 95 be e6 7f a9 bd ec f2 13 3e c0 2b 94 be
       -0.29141194 -0.08276348 0.14448136 -0.2893963
0000c0 b9 56 16 3e df 66 98 3e 02 2a 21 bd 87 64 8d be
       0.1468152 0.29765984 -0.039346702 -0.2761576
0000d0 0e df 3c be 7a 00 5e 3e b0 c1 02 3e 06 d7 a1 be
       -0.18444464 0.2167987 0.12769198 -0.31609362
0000e0 64 30 37 3d 1f c1 41 3e 58 4c a3 3e 62 ef 9c 3e
       0.044723883 0.18921326 0.31894183 0.30651385
0000f0 39 45 bf 3d 79 6f c8 3e 9f ec 7f be b5 0e b4 3d
       0.09339375 0.39147547 -0.24992608 0.08791868

bn3.running_var f4 [64]
000000 63 a8 97 3e 2d 4c d7 3e 57 63 a6 3e 3a b9 e1 3e
       0.29620656 0.42050305 0.32497665 0.4408663
000010 95 ae 02 3f e7 cb b1 3e 8f 48 d3 3e 53 93 b4 3e
       0.5104764 0.34725878 0.41266295 0.3526865
000020 be c2 f7 3e 95 f9 98 3e fd 76 b2 3e d6 dd a0 3e
       0.48390764 0.29877916 0.34856406 0.31419247
000030 4c 96 ca 3e d3 7c 93 3e 1f a5 99 3e c7 ef 9c 3e
       0.39567792 0.2880617 0.3000879 0.30651686
000040 62 e7 f6 3e 51 f6 03 3f 92 4c cd 3e dd b0 8d 3e
       0.48223406 0.51547724 0.4009748 0.27673998
000050 a3 ed 02 3f dd 21 ea 3e a9 c0 9f 3e a9 e4 a6 3e
       0.51143855 0.4572896 0.31201676 0.3259633
000060 6b 71 ee 3e af 69 9c 3e 19 c0 d9 3e 29 22 91 3e
       0.46570906 0.3054938 0.4252937 0.28346375
000070 08 61 be 3e e1 1c 01 3f 22 69 03 3f f2 ba d9 3e
       0.37183404 0.5043469 0.51332295 0.4252544
000080 2a 79 a4 3e dc 1d cb 3e 6d 54 e3 3e ed a5 f2 3e
       0.3212369 0.39671218 0.4440035 0.47392216
000090 63 69 dd 3e fe 3f 0b 3f 99 67 18 3f de 9a ea 3e
       0.43244466 0.5439452 0.5953308 0.4582128
0000a0 ba f8 e2 3e c1 dc bb 3e 10 d4 92 3e f4 bb ab 3e
       0.44330388 0.3669186 0.28677416 0.33541834
0000b0 a2 c0 b9 3e 05 04 c1 3e 8a 74 09 3f 5b a2 cb 3e
       0.3627978 0.3769838 0.5369345 0.39772305
0000c0 61 5b b5 3e 51 ce d2 3e 43 10 b6 3e 6d bd 18 3f
       0.3542128 0.41173032 0.35559282 0.5966404
0000d0 c6 f9 a6 3e b5 32 94 3e c7 a8 a4 3e c2 dc 10 3f
       0.32612437 0.28944936 0.32160017 0.5658685
0000e0 b9 32 92 3e f1 3b b3 3e d2 99 02 3f 78 c1 e8 3e
       0.28554323 0.3500667 0.5101596 0.45460105
0000f0 0a 03 a3 3e df be de 3e 83 46 bd 3e 9f f0 8e 3e
       0.31838256 0.43504998 0.3696786 0.27917954
