models/connect4_model_epoch_9.pth (torch, 329001 bytes, 30 tensors)

conv1.weight f4 [64, 1, 3, 3]
000000 33 00 91 be 6f dd 80 be 0b b9 76 be a6 ce 5b be
       -0.28320464 -0.2516894 -0.24094026 -0.21465549
000010 73 2c 63 be 3e 2d 2d bc aa 5f 16 be 5d 33 99 bd
       -0.22184925 -0.010569869 -0.1468493 -0.074805
000020 f6 36 af 3e 16 c9 28 bd 4f 61 4b 3d f6 32 57 be
       0.3422162 -0.041207395 0.049653348 -0.21015534
000030 64 0d ce bd c1 54 79 bd a3 2a 55 be 5f fe bb bd
       -0.10061148 -0.060871843 -0.20817046 -0.09179377
000040 0f d0 3f bd c6 88 d1 bd 68 e3 29 3d 3f f0 2f bc
       -0.04682928 -0.102311656 0.041476637 -0.0107384315
000050 b4 44 6b 3d f8 f2 14 be 9d e5 3d be 32 ff 25 3c
       0.057438567 -0.1454581 -0.18544622 0.010131644
000060 33 cf a6 3e 89 b8 67 3e 4c 63 15 3b ae fe 81 be
       0.32579955 0.22628988 0.0022794781 -0.25389618
000070 79 f8 24 3d 4d 0e 93 3e 74 ac ac 3e e9 43 03 bd
       0.040276024 0.28721848 0.3372532 -0.032047186
000080 f4 0b fb bd dc 58 04 3c 13 6b 99 3d f4 fd 87 be
       -0.12258139 0.008077826 0.07491126 -0.26560938
000090 d6 73 91 bd d3 e0 7f 3e aa 8e 4a 3e 8b d1 b0 3c
       -0.07102172 0.24988107 0.19780985 0.021584293
0000a0 d0 2c 46 be 15 d4 5a 3e 51 6e 8f 3e cf f3 82 be
       -0.19353032 0.21369965 0.28013852 -0.25576636
0000b0 37 b2 8b be c9 e6 9b be 7d 74 c3 ba c9 8b b5 be
       -0.27284405 -0.30449513 -0.0014912036 -0.3545821
0000c0 ca 5c 8a be 36 44 93 bd e2 4a c7 3d 46 48 8d be
       -0.27023917 -0.071907446 0.0973108 -0.27594203
0000d0 1e 40 84 bd ce fb 87 3c 49 7d 98 be 2d 4b ed bc
       -0.06457542 0.016599562 -0.29783085 -0.02896651
0000e0 8e 63 d7 3d e6 05 58 bd 10 18 68 be 57 e8 1d 3e
       0.105170354 -0.05274 -0.22665429 0.15420662
0000f0 6a ae e6 bd 5f 7d 81 bd 21 96 96 bc 86 94 88 be
       -0.112637356 -0.06322741 -0.018382134 -0.26675814
000100 5e aa f7 bd f0 3d 39 be a3 c4 7c be 0e 26 98 bc
       -0.12093042 -0.18090034 -0.24684386 -0.018572833
000110 77 29 a8 bd 7f 26 6f 3e 89 28 c6 bd 98 e3 a8 3e
       -0.08211034 0.23354529 -0.096757 0.3298614
000120 b0 ee c4 3b 98 66 2f be 07 50 61 be c7 f6 4f 3e
       0.006009899 -0.1712898 -0.22003184 0.20308982
000130 8b 6f 93 3e c7 64 90 be c7 8a d8 3d cf 3a 22 be
       0.28796038 -0.28201887 0.10573345 -0.15842746
000140 fd 61 62 bd f3 fb 10 bd fa 45 9d 3e ab 87 8e 3e
       -0.05526923 -0.035396527 0.3071745 0.2783788
000150 72 07 79 be 15 7f 17 be fb b8 18 3d 4c 0c 29 bc
       -0.24319246 -0.14794572 0.037285786 -0.010317873
000160 78 1d af 3e 8a 93 b7 3d 3c 8d 92 be 3e 76 7f bd
       0.3420217 0.08963688 -0.28623378 -0.062368624
000170 d9 48 90 3e 3b 7e 8e 3e 11 cd 6d be fe 2d 61 be
       0.28180578 0.2783068 -0.23222758 -0.21990201
000180 92 0c 87 3e 22 a1 56 be 2c f1 a5 bd 79 cb 5c be
       0.26376778 -0.20959905 -0.081026405 -0.21561994
000190 02 5a 84 3d b2 a7 92 3d c4 83 18 3e 68 dd 5f be
       0.0646248 0.071608916 0.14894015 -0.21861804
0001a0 2d 17 03 3e cd 56 6f be 81 67 66 3e b3 f1 66 3e
       0.1280181 -0.23372956 0.22500421 0.22553138
0001b0 b2 02 ab 3c cc 9f 87 be 31 38 8a 3e b5 cc e8 bb
       0.020875309 -0.26489103 0.26995996 -0.007104481
0001c0 c1 c3 96 3e 29 80 a6 bd 5a 94 6b be 19 02 63 3e
       0.29446223 -0.08129913 -0.2300581 0.22168769
0001d0 7d 71 7b be 14 ef 30 be a9 d4 ea bb f8 a3 2e 3e
       -0.24555011 -0.17278701 -0.0071664643 0.17054737
0001e0 34 5f 90 be 9d 36 95 be 30 33 b0 3e 85 69 81 bd
       -0.28197634 -0.2914323 0.34414053 -0.063189544
0001f0 6c 94 76 be 5e 9f ef 3c b0 0a 92 bd ba 21 ca 3a
       -0.24080056 0.029250797 -0.07130945 0.0015421428
000200 af 8f 6c 3e 1c 63 5d 3e 55 d3 e5 bd 0e a5 32 3d
       0.23101686 0.21619838 -0.11221949 0.04361444
000210 03 82 37 be a7 ea bc bd 59 df 95 be c7 c4 40 3d
       -0.1792069 -0.09224444 -0.29271963 0.04706266
000220 85 63 12 3c dc 8f d6 3d 7f 72 26 be cb 8d 38 be
       0.00893486 0.10476658 -0.16254614 -0.1802284
000230 f0 ce 35 be 9c 96 89 3e 2e 8d 46 3c 70 d8 91 be
       -0.17754722 0.26872718 0.012118621 -0.2848544
000240 66 df 90 be 2d 1b 0d 3e 76 d1 a2 3c b0 06 2f 3e
       -0.2829544 0.13779898 0.01987527 0.17092395
000250 c8 32 8c 3d 4f 5c a7 3e 35 ce 9c 3e 51 da 72 3e
       0.06845623 0.32687613 0.30626073 0.23716094
000260 1e 35 6a be 67 80 59 be c5 e2 86 bc 3d 26 2d bd
       -0.22871825 -0.21240388 -0.016465554 -0.042272795
000270 08 a5 31 be e6 74 ee bd b8 2b 8e 3e a1 5b 98 3e
       -0.1734811 -0.1164339 0.2776773 0.29757407
000280 bb 71 96 be 7e 94 28 bd 27 91 51 be f4 cb 0a 3e
       -0.29383644 -0.04115724 -0.20465527 0.13554364
000290 e0 08 a1 3e de 93 a6 3e bb a8 97 be b8 49 88 bd
       0.31452084 0.3253469 -0.2962092 -0.06654686
0002a0 e1 91 1d 3e e9 77 81 be e7 ad 87 3d b2 23 3d 3d
       0.1538768 -0.25286797 0.06624966 0.04617662
0002b0 d5 2e bf bd 0d 1a 84 be 27 9d 14 be 7a 1a a4 3d
       -0.093351044 -0.25801125 -0.14513074 0.080128625
0002c0 06 dc 8a 3d 81 6c 54 3e 30 fc d8 3d 45 45 23 3e
       0.067802474 0.20744516 0.10594976 0.15944393
0002d0 89 ff bc 3d 3e 82 a0 be 7b 3c f4 3d 3d da 19 bd
       0.09228427 -0.31349367 0.11925598 -0.037561644
0002e0 03 c0 b2 bc df 32 66 3e 3f 9d df bd d7 43 8e be
       -0.021820074 0.22480343 -0.10918664 -0.27786133
0002f0 17 bb 83 bd 10 7e 8f 3e a3 ca 25 be b0 f4 94 bc
       -0.06432169 0.28025866 -0.16190581 -0.018183082
000300 17 64 a4 3e 61 5a 14 3d f1 47 43 bc 67 50 71 3e
       0.32107612 0.036219005 -0.011919008 0.23565827
000310 e7 c7 77 3e 1c 8a 5e 3d 0b 4c 19 bd bc 7d 1d be
       0.2419735 0.05433093 -0.037426036 -0.15379995
000320 dc 2f 2f 3c 47 c1 8d be 50 9f af 3b d9 7d a8 be
       0.010692563 -0.2768652 0.0053595677 -0.32908514
000330 97 9b 09 3e 84 79 29 be 8a cb 6e bd 2b 7e 14 3d
       0.13438259 -0.16550261 -0.05829958 0.036253136
000340 23 c8 99 3e a4 e4 2a 3e 7a 07 38 3d af 18 96 be
       0.30035505 0.16688782 0.044929005 -0.29315707
000350 8d ef 5d 3e 71 1f 7f 3e ff d7 ac 3e b9 e5 e5 bc
       0.21673413 0.24914338 0.33758542 -0.028063642
000360 d3 54 5a 3d 6d f8 08 3e cd 06 89 3e 7c e1 17 be
       0.05330355 0.13376017 0.26763 -0.14832109
000370 a9 1f c1 bd 95 be 9d 3e 3f 7e 9d be 2b 9f 89 bd
       -0.09429867 0.30809465 -0.3076038 -0.06719812
000380 90 8f f6 3d 2f d3 5d 3e 9a b8 10 be 4f 41 82 be
       0.12039101 0.21662591 -0.1413292 -0.25440452
000390 f6 32 36 bb fb 67 f5 3d da f5 94 3e 65 8e 72 be
       -0.0027801371 0.11982723 0.2909382 -0.23687132
0003a0 94 2e 6f 3e 97 ad 38 bd 58 1b cd 3d c9 93 28 bd
       0.23357612 -0.045087423 0.10014981 -0.041156564
0003b0 fa 8e 76 be 43 8e a1 be bc 52 f0 bc ae 08 9d bc
       -0.24077979 -0.3155385 -0.029336326 -0.019169178
0003c0 ea 30 91 3c e0 96 2c 3e fa 45 a9 3d 14 ea a4 3e
       0.01772352 0.16854429 0.082653 0.32209837
0003d0 31 7b 91 3e 41 c6 78 be 78 13 a0 bd 26 c4 17 3c
       0.284143 -0.24294378 -0.07816213 0.009263074
0003e0 e2 05 1f bd eb a2 f5 3c 90 ec a2 be 07 44 93 3e
       -0.03882397 0.029984912 -0.31821108 0.28762838
0003f0 39 86 2f be 86 f6 1e 3e 38 a3 93 3e 8d 52 92 3e
       -0.17141046 0.15523729 0.28835464 0.28578606

conv1.bias f4 [64]
000000 dd 6a 53 bc c1 51 5c be e1 88 a7 3a a7 c1 70 3e
       -0.012903896 -0.21515562 0.0012781882 0.23511373
000010 c1 40 2f 3d 9c a9 2b 3e 82 e6 b7 3d 39 c1 85 3d
       0.042786364 0.1676392 0.08979513 0.06530995
000020 1d 17 09 3e ab 77 fe bc 2c dc 0e be 89 44 09 3e
       0.13387723 -0.031062922 -0.13951176 0.1340505
000030 d2 93 48 3d 6b 10 75 3e 9e c9 ca bc 4f 1c 3c 3e
       0.048969097 0.23932044 -0.024754342 0.18370174
000040 f1 b1 80 be bc 8b 53 bd 57 42 40 be 7d ab 13 bd
       -0.2513576 -0.051646933 -0.18775307 -0.036052216
000050 e7 11 a4 be 77 32 9b be 07 67 a8 be 1d c4 5d 3e
       -0.32044908 -0.3031194 -0.32891104 0.21656843
000060 73 e7 f9 3d 76 6e 3e be 6f e3 87 be b8 5d ca 3d
       0.122023486 -0.18596825 -0.26540706 0.09881157
000070 c8 73 93 3e 19 01 3c be ac 42 13 be e7 5d 3f be
       0.28799272 -0.18359794 -0.14380902 -0.18688165
000080 a4 9a 55 be 57 cf 9f be 4b c2 9b 3e 77 1e 79 3e
       -0.20859772 -0.31212875 0.3042167 0.24328028
000090 17 d7 9b 3e 3e 0e 33 bb 47 38 62 3e f4 99 65 3d
       0.30437538 -0.0027321721 0.2209178 0.056055024
0000a0 d7 66 4a 3e bf 42 0a 3e 67 d1 70 3e e8 bb c4 bd
       0.19765793 0.13502024 0.2351738 -0.09606153
0000b0 ab 64 b4 bd a1 d0 a1 be 72 7b e0 bd 82 11 a6 be
       -0.088082634 -0.31604484 -0.10961045 -0.32435232
0000c0 9a 30 9a bd 6d d2 98 be 05 56 e9 3d f2 50 95 bd
       -0.07528801 -0.29848042 0.1139336 -0.0729083
0000d0 f0 16 60 bd 80 59 bb 3d 09 49 99 be da 7d 0e 3d
       -0.054709375 0.0914793 -0.29938534 0.03478799
0000e0 2d cc a2 be 3b 96 ae bd f2 14 02 3e f4 d4 2a 3e
       -0.317964 -0.08524748 0.12703303 0.16682798
0000f0 d3 2b 0d 3e 08 e1 80 be f5 d5 cd bd 7b 8e f2 3c
       0.13786249 -0.25171685 -0.10050575 0.029608956

bn1.weight f4 [64]
000000 b0 b1 80 3f c2 6e 80 3f b8 0a 7e 3f 48 60 82 3f
       1.0054226 1.0033801 0.99235106 1.0185633
000010 a9 0f 7d 3f 00 82 82 3f 75 57 7d 3f e7 47 82 3f
       0.9885202 1.0195923 0.98961574 1.0178193
000020 9a 1c 81 3f b0 7e 7f 3f 1d d5 7e 3f 04 b3 78 3f
       1.0086854 0.99802685 0.99543935 0.97148156
000030 3a 6a 80 3f d2 4f 81 3f f4 a1 80 3f 9f ad 7e 3f
       1.0032418 1.0102484 1.0049424 0.99483675
000040 24 b3 83 3f 01 a4 7d 3f 63 a4 80 3f fa 3b 82 3f
       1.0289044 0.99078375 1.0050167 1.0174553
000050 68 36 81 3f d9 1b 82 3f 00 b4 80 3f 2c ad 7d 3f
       1.0094728 1.0164748 1.0054932 0.99092364
000060 d9 2c 7b 3f e2 fd 7c 3f 49 e7 7e 3f e7 0a 80 3f
       0.9811531 0.98824894 0.99571663 1.0003327
000070 83 67 7e 3f c5 6a 7e 3f 5c 24 7e 3f 29 50 77 3f
       0.99376696 0.9938167 0.9927423 0.9660669
000080 75 b9 80 3f a1 36 82 3f 2d e1 7b 3f e1 19 80 3f
       1.0056597 1.0172921 0.98390466 1.0007898
000090 20 4b 7d 3f fa 57 81 3f 30 18 82 3f c2 28 7a 3f
       0.98942757 1.0104973 1.0163631 0.9771844
0000a0 8e d9 80 3f c7 8a 7f 3f 95 53 82 3f 8e 36 80 3f
       1.0066392 0.9982113 1.0181757 1.0016649
0000b0 24 ff 80 3f 1b a1 82 3f 04 58 7e 3f 6c fb 7b 3f
       1.0077863 1.0205415 0.9935305 0.98430514
0000c0 e4 c5 7b 3f 12 4c 82 3f ef 89 7c 3f 84 10 7d 3f
       0.9834883 1.0179465 0.9864797 0.98853326
0000d0 1f 20 7e 3f 16 c0 79 3f 3e 60 80 3f 88 bf 80 3f
       0.9926776 0.97558725 1.0029371 1.0058451
0000e0 06 41 7f 3f 6e cb 7e 3f 37 5b 82 3f 83 58 7d 3f
       0.9970859 0.9952916 1.0184087 0.98963183
0000f0 51 f7 80 3f 73 b3 7d 3f f3 ad 7e 3f 5b 99 7c 3f
       1.0075475 0.9910194 0.99484175 0.986715

bn1.bias f4 [64]
000000 b4 58 9d 3b f1 b5 92 ba c9 12 6d bc 30 3f 24 ba
       0.004801834 -0.0011193139 -0.014469811 -0.0006265519
000010 84 e0 2f bc 9b 0b 1a bc 93 a3 12 3c 80 40 07 3c
       -0.010734681 -0.009402181 0.008950132 0.008255124
000020 93 46 1e 3b 88 f7 18 3c 1f a7 18 bb 75 60 7d bc
       0.0024150952 0.00933636 -0.0023292971 -0.015464892
000030 b6 05 af 3b 76 78 43 3c 3b 64 85 bb 39 f6 4b bb
       0.005341257 0.011930576 -0.0040707863 -0.0031122102
000040 93 c4 b7 bc 57 61 0b 3c 24 38 24 bc f0 cf 83 bc
       -0.022432601 0.008507094 -0.010023151 -0.016090363
000050 35 6c 79 3c 5c c5 8c 3a 01 25 8f 3b 64 4f 90 bc
       0.0152235525 0.001073997 0.004368425 -0.017615981
000060 85 38 88 bc 9d 92 b6 bc d5 91 c5 bc e9 18 a5 3b
       -0.016628513 -0.022286708 -0.02411739 0.00503837
000070 b6 91 30 bc 18 67 0d bd de 57 0e 3c 63 e0 e6 3b
       -0.010776928 -0.034522146 0.008687941 0.007045792
000080 8b 01 a6 bc 37 b3 dd bc 42 9e fa ba f9 dc ce bb
       -0.020264408 -0.027062995 -0.0019120651 -0.006312963
000090 d6 cb 94 bc a8 40 d1 38 0b de 5c 3c ce c2 10 3c
       -0.018163603 9.97794e-05 0.013480674 0.008835508
0000a0 82 c5 f5 bb 09 96 6e 3c e1 bf 57 bb b6 4d 24 3c
       -0.0075003514 0.014562138 -0.0032920765 0.010028293
0000b0 4e 40 dc 3b 70 d6 c0 3b e5 3d e7 bb 1e 86 32 bc
       0.006721533 0.005884938 -0.007056939 -0.010896234
0000c0 46 7e 33 bc e1 fc 68 bc b2 78 c3 39 d9 1b 32 bc
       -0.010955399 -0.014220447 0.00037283223 -0.010870897
0000d0 12 22 90 3b 2d 70 05 3b ab 75 2e bc 3b 43 c8 3b
       0.0043985927 0.0020361051 -0.010648171 0.00611153
0000e0 fb 93 dc bc 33 1e e4 bb c6 90 8f 3c ad d8 b4 bb
       -0.026926031 -0.006961608 0.017525088 -0.005518994
0000f0 26 45 48 3b ba f7 81 ba 09 1d 76 bb e2 8d 84 3b
       0.0030558794 -0.0009915747 -0.0037553927 0.004045234

bn1.running_mean f4 [64]
000000 41 c7 3a bb bf c0 53 be 5d ad fd ba 6f 57 70 3e
       -0.0028500112 -0.20678996 -0.0019354034 0.23470853
000010 29 11 31 3d 49 dd 35 3e 20 2b bd 3d a3 e4 8c 3d
       0.043229256 0.17760195 0.09236741 0.068795465
000020 a6 79 09 3e f1 3f 12 bd ef 13 0b be 32 2d 07 3e
       0.13425311 -0.03570551 -0.13581823 0.13200834
000030 a2 92 48 3d b3 4c 7a 3e 62 c9 b8 bc 84 41 41 3e
       0.048967965 0.24443321 -0.022556964 0.18872648
000040 92 fb 84 be ce 0a 47 bd e7 64 41 be 5a 5d 19 bd
       -0.25973183 -0.04859429 -0.18886147 -0.037442543
000050 61 1b a2 be f1 50 a0 be 67 2e a3 be b5 b0 53 3e
       -0.31661513 -0.31311753 -0.3187134 0.20672877
000060 4b 82 f8 3d 9b f5 41 be d5 2b 86 be 19 d7 c7 3d
       0.121342264 -0.18941347 -0.26205316 0.097578235
000070 3f 62 92 3e a2 b1 41 be 12 38 12 be 36 5a 40 be
       0.2859058 -0.18915418 -0.14279202 -0.18784413
000080 e5 c5 59 be 78 0f a2 be 6c 8d 9e 3e bc 59 78 3e
       -0.21266897 -0.31652427 0.3096727 0.24252981
000090 1b ab 99 3e 9e 5e 2a 3b 7a 80 64 3e 03 bb 7c 3d
       0.30013356 0.0025996338 0.22314635 0.061701786
0000a0 f5 4f 4b 3e 02 f8 0c 3e 3a bd 76 3e 06 db c5 bd
       0.1985472 0.13766482 0.24095622 -0.09660916
0000b0 31 19 b7 bd bf 68 a1 be 42 19 f2 bd 53 17 a9 be
       -0.08940352 -0.31525227 -0.11821224 -0.33025607
0000c0 c4 2a 9e bd 03 df 98 be 67 5d ec 3d 1c b1 9a bd
       -0.07723001 -0.29857644 0.115412526 -0.07553312
0000d0 04 c8 58 bd 43 30 c7 3d d0 8c 98 be db 7f 22 3d
       -0.052925125 0.09726002 -0.2979493 0.039672714
0000e0 f8 ae aa be 3e 29 b0 bd 09 00 08 3e 70 34 36 3e
       -0.33336616 -0.08601616 0.13281263 0.17793441
0000f0 3b a1 0a 3e 6a f8 82 be bf b4 cd bd 38 d7 0d 3d
       0.13538067 -0.2558015 -0.1004424 0.034629077

bn1.running_var f4 [64]
000000 3b 87 a8 3d f9 26 a5 3c bd 62 82 3d ca 55 c5 3d
       0.08228918 0.020160185 0.06366489 0.096355036
000010 ad 60 e0 3d 61 61 89 3d c2 df 23 3d 08 c9 b0 3d
       0.109559394 0.06708027 0.040008314 0.08632094
000020 ac 7d ac 3d 89 df c1 3d 35 df f1 3d c3 25 b9 3d
       0.084224075 0.09466464 0.118101515 0.090404056
000030 d4 76 e1 3d d8 78 b7 3d 80 63 81 3d 8c ae 89 3d
       0.11008993 0.08958596 0.06317806 0.06722745
000040 ed 8d dd 3d 6c 9c cd 3d 80 25 00 3e 39 a7 41 3d
       0.10818086 0.10039601 0.12514305 0.047278617
000050 e9 95 76 3d d9 b1 75 3d ac 2e 82 3d 44 c4 fe 3d
       0.06020156 0.059984062 0.06356558 0.124397784
000060 17 18 8c 3d 31 a0 b4 3d 23 5a 5f 3d 86 c3 dd 3d
       0.06840532 0.088196166 0.05452932 0.10828309
000070 ff 96 e3 3d a6 22 42 3d 5b f0 7b 3d 4c 1b c8 3d
       0.111127846 0.047396325 0.061508518 0.097708315
000080 17 fc f7 3d ad e7 c1 3d b0 20 9a 3d fe 79 05 3e
       0.12108629 0.09468017 0.07525766 0.13034818
000090 2d a2 be 3d a8 9c 23 3d 8d cb 94 3d a0 68 6c 3d
       0.09308276 0.03994432 0.07265387 0.057716966
0000a0 b8 15 79 3d 04 76 c2 3d be 83 86 3d 93 23 ef 3d
       0.06081173 0.09495166 0.065680966 0.11676707
0000b0 33 91 3c 3d 8e dd fd 3d 4e 27 2b 3d ae c5 a4 3d
       0.04603691 0.12395774 0.04178553 0.08045517
0000c0 35 3a bf 3d c9 5c 9e 3d 99 81 72 3d 23 31 aa 3d
       0.09337274 0.07732541 0.059205625 0.08310153
0000d0 13 32 54 3d 1a 6f f2 3d 7c 26 a3 3d fd 18 91 3d
       0.051805567 0.11837597 0.07966325 0.07084844
0000e0 32 52 b8 3d 8d 72 9d 3d be 12 24 3d 8a 68 af 3d
       0.090000525 0.076878645 0.040056936 0.08564861
0000f0 db c3 d4 3d 27 ea 8a 3d d8 c7 53 3d 09 ae be 3d
       0.10388919 0.06782942 0.051704258 0.09310538

conv2.weight f4 [64, 64, 3, 3]
000000 69 32 89 bc 10 d4 20 bd f6 20 aa 3b cf 86 33 39
       -0.01674767 -0.03926474 0.0051919175 0.0001712099
000010 33 26 d8 bc ff c1 52 3b 2b 52 93 3b 6c 05 42 bc
       -0.026385402 0.0032159088 0.004495879 -0.011842113
000020 bf 0f fb 3c 46 56 cd bc 71 bb af bb e2 26 9a 3c
       0.030647157 -0.025065552 -0.005362921 0.018817369
000030 80 15 19 b8 b9 dc d1 ba 74 fd e5 bc 4a a1 74 bc
       -3.6498066e-05 -0.0016011215 -0.028074957 -0.014931032
000040 6e ea 8e 3c ee eb 2c bd ab 9b f4 3c c1 a0 8d bc
       0.01744577 -0.042217188 0.029859385 -0.017288567
000050 a8 a4 33 bb 32 60 2a 3c e8 94 96 bb f6 d1 d9 bb
       -0.0027411375 0.010398911 -0.0045953877 -0.0066473437
000060 5d 46 a7 3b 30 6a 87 3d 32 a5 cf 3c 44 3b dd bc
       0.0051048235 0.066120505 0.025347326 -0.0270058
000070 46 e2 f2 3c 2a 5b b8 3c b8 f1 7f 3a b3 99 f6 3c
       0.029648911 0.022504408 0.0009763497 0.030102586
000080 23 27 dd 3c e6 2a aa 3c ab 9f 0d b9 f8 ff e9 3b
       0.0269962 0.020772409 -0.00013506289 0.0071411096
000090 79 f6 74 bc 57 ae 3b bc 34 a3 5c 3d ba 09 f6 bc
       -0.014951342 -0.01145514 0.05386658 -0.030033935
0000a0 bf 89 9a bb 90 b1 a1 bc 64 92 da 39 37 04 11 3d
       -0.0047161276 -0.019737989 0.0004168927 0.03540441
0000b0 85 80 6a 3c 9f 32 27 bd 7d 44 59 bd ae 69 f2 3b
       0.014312868 -0.04081976 -0.05304383 0.007397852
0000c0 4b 90 9e 3c 81 14 f3 bc b5 3c a5 bc c9 81 d5 bc
       0.019355914 -0.029672863 -0.020170549 -0.026062863
0000d0 41 7d 2d bc 69 ce 9e bc 45 47 9a 3c 2e ee 5c 3c
       -0.010588945 -0.019385533 0.018832812 0.013484521
0000e0 1c 84 7d bb 8b fe c9 bc db 99 0a bd 41 75 0c bd
       -0.003868348 -0.024657508 -0.033838134 -0.03429151
0000f0 59 42 d7 3c 72 a8 22 bd 41 f5 fe bc de d3 95 bb
       0.026276754 -0.039711423 -0.031122806 -0.0045723757
000100 49 1c c7 3c eb 4e 5f bd 83 7d 11 bc 52 00 2f bc
       0.02430548 -0.05451862 -0.008880022 -0.010681229
000110 2c 9e fe 3c 59 7b 52 bc 17 7d 99 3c d6 fd be 3c
       0.031081282 -0.012846791 0.018736405 0.023314398
000120 f4 a1 cf bc be d1 0b bd b8 ce a5 3c 81 95 84 3c
       -0.02534578 -0.034135573 0.020240173 0.01618457
000130 e5 43 2a 3d 82 6e 81 bd 78 e8 c9 bc 56 86 12 3b
       0.041568656 -0.06319906 -0.024646983 0.0022357902
000140 13 a4 b2 bc 3e 53 d5 bc 50 4a 77 bd ca 12 33 bd
       -0.021806752 -0.02604067 -0.060373604 -0.04371909
000150 b0 12 00 bd 26 d8 dd bc 49 68 fd bc bf 9c 38 3d
       -0.03126782 -0.027080607 -0.030933516 0.04507136
000160 fb 2b 04 bd 77 85 0f bd ca 97 ef bc 07 ec 33 bd
       -0.032268506 -0.03503939 -0.029247183 -0.043926265
000170 05 fc 26 3d 80 eb d5 3c 47 01 66 bd b4 58 7d 3c
       0.04076769 0.026113272 -0.056153562 0.015463043
000180 36 63 27 3d 43 f5 bb bc 5e 83 0e 3d 17 ea 98 bc
       0.0408661 -0.022944098 0.03479325 -0.01866631
000190 2b 44 2c bc 88 82 cb bc 5a e8 5d 3c a6 f9 52 3d
       -0.010514299 -0.024842516 0.013544166 0.051507615
0001a0 92 99 03 bd ff 0a 32 3d 02 ab 61 bc cd 1c 5d bc
       -0.032128878 0.043467518 -0.013773682 -0.013495636
0001b0 45 fb 76 bc 32 89 8e bb e7 5a 27 bc 40 f1 3d 3b
       -0.015074556 -0.004349851 -0.010214544 0.0028982908
0001c0 2b 05 84 bb 20 8a 8f bc b6 23 e9 3b 0e 28 e0 bc
       -0.0040289364 -0.017521918 0.007114853 -0.02736285
0001d0 20 cf 45 bd 5c 04 3c bd 77 17 30 bd 68 34 9c bc
       -0.048293233 -0.045902595 -0.042991128 -0.019067958
0001e0 77 e6 65 bc 98 cf f4 bc e8 4c 72 bd f1 95 60 bb
       -0.014031998 -0.029884145 -0.059155375 -0.003426906
0001f0 6e 79 01 3d 38 cb 41 3c 28 13 85 bd ae 9f f3 bb
       0.031609945 0.011828236 -0.064977944 -0.007434807
000200 ac 0f af 3b 6d e2 aa bc 69 4e 31 3d 58 d1 fe bc
       0.0053424444 -0.020859921 0.04328767 -0.031105682
000210 56 ea 9b bc ba 11 27 bd 63 7f fc 3c 3f 88 2e 3d
       -0.019032639 -0.04078839 0.030822461 0.042610403
000220 55 0d a1 bc f3 db a6 bc 9a 28 f8 3b 62 e4 31 bd
       -0.019659678 -0.020368552 0.0075731995 -0.043430693
000230 fe 18 e0 3b 12 05 b6 3c 86 f9 5d 3d b9 9f 36 ba
       0.006838917 0.022219215 0.054193042 -0.00069665496
000240 26 9b e1 3c 79 f0 b6 3c a2 f5 64 3c e5 53 28 bd
       0.0275398 0.022331463 0.013974579 -0.041095633
000250 ef ef 47 bc 52 e2 17 bd 70 a1 de 3c 10 91 e4 bc
       -0.012203201 -0.03708107 0.027176589 -0.027901202
000260 2f 4f 3c bb 06 d9 c6 bc 23 85 02 3d 79 2f 26 3d
       -0.002873372 -0.024273407 0.03186525 0.040572617
000270 be 9f a4 bc 1e 8c df bc 5e 88 3f 3b 2b 17 9e bc
       -0.020095702 -0.027288493 0.0029225568 -0.019298157
000280 1d 4e 83 3c ef 16 ef 3c c6 25 f0 bc bf 9b 12 3d
       0.016028458 0.02918574 -0.029314887 0.035793062
000290 a2 a5 ff 3c d8 af 0a 3d 58 3e 5f bd 89 1d 1f 3d
       0.03120691 0.033859104 -0.054502815 0.038846526
0002a0 0b 4e 08 3d fe 47 7f bd 91 57 40 3d 36 6e b2 3c
       0.033277553 -0.062324516 0.04695851 0.021781068
0002b0 79 f8 51 bc 60 d2 0a 3c 8f 2f aa bb 70 24 51 bd
       -0.012815588 0.008473009 -0.0051936577 -0.05106014
0002c0 ba a7 8a 3c 74 da 89 bb 86 a2 26 3d df 99 9a bc
       0.016925681 -0.00420695 0.04068234 -0.0188722
0002d0 02 f1 e8 3c 0a dd fe ba 84 20 54 3c 87 48 9d bc
       0.028435234 -0.0019444537 0.012947205 -0.019199623
0002e0 e9 81 ce 3c 3c 14 a0 bc 29 79 dc 3c 22 74 aa 3c
       0.02520843 -0.019540899 0.026913242 0.02080733
0002f0 92 26 33 3d a9 3a 21 3c 89 3c c4 3a 85 83 9b bc
       0.043737955 0.009840646 0.0014971654 -0.018983612
000300 7e 47 7e bb ea 17 95 ba ed 14 d4 3c 52 c3 0a 3a
       -0.0038799937 -0.0011374925 0.025888884 0.0005293387
000310 90 73 28 bd d5 26 21 bb 01 5f 77 bc 4e f4 07 bb
       -0.041125834 -0.0024589796 -0.015098334 -0.0020744982
000320 e5 d6 25 3d 51 fc 72 3c bb d0 c9 bb da cd fe bc
       0.040488143 0.014830665 -0.006158916 -0.031104017
000330 88 63 6b bc b9 8c 4b 3d 3c 4d 2f bd 15 bb 11 3d
       -0.014366992 0.04969475 -0.042798266 0.035578806
000340 13 c6 d5 bc 12 b4 85 bd d4 0c 54 3b 27 b8 66 bc
       -0.026095426 -0.06528486 0.003235628 -0.014081991
000350 37 58 85 3c 10 f0 d4 bb b0 66 98 b9 33 5f 9b bb
       0.016277416 -0.0064983442 -0.00029068207 -0.0047415732
000360 27 ce 8b 3c 9a 95 bd 3a 84 b3 84 3c 0a f2 56 3c
       0.017066075 0.001446414 0.016198881 0.01311923
000370 d3 6b aa bc 54 f3 47 bd 9b 4d ca bc 7a e6 4a 3c
       -0.020803368 -0.04881604 -0.024695208 0.012384051
000380 7f c6 95 bc 1d 95 07 3c 2b 66 6d 3c 88 fa 78 3b
       -0.018283127 0.0082752975 0.014489691 0.0037991125
000390 06 8b 3f bd 48 86 19 3d 6a b4 69 3c 93 af 1a bc
       -0.046763442 0.037481576 0.0142642055 -0.009441274
0003a0 0f b8 c7 3c af 40 b9 3c 66 c3 a1 bc 0f 04 42 bd
       0.024379758 0.022613851 -0.019746494 -0.04736715
0003b0 0a ba d7 bc 94 6b d9 3c 84 56 d2 bc 2a 44 9c 3c
       -0.026333828 0.026540555 -0.02567602 0.019075472
0003c0 b6 79 7e 3c 38 07 13 bb be 4b 0b bd 66 01 25 bc
       0.015531948 -0.0022434723 -0.03400778 -0.010071134
0003d0 bd e5 87 bc 38 42 25 3b d5 9d 0b 3c 10 fe 53 bc
       -0.01658904 0.0025216471 0.008521517 -0.012938991
0003e0 fe 11 54 bc c6 b4 8f 3b bd 77 f9 3c bd 70 58 3c
       -0.012943743 0.0043855635 0.030452603 0.013210473
0003f0 85 38 0d bd 67 09 b3 3c ac 57 56 bd 08 9c fa 3c
       -0.03447773 0.02185507 -0.052329704 0.03059198

conv2.bias f4 [64]
000000 70 61 5f bc fa 95 00 3d b5 75 dc 3c a5 7b 21 bb
       -0.013634071 0.03139303 0.026911596 -0.0024640348
000010 fa 3a ea 3c 89 fa 41 3c 69 28 23 3d 32 46 71 bc
       0.028592575 0.011839517 0.03983346 -0.0147262085
000020 49 51 d5 bb ce 31 2c 3d c0 b7 be b9 3c e2 ff 3c
       -0.006509934 0.042039685 -0.00036376528 0.031235807
000030 e3 d5 47 bb 8d 05 8d bb 52 a3 8a 3c a6 c8 10 3d
       -0.0030492477 -0.00430364 0.01692358 0.035347603
000040 95 f2 1b 3c 3e 0e 22 3d 15 da a5 bb ab 28 04 bd
       0.009518285 0.039564364 -0.005061398 -0.032265346
000050 09 1a dc bc ee 42 79 3c a7 94 5e bb 8b 14 a7 3b
       -0.026867883 0.015213711 -0.0033963115 0.0050988845
000060 9a 4f 0d 3c 1f 18 2a 3c b7 35 14 bd 9e 7d cf bc
       0.0086249355 0.0103817275 -0.03618404 -0.025328454
000070 f5 60 1c 3d 11 9c 18 3c 1d 8a 12 3d 98 91 6c bc
       0.038178403 0.009314553 0.035776246 -0.014439009
000080 cb 0b 10 3b b9 09 89 3b aa df 12 bd 01 a5 2a bd
       0.0021979685 0.0041820672 -0.035857834 -0.041661266
000090 d1 77 bb 3c 8d 0f b5 bc 1a a9 42 3b ab e0 71 ba
       0.022884281 -0.022102142 0.0029702843 -0.00092268985
0000a0 b9 89 5d 3b 19 0c 04 3d 9a 0a b5 3c e0 c7 1a bd
       0.0033804013 0.0322381 0.022099782 -0.037788272
0000b0 91 cb db 3a c3 0f fc bc fc 75 0a 3d 67 5a a3 3b
       0.0016769042 -0.030769235 0.033803925 0.004985142
0000c0 48 be 14 3d f8 aa 90 3c 67 38 ef 3a b4 4a 0d 3c
       0.03631428 0.01765965 0.0018251062 0.008623768
0000d0 90 1b 8f bb d9 3e 0a 3d 1f e4 b2 bc e9 3e 77 bc
       -0.0043672994 0.033751342 -0.021837292 -0.015090683
0000e0 ea 15 03 bd da ce 9d b9 8a 2a 20 bc d4 cc 08 3d
       -0.03200332 -0.0003009949 -0.009775767 0.033398464
0000f0 02 1c ac bc 99 05 90 3c 69 02 07 b9 79 dd 86 bc
       -0.021009449 0.017580794 -0.00012875501 -0.016463028

bn2.weight f4 [64]
000000 00 04 7b 3f 35 52 82 3f 3b fc 80 3f 2e c1 80 3f
       0.9805298 1.0181338 1.0076975 1.0058954
000010 c6 58 80 3f 3f dd 80 3f 42 a8 7c 3f e8 61 80 3f
       1.0027092 1.0067519 0.9869424 1.0029879
000020 44 4c 81 3f 19 76 7d 3f 17 3f 80 3f 11 ee 80 3f
       1.01014 0.9900833 1.0019253 1.0072652
000030 e7 f8 7e 3f 51 24 7e 3f 4e e1 7c 3f 43 3c 81 3f
       0.99598545 0.99274164 0.9878129 1.0096515
000040 f4 c5 7f 3f c6 bc 7a 3f ee 49 82 3f dd 4c 7a 3f
       0.9991143 0.97944295 1.0178812 0.97773534
000050 87 9e 80 3f 62 4c 82 3f 0d 80 7c 3f 7f 66 79 3f
       1.0048379 1.017956 0.9863289 0.9742202
000060 48 04 7f 3f 13 83 76 3f 4d e1 82 3f 77 61 7b 3f
       0.9961591 0.96293753 1.0225006 0.98195595
000070 ba 1a 7e 3f 29 d7 81 3f e0 08 81 3f 9e ab 83 3f
       0.9925953 1.0143787 1.0080833 1.0286748
000080 e9 2f 80 3f 04 d5 7b 3f 57 26 84 3f e4 0e 7f 3f
       1.0014621 0.9837191 1.03242 0.99632096
000090 5b 36 80 3f 43 02 81 3f e5 9e 7b 3f 17 2e 81 3f
       1.0016588 1.0078815 0.9828933 1.009219
0000a0 d7 ef 7d 3f 34 ea 83 3f c8 76 81 3f 04 6f 7b 3f
       0.9919409 1.0305848 1.0114374 0.9821627
0000b0 0d 14 81 3f b4 e4 81 3f 92 b0 7b 3f 38 a8 7c 3f
       1.0084244 1.014792 0.983163 0.9869418
0000c0 fa 3b 81 3f 6f 42 81 3f 9e d5 7c 3f ee 29 82 3f
       1.0096428 1.0098399 0.98763454 1.0169046
0000d0 a6 98 82 3f 08 8b 82 3f 62 fb 80 3f 8a 47 80 3f
       1.0202835 1.0198679 1.0076716 1.0021832
0000e0 ac 3a 7d 3f d0 b6 7a 3f 8f 04 7e 3f a5 b8 7c 3f
       0.9891765 0.979352 0.99225706 0.98719245
0000f0 f7 e7 80 3f ab dc 82 3f 42 17 7e 3f 8c 97 81 3f
       1.007079 1.0223593 0.9925424 1.0124373

bn2.bias f4 [64]
000000 ae 93 8d bb 6f c4 6c bb a1 50 0e 3c 61 88 8e bc
       -0.0043205833 -0.0036127826 0.008686216 -0.017399015
000010 79 a6 4b bc 0c 26 6e 3b ef f7 8b bc 16 1e c1 bc
       -0.012429827 0.0036338596 -0.017085997 -0.023573916
000020 5a ae 4c 3b e6 36 42 3b 49 bb 75 3c 5c 12 ca 3c
       0.0031231851 0.0029634773 0.014998266 0.024666958
000030 1d 1b 60 bc bf 81 b6 bb 73 92 00 3c af 4d c8 3b
       -0.013678339 -0.005569666 0.007847416 0.006112776
000040 ba c3 a4 3c d5 f2 3d bc ab 45 0d 3c 49 9e 14 bd
       0.020112861 -0.01159354 0.008622567 -0.036283765
000050 35 7d 1c 3c 61 b8 56 3c a6 f9 77 3b df c6 d4 ba
       0.009551336 0.013105483 0.003783801 -0.0016233585
000060 5a 5d 67 bc 18 8c 8e bb 90 11 6c 3a fa 9e 70 b9
       -0.014121378 -0.0043501966 0.00090053026 -0.00022947407
000070 96 a9 4a 3b 2f f8 94 3c 2a 61 b7 3b 34 55 ca 3c
       0.0030923835 0.01818475 0.0055962997 0.024698831
000080 dc a9 43 3b 50 ec f4 3b 48 b1 13 3d 05 0e 00 bc
       0.0029855883 0.0074744597 0.03605774 -0.0078158425
000090 04 68 02 bc d0 6d 75 3c 21 e9 51 3c c3 c3 df 3b
       -0.00795937 0.014979795 0.01281193 0.0068287565
0000a0 f0 00 0d 3b 0c 35 c9 3b 36 2e e9 3a 67 fd 35 3b
       0.0021515451 0.006140357 0.0017790261 0.0027769448
0000b0 1e 6f b2 3b 6f 33 b3 3c ae c3 86 3c 65 35 5d bb
       0.005445375 0.021875111 0.01645073 -0.003375375
0000c0 0e 5b 33 bc a8 60 47 3c 6e 5b c0 bb 67 d5 42 3b
       -0.010947002 0.012169041 -0.0058702743 0.0029729248
0000d0 b7 dc b1 3c 17 8d b2 bb 20 fe c6 37 fa 3a ea bb
       0.02171169 -0.005448948 2.3721776e-05 -0.007148144
0000e0 99 95 82 3c bf de b7 bc b7 35 0a 3d 48 fb 8d bc
       0.015940474 -0.02244508 0.033742633 -0.017331734
0000f0 38 c9 ed bb 26 9e 39 3c ba f4 83 3c 9d 51 4b bc
       -0.007256653 0.011329209 0.016107906 -0.012409595

bn2.running_mean f4 [64]
000000 32 42 14 be 26 2c 90 be e5 08 d8 be 27 e3 96 be
       -0.14478377 -0.28158683 -0.42194286 -0.29470178
000010 eb 42 74 3d ff 4c 9a 3e f6 56 ec be 46 f1 2f bd
       0.05963413 0.30136868 -0.46160096 -0.042954706
000020 5b 0a 59 bf 77 1e 63 be 14 5e b8 3e 08 1f 6d be
       -0.84781426 -0.2217959 0.36009276 -0.23156369
000030 ab 4d af bf da 3b 55 3d 8d 79 8d bf 2d 73 bc 3d
       -1.3695577 0.052059032 -1.1052719 0.092016555
000040 f5 e0 8d be e4 3d 81 be 02 8d 00 bf bc 5f 0a bf
       -0.2771069 -0.2524253 -0.5021516 -0.5405233
000050 8c bf 2a 3f e2 15 c3 bd 36 7f 7a bf 71 dd 57 3f
       0.6669853 -0.09525658 -0.9785036 0.8432227
000060 01 a4 12 bd 4a 0d 8c 3e 4d fb 40 bf 96 f1 e4 be
       -0.035800938 0.2735389 -0.75383455 -0.44715565
000070 92 8f 56 3e 95 23 ad bf e4 92 c4 bd a2 00 19 3e
       0.20953205 -1.3526484 -0.0959833 0.14941648
000080 5f ff 87 bf 42 e3 9f be 12 ee b5 3d d1 3b 78 bf
       -1.0624808 -0.3122807 0.08883299 -0.9696627
000090 87 6d cb bf 50 af ff bd 5c e6 78 3f e2 da c3 be
       -1.58928 -0.1248461 0.972265 -0.38252932
0000a0 52 b9 2b bf 6a 04 87 bf b5 f2 67 3e 9c 9e 66 3e
       -0.6707965 -1.0548222 0.22651179 0.22521442
0000b0 44 ae 94 bf 26 af bd be 6e 46 12 3f db b8 d9 3e
       -1.1615682 -0.3704769 0.5713872 0.42523846
0000c0 97 27 4c be 08 35 14 bf b2 06 83 3d a4 6a 22 be
       -0.19936977 -0.5789342 0.063977614 -0.15860993
0000d0 e1 9b 6b be 8c 29 43 bf ea 07 56 be 4c 1e fa be
       -0.23008682 -0.7623527 -0.20901456 -0.4885124
0000e0 49 b8 fe 3e 6e fc 5b 3e fa 07 63 be f3 11 69 bf
       0.49749973 0.21483013 -0.22171012 -0.91043013
0000f0 a8 85 71 3d bd fc 8c be df fd 62 3f 62 db 8d bf
       0.058965355 -0.27536574 0.88668627 -1.1082575

bn2.running_var f4 [64]
000000 f7 9b 33 3f 21 06 f6 3e 83 aa 3e 3f 65 ff f3 3e
       0.7015986 0.4805155 0.7447893 0.47655788
000010 14 d4 3c 3f 15 1b f4 3e 8d 2d 94 3f 40 9d 14 3f
       0.73761106 0.47676912 1.1576401 0.58052444
000020 a3 1f 88 3f 28 7f 20 3f d4 92 2a 3f 2f b6 eb 3e
       1.0634655 0.62694025 0.6663029 0.46037433
000030 60 be f0 3f c5 d7 0e 3f a0 da c9 3f 7c f5 01 3f
       1.8808098 0.5579799 1.5769844 0.50765204
000040 e2 e1 1e 3f 98 05 58 3f fb 60 20 3f c0 17 7a 3f
       0.6206342 0.84383535 0.6264798 0.9769249
000050 d1 d7 89 3f eb de 28 3f 77 09 b8 3f 25 b3 73 3f
       1.0768987 0.65965146 1.4377888 0.9519523
000060 d5 63 07 3f 04 53 31 3f 53 bd 46 3f 9a 61 38 3f
       0.52886707 0.69267297 0.77632636 0.7202393
000070 75 fb 32 3f 7f 4b 10 40 a7 f9 14 3f b9 61 bb 3e
       0.6991494 2.254608 0.5819344 0.36597994
000080 2d a0 a3 3f 6b 2f 2f 3f 68 8d 9f 3e 3f 05 9b 3f
       1.2783257 0.6843173 0.31162572 1.2110976
000090 f1 b3 0e 40 fb f5 0e 3f 4a 5f 74 3f 06 d6 21 3f
       2.2297328 0.55844086 0.954579 0.632172
0000a0 03 1f 7f 3f 5b 01 8f 3f 8a e7 39 3f de 2a 1b 3f
       0.99656695 1.1172289 0.72618926 0.60612285
0000b0 a5 cf d3 3f e4 61 36 3f 87 45 18 3f 01 5e 3f 3f
       1.6547743 0.7124312 0.5948109 0.74752814
0000c0 2e 5c 19 3f b3 06 50 3f ac 4c 78 3f a4 da 0c 3f
       0.5990628 0.8126022 0.9699199 0.5502112
0000d0 1f 8e 09 3f 82 e3 69 3f 67 71 2a 3f ea 5a 60 3f
       0.53732485 0.91362774 0.6657929 0.87638724
0000e0 2c 3e 16 3f 19 96 22 3f 93 19 42 3f 79 30 8b 3f
       0.58688617 0.6351028 0.75820273 1.0874168
0000f0 b2 39 26 3f d5 88 18 3f 69 89 83 3f a2 31 b6 3f
       0.64931786 0.5958379 1.0276309 1.4233897

conv3.weight f4 [64, 64, 3, 3]
000000 e7 43 2d 3d 07 fe c7 bc f6 62 bd 3b 73 6d 10 bc
       0.042301085 -0.024413122 0.0057796193 -0.008815157
000010 92 e3 a4 3b d6 d6 7c bc b8 89 9d 3c ab 1f 56 3c
       0.0050320113 -0.01543208 0.019230708 0.013069074
000020 60 83 6f bc 5b 7a 55 bd 2b df 99 3a a1 bb cb 3c
       -0.014618725 -0.05211864 0.0011739483 0.024869742
000030 62 4e 58 bb 52 d0 1b bd 5d 1b c3 3c e2 60 94 3c
       -0.0033005704 -0.038040467 0.023816759 0.018112604
000040 7a f9 87 3d 25 b2 34 bc 5d 3d 15 3d ec 17 83 bc
       0.06639381 -0.011028801 0.036435474 -0.016002618
000050 34 cf bb bc a7 8f 86 bc e5 6b d7 bc d1 56 4a bc
       -0.02292595 -0.01642592 -0.026296565 -0.0123498
000060 0d c3 fb bb f5 22 c7 3c 17 4d 53 bc b2 35 08 3d
       -0.007683164 0.024308661 -0.012896798 0.033254333
000070 97 f8 98 bc 57 e9 c0 bc 48 0a 77 3c 18 e5 8d 3c
       -0.018673224 -0.023548765 0.015078135 0.017321154
000080 dd cc c5 3c 94 64 bd 3b 0d 53 be 3c 24 7e be 3b
       0.024145538 0.005779812 0.023232961 0.005813377
000090 00 81 06 3d 7f e9 15 bd 89 91 0f bd 85 2c f0 ba
       0.032837868 -0.036599632 -0.035050903 -0.0018323815
0000a0 a1 c2 38 3b 36 1f f0 3c f1 65 0b bd a8 50 13 bc
       0.002819218 0.029311758 -0.034032766 -0.008991398
0000b0 4d 56 b6 bc 07 85 10 bd 3f f9 28 3c 68 d9 76 bc
       -0.022257948 -0.035283115 0.010313331 -0.015066482
0000c0 76 73 6d 3c aa f9 aa 3c b7 71 03 bd 52 07 da 3c
       0.01449286 0.020871002 -0.03209087 0.026614819
0000d0 5e a7 92 bc 0a 88 43 bd de ba cc bb cb 13 08 bc
       -0.017902073 -0.04773716 -0.0062478622 -0.0083055
0000e0 81 c3 7c bb 0b c0 59 3d 01 30 e6 bc 78 be e5 bc
       -0.0038568678 0.053161662 -0.028099062 -0.028044924
0000f0 e4 89 41 3d 93 3f 11 3d 69 b4 b7 3c 55 ab 73 3d
       0.047250643 0.03546102 0.022424893 0.059489567
000100 2c d5 09 bd fd 11 02 3d f0 89 96 3d 3d 57 83 3c
       -0.033650562 0.031755436 0.07350528 0.01603281
000110 7a 1f 5d 3c 61 2e 32 3c 90 51 e3 bc e0 48 e6 bb
       0.013496274 0.010875315 -0.027748853 -0.0070277303
000120 63 8e dd bc 94 7d 22 3d 33 55 3f 3d a5 77 c0 3c
       -0.027045434 0.039670542 0.04671211 0.023494551
000130 ad 71 80 bb f2 7f b1 bc 96 8d ac bc ff f7 73 bc
       -0.003919801 -0.021667454 -0.021063607 -0.01489067
000140 d2 cb 72 ba 12 1f 05 bd 94 ce 80 3c e2 03 01 bd
       -0.0009261939 -0.032500334 0.015723504 -0.031497844
000150 ac 30 11 bc f2 6e 41 bd 42 9d 78 3c fc a9 36 bd
       -0.008861702 -0.047224946 0.015174212 -0.044595703
000160 fc 55 ce bc db 7c 57 3c a7 d6 4a bc 95 7a 25 bd
       -0.025187485 0.013152326 -0.012380279 -0.040400106
000170 73 83 03 bd 28 b9 0a bd b3 7b ce bc 88 3c 0b bd
       -0.03210778 -0.033867985 -0.025205469 -0.033993274
000180 3b 44 02 bd 7e 3b 02 3d 11 63 8c bb 9d 5c 38 bd
       -0.03180335 0.031795017 -0.0042842706 -0.045010198
000190 6a 17 f5 bc 45 80 5d bc 59 79 2c 3b 7f f3 b8 3c
       -0.029918391 -0.013519351 0.0026317446 0.022577045
0001a0 94 d1 64 3a 94 1a 21 3b b7 2b 3d bc d1 62 41 bc
       0.00087287393 0.0024582492 -0.011546067 -0.011803345
0001b0 a0 76 97 bb dd f7 74 bd 96 d5 c2 bc 3c 19 49 3c
       -0.0046222955 -0.059806693 -0.023783486 0.012274083
0001c0 ce 75 e0 bb 70 12 9d bc f5 81 e4 3c 62 42 f3 bc
       -0.006849981 -0.01917383 0.027894 -0.02969474
0001d0 f8 12 85 3d 3f fd a7 bc f8 16 43 3c ba a2 78 bc
       0.064977586 -0.0205065 0.011907332 -0.015175516
0001e0 a6 5a 40 3d eb 69 ab 3c f1 2d d9 bc 80 8e 01 3d
       0.04696145 0.020924529 -0.026511164 0.03163004
0001f0 4b d1 df 3b 86 73 c1 bc 3b 5a 4b bd 54 9b fb 3b
       0.0068303696 -0.023614656 -0.049646597 0.0076784287
000200 2d a8 e0 bb 74 8d fd 3c 44 d0 69 bb cf 32 df bc
       -0.0068559856 0.03095124 -0.0035677115 -0.027245907
000210 e0 75 10 bd bb 66 23 bd 75 13 ad bb 15 dd 34 bb
       -0.035268664 -0.039892893 -0.0052818605 -0.0027597595
000220 4e 3c 54 ba a6 35 dc 3c 12 3a cd 3c 17 7d 17 3d
       -0.00080961443 0.02688105 0.025052104 0.03698453
000230 cc f0 a7 bc d1 1c 4b bd 64 57 e3 bb 68 72 91 bc
       -0.020500563 -0.04958803 -0.006937908 -0.017754748
000240 e3 08 c0 bc 6c 03 9c 3c 30 d7 ea 3c 6c 42 14 bd
       -0.023441738 0.0190446 0.028667063 -0.036196157
000250 06 8e 83 bc 32 69 7f bc c3 2d 5f 3d e2 1f 1f 3d
       -0.016058933 -0.015589045 0.054487 0.038848765
000260 5b e2 d2 bc 75 cf 0c 3d 65 b1 6d 3b 75 6a 26 bd
       -0.0257427 0.034377534 0.0036269065 -0.04062887
000270 9f 91 65 bc bb cd a9 3c ba 67 31 bc d2 6b d9 bb
       -0.01401177 0.020727983 -0.010827953 -0.0066351676
000280 fd d6 c5 bc 0b 66 04 bd 6b 12 14 3d 29 3b a8 3b
       -0.024150366 -0.03232388 0.036150377 0.0051340056
000290 7d a1 d0 3c 0d 62 5a bc ea 90 13 bd a1 bf ac 3c
       0.025467629 -0.013329041 -0.036026873 0.02108747
0002a0 d5 33 9c 3c 06 85 3f bc 26 aa 41 3d c0 ae 30 3c
       0.019067684 -0.01168943 0.047281407 0.010783851
0002b0 7e c0 4b bc bc fb 77 bc 94 0e 27 3d 76 27 93 bc
       -0.01243603 -0.015135702 0.040785387 -0.017963152
0002c0 28 e6 3f 3d bd 69 44 bb 3f bd eb bc ce 9d 34 bd
       0.046850353 -0.0029970251 -0.028776763 -0.044095807
0002d0 95 ef c6 bc 6b fc 34 bd 45 eb 98 3b b3 51 31 bd
       -0.024284163 -0.044186037 0.004666718 -0.043290805
0002e0 61 9f 73 bc ae 3d c0 3c 5c 8d 89 bc e4 87 56 bc
       -0.014869542 0.023466911 -0.016791038 -0.013093922
0002f0 38 03 29 bd 66 7a ff 3c 1d 69 38 3d 15 cc 18 bd
       -0.041262835 0.031186294 0.04502212 -0.037304003
000300 cc d6 3f 3d 9a ba 3c 3c a2 27 b7 bc f3 02 fc bc
       0.046835706 0.011519099 -0.022357766 -0.030763125
000310 df b8 70 3c 2e 4a 3e bd a9 4b 2d 3d 8f b6 cb bc
       0.014692514 -0.046457462 0.042308483 -0.024867324
000320 b0 14 d0 3c 84 1d 14 bc 6e 12 ba bc 83 00 42 3d
       0.02540049 -0.00904024 -0.022713866 0.04736377
000330 fc 7c c1 3c f0 3c 5c bd 09 8d 81 3b b4 ea e4 3b
       0.023619168 -0.053769052 0.0039535803 0.0069859866
000340 9f 83 d0 bc b2 ab 9d 3c 22 ab f6 bc 83 85 82 3c
       -0.025453387 0.01924691 -0.0301109 0.015932804
000350 3b 92 f9 b9 3a c7 21 bc 37 a8 0c bd 56 03 7f bc
       -0.0004760193 -0.0098741595 -0.03434011 -0.01556476
000360 0a 4d 15 3d c6 95 ae 3c be 9e e8 bb 2f 5d 15 3d
       0.036450423 0.021311652 -0.0070990017 0.03646582
000370 8c a5 bd bc 81 2c 24 bd 75 14 e7 bb f1 b2 9f bc
       -0.023150228 -0.040081505 -0.007051999 -0.019494506
000380 c0 28 9c bc 70 1f 22 3c d4 7e 5a 3b 70 fa f9 bb
       -0.0190624 0.009895191 0.0033339756 -0.0076287314
000390 e8 3b 8b bc 0a 49 5c bb 1d 45 50 3c eb c8 ce 3b
       -0.016996339 -0.003361287 0.01271179 0.0063105724
0003a0 46 0e 40 bc 7b e2 58 bc 87 41 81 3a 24 20 a9 3c
       -0.011722153 -0.013237591 0.0009861448 0.020645209
0003b0 ee 10 89 3b 65 ec 74 bc 3e 82 26 bd 5e 54 93 b9
       0.0041829264 -0.014948939 -0.040651552 -0.00028100883
0003c0 d1 e4 8d 3c 3c cf 05 bc 77 98 4d bc f1 99 9a 3c
       0.017321022 -0.008167084 -0.0125485575 0.018872233
0003d0 a9 3e 66 3c 65 89 11 3d 52 05 62 3b 82 e1 ca 3c
       0.014053025 0.03553142 0.0034488034 0.024765734
0003e0 c3 ce 9c 3c 11 27 27 bd 8e d4 fc bc 74 9f 26 3c
       0.01914156 -0.04080874 -0.030863073 0.0101698525
0003f0 ec f3 29 3c e7 27 24 bd 83 2c a8 3c 01 6e 1f bd
       0.010373097 -0.040077116 0.020529037 -0.038923267

conv3.bias f4 [64]
000000 86 4b 02 bd 4a be eb 3c 7b 79 08 3d 8d f8 60 bc
       -0.031810306 0.02877726 0.033318978 -0.013731134
000010 a3 ae c5 3c fa 8e d4 3b 4b df cf 3b 98 d3 0b 3c
       0.024131125 0.0064867707 0.0063437573 0.008534335
000020 72 b9 d3 3b f6 c5 f0 bc 45 12 c8 bb 61 3f 11 3d
       0.006461316 -0.02939127 -0.0061056935 0.035460833
000030 71 03 85 3c d0 99 96 ba 62 83 fc bc 7b dc 8a bc
       0.016236993 -0.0011489931 -0.030824367 -0.016950836
000040 09 9b f7 3c ca 71 6e bc 40 ac 1e 3d 4e 78 bb 3c
       0.030225294 -0.014553497 0.03873849 0.022884514
000050 5a b2 f6 3c a2 d5 a7 3b 03 57 03 3c 8b 29 b6 bc
       0.030114342 0.0051219026 0.008016351 -0.022236606
000060 54 ec da 3c 14 74 12 bc 8f a0 d6 bc 1d ff eb 3c
       0.026724018 -0.008938808 -0.026199607 0.02880817
000070 09 ed 2c 3d 77 db 2d 3b 41 74 12 3b a1 c0 e4 3c
       0.04221824 0.0026528516 0.0022347125 0.027923884
000080 5e 9e a9 bb 22 61 58 bc ee 4e 3b 3a 7d b2 83 bc
       -0.0051763495 -0.013206752 0.00071452453 -0.01607632
000090 86 b4 e6 3c d5 21 23 bd 52 82 0e 3b e7 43 0c 3d
       0.028162252 -0.039827187 0.0021745157 0.034244444
0000a0 df 30 2e bc 2d c1 fe bc ae 76 97 3c 80 7a 17 bd
       -0.010631769 -0.031097973 0.018489208 -0.03698206
0000b0 30 a3 22 3d 15 fb 0f 3d 46 b0 16 3d 23 87 9e 3c
       0.03970641 0.03515156 0.0367892 0.019351548
0000c0 35 ea db bc 80 ba 11 bc 07 1f 83 bc da 96 0e bd
       -0.026845077 -0.008894563 -0.016006006 -0.034811832
0000d0 c0 48 a6 bc f1 e2 d5 3c b8 20 79 bc 88 f0 bb bc
       -0.020298362 0.02610919 -0.015205555 -0.022941843
0000e0 dd da 1a 3d b7 3b 1d bc d2 ba 25 3d d7 1e c5 bc
       0.03780638 -0.009596757 0.04046137 -0.024062557
0000f0 0c e7 1f bd b8 df 68 bb 46 65 b4 bc 53 34 b1 39
       -0.039038703 -0.0035533737 -0.022020947 0.00033799055

bn3.weight f4 [64]
000000 0c 29 81 3f 76 98 83 3f 46 34 80 3f 1b e0 7e 3f
       1.0090652 1.0280902 1.0015953 0.9956071
000010 e8 c7 80 3f 55 59 7f 3f ca c3 7f 3f 58 f8 7e 3f
       1.0061007 0.99745685 0.99908125 0.9959769
000020 76 d4 80 3f 15 c4 7a 3f 5e f6 7e 3f c7 22 82 3f
       1.0064838 0.9795545 0.99594676 1.0166863
000030 98 05 7f 3f d8 bc 7e 3f 7f 1e 80 3f 59 87 80 3f
       0.9961791 0.995069 1.0009307 1.0041305
000040 ee 38 7e 3f e3 5f 7d 3f ab 71 7e 3f 36 00 82 3f
       0.9930562 0.98974437 0.99392194 1.0156314
000050 e2 14 80 3f 9b d6 81 3f 0c 32 81 3f 81 48 80 3f
       1.0006373 1.0143617 1.0093398 1.0022126
000060 ba a4 82 3f 0f cf 7f 3f aa 2e 80 3f e2 64 82 3f
       1.020652 0.9992532 1.0014241 1.0187037
000070 50 89 80 3f 6e cf 81 3f 3d ca 7c 3f 9f 57 7f 3f
       1.0041904 1.0141428 0.9874609 0.99743074
000080 c3 f5 7e 3f e8 4b 7e 3f 18 7f 80 3f bf 6c 81 3f
       0.9959375 0.99334574 1.0038786 1.0111312
000090 8c f9 80 3f 33 a7 7a 3f b9 67 7e 3f 42 db 83 3f
       1.0076156 0.97911376 0.9937702 1.0301287
0000a0 b3 cb 80 3f b4 66 7e 3f 10 cb 7b 3f 81 16 78 3f
       1.0062164 0.9937546 0.98356724 0.9690934
0000b0 c1 69 80 3f 6a 34 84 3f 4a 67 7d 3f 19 51 7b 3f
       1.0032274 1.0328496 0.9898573 0.9817062
0000c0 ce 4b 80 3f 56 53 7e 3f c2 a8 7f 3f ba 71 80 3f
       1.0023134 0.9934591 0.9986688 1.0034707
0000d0 cb a4 82 3f b6 58 82 3f 36 6e 7e 3f 03 50 83 3f
       1.0206541 1.0183322 0.9938692 1.0258793
0000e0 06 e6 7f 3f 77 da 80 3f 2e d9 7f 3f 53 b4 7e 3f
       0.9996036 1.006667 0.99940765 0.994939
0000f0 1a 63 81 3f 47 73 7c 3f 1b b7 81 3f c5 24 7c 3f
       1.0108368 0.986134 1.0134004 0.98493606

bn3.bias f4 [64]
000000 76 46 be bb f0 72 d1 3c e3 19 a0 3c 31 ab b4 3c
       -0.0058067394 0.025567502 0.019543594 0.022054287
000010 81 09 a9 3c 0d bc 9f 3b 81 f7 2f bc a2 8e ea 3c
       0.020634415 0.0048747123 -0.010740162 0.028632466
000020 94 43 06 3c d0 47 74 b8 ad 40 a0 3c 91 af b6 3c
       0.008194823 -5.8241014e-05 0.01956209 0.022300513
000030 22 22 2d ba 90 7e 07 bd 3f 10 a6 ba ee b6 6c ba
       -0.00066045125 -0.033079684 -0.0012669637 -0.0009029944
000040 a6 d6 97 38 3f 10 2d 3c 0d fe 90 bb 4f 32 8e 3b
       7.2402225e-05 0.010562955 -0.0044248165 0.0043394933
000050 e8 cd a9 ba 39 a8 30 3c 5c dc 78 3c c2 bf de 3c
       -0.0012955042 0.010782295 0.0151892565 0.027191047
000060 ab 5e 17 bc 29 8f f2 bb c5 e6 a9 3c d0 ad 54 bb
       -0.009238879 -0.00740232 0.020739922 -0.0032452233
000070 3a 4a da 3a c8 44 9a 3c 61 b7 4f 3b fd 81 1b 3b
       0.0016654201 0.018831626 0.0031694996 0.0023728602
000080 49 66 9f bb de dd d5 bb 3c ce fb 3b 10 02 5c 3c
       -0.0048644883 -0.006526693 0.007684497 0.013428226
000090 1c ce 3c 3b 76 59 99 bc d2 67 39 3c 19 a3 2e 3d
       0.0028809374 -0.018719416 0.011316257 0.04263601
0000a0 f5 44 7a bc ae c3 99 bb 20 1b 61 bb 70 34 99 bc
       -0.01527523 -0.0046925163 -0.0034348443 -0.018701762
0000b0 54 a9 7e bc 63 57 a0 3c c6 0e 2c 3c 2b 3b 15 bc
       -0.015543301 0.01957292 0.010501569 -0.009108345
0000c0 9f ca 39 bc 4d 69 03 3c 64 ea d4 3a 61 10 c3 bb
       -0.011339813 0.008020711 0.001624417 -0.0059528803
0000d0 be c2 96 3c 87 fe a9 3c 8a d7 0c bb b0 9a 2c 3c
       0.018403407 0.02075125 -0.0021490776 0.010534927
0000e0 63 16 d0 bb 54 f2 f4 3c 9a 55 76 3b d8 32 3a bc
       -0.006350325 0.029900707 0.0037587644 -0.011364661
0000f0 b8 48 47 3c fa a7 70 3a 34 b9 94 bb 58 0d 45 3a
       0.012163334 0.0009180304 -0.0045386795 0.0007516942

bn3.running_mean f4 [64]
000000 20 6e 1f bf f6 92 9b be b2 fc 4f 3e aa c6 c8 3e
       -0.6227741 -0.3038556 0.2031124 0.3921407
000010 52 70 b2 be 55 34 5a 3e 54 3e 13 be d9 cf 63 be
       -0.3485132 0.21309026 -0.14379245 -0.22247256
000020 41 5e 1f bf 43 54 8c bf c4 7e 3d 3f 5b db 8b 3e
       -0.62253195 -1.0963215 0.74021554 0.27315792
000030 0f b3 19 bf 87 1b 42 3f b2 91 02 bf 24 8f 69 bd
       -0.60038847 0.75823253 -0.51003563 -0.057021275
000040 f6 c9 5c bf 76 28 37 3e 1d 10 a6 3e 5c 2d 22 be
       -0.8624567 0.17886528 0.32434168 -0.15837616
000050 ef 0a 23 3f bf a8 c9 be d8 30 a5 bd d8 f8 ad be
       0.6368856 -0.39386556 -0.08065957 -0.33978915
000060 77 61 c9 3d 8a e4 2b bf e1 c0 9b 3e 72 1c b0 bc
       0.09833043 -0.671456 0.30420592 -0.021497939
000070 e1 e6 04 be 12 44 00 bf cb c0 d6 3e 1e 62 29 bf
       -0.12978698 -0.5010387 0.41943964 -0.6616534
000080 f6 f8 3c bf 76 c5 3f be 1d 7f 40 3f 96 d1 52 be
       -0.73817384 -0.18727669 0.7519396 -0.20587763
000090 3c 24 e1 be 41 d7 9a bf ee 37 5e 3f 7b 83 cd bd
       -0.43972957 -1.209694 0.8680409 -0.100348435
0000a0 e5 ba 49 bf 9e 33 32 3f af 33 6f 3e 0c 7b 3e bf
       -0.78800803 0.6961001 0.2335956 -0.74406505
0000b0 52 d0 2a bf 2b a7 aa be b6 7a c1 3e 9d d6 2e bf
       -0.6672412 -0.33330664 0.37788934 -0.68296224
0000c0 dc 0f d8 3d d2 6d 18 3f 34 d1 6d 3e 58 ff 18 bf
       0.105499 0.5954257 0.23224336 -0.59764624
0000d0 44 fa 11 bf 8e 89 9e 3e db 07 1b 3f 90 aa 0e be
       -0.570225 0.3096432 0.6055886 -0.13932252
0000e0 c1 14 04 3e 08 f0 d3 3e 2b 79 f8 3e 52 e7 50 3f
       0.12898542 0.41394067 0.48529944 0.81602967
0000f0 14 cf 4e 3e 0b 92 4d 3f 11 d9 1c bf 1b 49 4d 3e
       0.20196182 0.8030097 -0.6126872 0.20047419

bn3.running_var f4 [64]
000000 49 5e 9e 3e ee 83 22 3f 29 7b 20 3f 86 cf 2e 3f
       0.3093131 0.6348256 0.6268793 0.68285406
000010 82 b8 8f 3e 3e ba be 3e 29 3b d1 3e 92 8a d5 3e
       0.28070456 0.37251467 0.40865448 0.41707283
000020 42 08 0b 3f 31 11 dc 3e 81 96 d6 3e 04 9e 47 3f
       0.54309475 0.42981866 0.419117 0.7797549
000030 32 4c b7 3e 78 8d d5 3e 39 48 58 3e 28 7b 5e 3e
       0.3580032 0.41709495 0.21121301 0.21726668
000040 c5 0d 81 3f 93 22 ee 3e 9d 08 a0 3e 2c f4 cb 3e
       1.0082327 0.46510753 0.3125657 0.39834726
000050 28 4c bb 3e e9 80 d9 3e 42 b7 86 3e 0a 67 5e 3e
       0.3658154 0.42481163 0.2631169 0.21718994
000060 0a bf 02 3f ee 06 df 3e 33 9e eb 3e 27 70 a6 3e
       0.5107275 0.43559974 0.46019134 0.3250744
000070 52 85 e9 3e 7a 8d bd 3e bb 57 b4 3f 9f 4d a4 3e
       0.45609528 0.37022 1.4089273 0.3209047
000080 5e 08 1b 3f 31 46 13 3f eb 6d 10 3f d9 b1 0c 3f
       0.6055964 0.5752898 0.5641772 0.54958874
000090 70 94 92 3e f5 32 d2 3e ba 58 7f 3f cc c2 01 3f
       0.28628874 0.41054502 0.9974476 0.5068786
0000a0 1b 50 92 3e fa 66 42 3f 02 49 cf 3e 66 1a d7 3e
       0.2857674 0.7593838 0.40485388 0.42012328
0000b0 d6 23 a3 3e df 7b 65 3e 74 5a d1 3e 24 20 99 3e
       0.31863278 0.22410534 0.40889323 0.29907334
0000c0 d5 12 95 3e 86 7c 25 3f d2 53 1f 3f ca 63 f3 3e
       0.2911593 0.6464313 0.62237275 0.4753707
0000d0 a6 e5 fb 3e ad 13 da 3e ca 80 0c 3f b2 41 b7 3e
       0.49198645 0.42593136 0.54884017 0.3579231
0000e0 f8 42 09 3f 13 ad 91 3e ba 64 79 3f 73 46 c4 3e
       0.5361781 0.28452358 0.9741932 0.38334998
0000f0 bc a2 ab 3e 10 54 69 3f c3 d7 a5 3e 3e 72 9e 3e
       0.33522594 0.91143894 0.32391176 0.30946535
