models/connect4_model_epoch_2.pth (torch, 329001 bytes, 30 tensors)

conv1.weight f4 [64, 1, 3, 3]
00000000: f3e4 98be 6e73 7dbe 4aeb 6ebe 531c 54be
00000010: 922a 72be 1e23 f5ba f7c4 0dbe 31c0 9ebd
00000020: 9a01 ab3e b178 fbbc 5a2b 363d b7c2 4cbe
00000030: 6649 e0bd e61a 8cbd bcfb 41be 242d b2bd
00000040: 49e4 72bd 5d49 c9bd 7489 373d ee64 ec3b
00000050: 8680 443d b48a 15be 80e1 54be c265 cc3c
00000060: 82f0 9d3e 164d 603e f1d3 24bb c008 76be
00000070: 425b ff3c 511a 943e d776 a23e 674a 56bd
00000080: 54fd febd cc4d 853c 46c2 cb3d 2b61 90be
00000090: 2933 8fbd 6774 863e ef28 493e b5a8 c93c
000000a0: fc36 4abe 9f98 593e a484 923e ad57 8abe
000000b0: 267c 74be 5496 a4be d0d4 d33a bc45 a7be
000000c0: 2e02 7dbe 9f72 b9bd 55ad a93d 54de 97be
000000d0: 87b2 b2bd 30a2 b23c 5b3c 98be ffb4 3ebd
000000e0: 9a62 ed3d 31f7 81bd 6f6c 59be 49e5 133e
000000f0: 8a48 0ebe ff35 95bd 5de3 51ba f548 8dbe
00000100: 6467 08be 7240 30be 2a6b 74be 3384 83bc
00000110: b8da 84bd 52ba 6b3e 4a81 debd ce73 a83e
00000120: 4ad7 bb3b 19c3 21be 0740 7fbe 61ec 4c3e
00000130: ac91 8b3e da9e 8abe 778d d93d 7fb2 1fbe
00000140: d49b 4abd c569 1ebd e0eb 993e bc3d 943e
00000150: 0730 89be 9d21 01be 32a2 383d c62a 32bc
00000160: 3074 a43e 6518 a43d 8b25 91be 4745 21bd
00000170: 18a4 833e 516e 883e cc85 72be 193a 60be
00000180: 4687 903e 4a51 55be ebbb 9bbd 3671 65be
00000190: 1049 983d 7521 a93d eed3 353e 0118 41be
000001a0: f648 c33d 37b2 75be 948f 643e aa5c 733e
000001b0: 53ac ccbb 1c87 86be 1cba 7f3e 1225 e3bb
000001c0: fd52 973e 97cb c3bd a732 6ebe 6770 763e
000001d0: ba4b 77be 8227 20be f12a 11bc a436 3e3e
000001e0: 5495 99be d3a6 8cbe f35f a73e dff6 9abd
000001f0: 0b69 7abe ee82 283d d38f 38bd db2a 8c3a
00000200: b86d 723e b87e 553e 7c70 07be 8968 ee3c
00000210: f4c6 50be a813 cabd 84c9 8dbe e2b9 1c3d
00000220: 04a5 503c 0969 e63d 05e8 2bbe 86e1 35be
00000230: c6db 25be 7440 823e 6c49 5cbc 68dc 9fbe
00000240: ea89 8fbe 923a 1b3e 8e68 013d fcb6 393e
00000250: f2cc 353d d3cb a13e d563 993e 6c1e 803e
00000260: 6a49 5fbe 4e18 55be 169d 02bb 7a70 89bc
00000270: 6e11 3ebe f3cc e4bd 64f8 893e 49e9 993e
00000280: 036b 99be 9b27 a1bc cf24 5ebe eaf9 2f3e
00000290: cea3 9b3e d7a9 993e 81fd a6be 9edd 32bd
000002a0: a886 1b3e 28d9 73be 2b28 ab3d 873c 333d
000002b0: e0a5 b2bd 6c36 73be f367 0cbe 851a a03d
000002c0: 96d9 6a3d ae65 633e 4b60 e43d 2307 2c3e
000002d0: cc09 a53d a39f 9abe cfc1 d63d 8684 aabc
000002e0: 7246 88ba ca45 6b3e 82b6 05be 86f1 8fbe
000002f0: f20a 8ebd 763a 8c3e da6b 2bbe 3850 ffbc
00000300: 4cbf a43e 69c4 983c b2b4 cc3b 6c74 753e
00000310: e21b 703e df31 3c3d 5076 20bd 7d9b 15be
00000320: 4a37 27bc 13a6 88be 7671 a43c b144 a4be
00000330: 5745 0c3e 6c49 3dbe ccf8 7dbd 3126 493d
00000340: 1780 8d3e e7b0 433e 9e5c 343d c4a6 91be
00000350: 11ae 693e 5059 8a3e 2f65 aa3e a052 90bc
00000360: c0c6 8d3d 2426 063e 9d23 8b3e e443 10be
00000370: 0293 a4bd 8f3e 9c3e eb93 9fbe e897 9abd
00000380: b528 f93d 5ae0 613e 6367 fbbd 1c47 7bbe
00000390: 3f38 82bc bcbc de3d 591a a53e ea5c 68be
000003a0: bfdd 643e 3ea6 30bd 4414 b73d ed3e 2ebd
000003b0: fb88 63be 459a a9be 6c6e ffbc 823f 0bbd
000003c0: 7f8b 873c 8983 393e c4ab 933d 2529 963e
000003d0: fc44 a43e a9bd 63be fa10 b4bd 4891 e6b9
000003e0: 56fb 1abd 3fd9 d63c a0da a1be e347 923e
000003f0: 0107 2dbe 3691 2e3e 155a 9b3e 9869 823e
-0.29862174 -0.24751064 -0.23331943 -0.2071393 -0.23649052 -0.0018702482 -0.13844667 -0.07751501
0.3339966 -0.030697199 0.044474937 -0.19996153 -0.109515 -0.06841068 -0.18943685 -0.08700016
-0.05929974 -0.09828446 0.04480882 0.00721418 0.047974132 -0.14603692 -0.20789146 0.024950866
0.30847555 0.21904406 -0.002515074 -0.24026775 0.031171445 0.28926328 0.31731293 -0.05231705
-0.12450662 0.016272448 0.09949164 -0.28199133 -0.0699218 0.26260683 0.19644521 0.024616579
-0.19747537 0.21249627 0.28616822 -0.27020016 -0.23875484 -0.3214594 0.0016161446 -0.3267039
-0.24707863 -0.09055065 0.082850136 -0.2966181 -0.08725458 0.021805853 -0.29733548 -0.04655933
0.115910724 -0.06345976 -0.2123277 0.14442934 -0.13894859 -0.072856896 -0.0008006597 -0.27594724
-0.1332069 -0.17212084 -0.23869005 -0.016054248 -0.0648703 0.23020294 -0.10864504 0.32900852
0.0057324516 -0.1579708 -0.24926768 0.20012046 0.27259576 -0.2707432 0.106226854 -0.15595435
-0.049465016 -0.03867509 0.3006277 0.2895335 -0.26794454 -0.12610479 0.045076557 -0.010874456
0.32119894 0.080124654 -0.28348956 -0.03937271 0.2571113 0.26646665 -0.23683852 -0.21897162
0.28228205 -0.2083179 -0.07604202 -0.22406468 0.074358106 0.082583345 0.17756626 -0.18856813
0.095354006 -0.23993765 0.22320396 0.23765817 -0.0062461286 -0.26274955 0.24973339 -0.0069319094
0.29555503 -0.09560316 -0.2326151 0.24066316 -0.24149981 -0.15640071 -0.008860336 0.18575531
-0.2999674 -0.27471027 0.3269039 -0.07566618 -0.24454133 0.04114049 -0.045059036 0.0010693924
0.23674667 0.2084912 -0.13226503 0.02910258 -0.20388395 -0.098670304 -0.27692807 0.03826321
0.012734655 0.112505026 -0.16787727 -0.17761812 -0.16197118 0.254398 -0.0134452395 -0.31222844
-0.28034908 0.15159062 0.03159385 0.18136209 0.044384904 0.31600818 0.29958978 0.2502321
-0.21805349 -0.20810053 -0.0019930056 -0.016777266 -0.18561336 -0.111719035 0.2694732 0.30060795
-0.29964456 -0.019672206 -0.21693729 0.17185178 0.3039841 0.3001239 -0.32615283 -0.043668382
0.15188086 -0.23813307 0.08357271 0.043758895 -0.087230444 -0.23751229 -0.13711528 0.07817558
0.057336412 0.22206756 0.11151179 0.16799597 0.08058509 -0.30199918 0.10486185 -0.020815145
-0.0010396971 0.22975841 -0.13057902 -0.28113955 -0.069356814 0.27388352 -0.16740361 -0.031166181
0.32177198 0.018648343 0.0062471265 0.23970193 0.23448136 0.045946 -0.03917533 -0.14610095
-0.010206053 -0.26689205 0.020073634 -0.32083657 0.13698326 -0.1848504 -0.06200485 0.049108688
0.27636787 0.19110452 0.04403364 -0.28447545 0.22820307 0.27021265 0.33280322 -0.017617524
0.06922674 0.13100487 0.27175608 -0.14088398 -0.08035852 0.30516478 -0.3116754 -0.07548505
0.121659674 0.2205824 -0.12275579 -0.24538845 -0.01589596 0.10875842 0.32246664 -0.22691694
0.22350214 -0.04312729 0.08939412 -0.04254048 -0.22220223 -0.3312551 -0.031180583 -0.033996113
0.01654601 0.18116583 0.07210496 0.29328266 0.3208388 -0.22240318 -0.087923005 -0.00043977262
-0.03783735 0.026226638 -0.3161211 0.2857047 -0.16897203 0.17047581 0.30342165 0.25471187

conv1.bias f4 [64]
00000000: 932f fdbb fa76 57be a335 18bb 6dcf 713e
00000010: 9350 3f3d f268 2d3e 5c16 a83d 670f 8a3d
00000020: 1c2b 043e fa8c 00bd 2759 0bbe bfac 093e
00000030: f9fc 523d eacc 743e 337d b0bc 3aae 2f3e
00000040: 0bd5 80be fda6 50bd fadb 40be c2ce 00bd
00000050: 0320 a7be 9174 9abe 7a68 a7be b3ab 593e
00000060: b1a7 ff3d e454 3fbe 8912 87be cd12 cf3d
00000070: 1828 943e 257d 3dbe eebd 0cbe b855 40be
00000080: 29f5 54be 6f28 a0be 9e6d 9c3e c971 7b3e
00000090: 0b0f 9a3e 6111 2e3a bf98 5f3e 5466 563d
000000a0: 601c 4e3e d62b 0a3e d3f5 6e3e 7b68 c4bd
000000b0: 72f1 b3bd f409 a4be dece e6bd 9d9a a7be
000000c0: 4a2e 9bbd 54f9 9cbe 7a5f f13d b8ed 95bd
000000d0: 9357 5ebd 58ec b43d 4125 9abe 5cc7 f13c
000000e0: 0b68 a2be ee75 aabd faaf 023e 707b 2a3e
000000f0: 74d5 0a3e 0aa1 81be 5ddd cabd f20c 053d
-0.0077266186 -0.2104148 -0.002322533 0.23614283 0.0467077 0.16934565 0.0820739 0.06741219
0.1290707 -0.031384446 -0.13608228 0.13444804 0.051510785 0.23906294 -0.021544075 0.17156306
-0.2516254 -0.050940502 -0.18833914 -0.03144718 -0.3264161 -0.30167058 -0.32696897 0.21256904
0.124831565 -0.18684727 -0.2638133 0.10111008 0.2893684 -0.1850477 -0.13744327 -0.18782699
-0.20796646 -0.31280848 0.3055238 0.24555124 0.30089602 0.0006640163 0.21835612 0.05234368
0.20128012 0.13493285 0.23335962 -0.095902406 -0.087862864 -0.32038844 -0.112699255 -0.32735148
-0.07577188 -0.30658972 0.11785789 -0.07320732 -0.054282736 0.088341415 -0.30106547 0.029514007
-0.31720003 -0.083232746 0.12762442 0.1664865 0.13557988 -0.25318176 -0.09905503 0.03248305

bn1.weight f4 [64]
00000000: 4fbb 803f 6f25 7f3f d637 813f 9982 803f
00000010: a7bd 7e3f 5d35 803f 4e1e 803f 50b8 803f
00000020: 4267 7d3f 3272 7f3f bfde 7d3f 8c13 803f
00000030: 88ec 7f3f a26e 803f 6813 7e3f 9155 803f
00000040: 6081 813f 3ddc 803f 14c6 7d3f c58e 813f
00000050: 1cc1 813f 9777 813f a9ed 7e3f 9f5c 803f
00000060: 3dc1 803f b03e 803f 1446 803f 3ce2 7f3f
00000070: 4405 7f3f 0a02 7e3f 2391 7e3f 6ea9 7d3f
00000080: 2da6 803f 1728 803f d2d9 7e3f 4ad0 7f3f
00000090: 9433 7d3f 8d25 803f 3ff3 7e3f a753 7e3f
000000a0: 176f 7f3f 7fc7 7e3f b2be 803f 9db0 7e3f
000000b0: bd3a 803f fab5 803f 82c8 7d3f ebc9 7b3f
000000c0: 4d65 803f 3ea3 803f 1b93 7f3f e65b 803f
000000d0: 30cb 803f c440 803f 4fc3 803f 5b6f 7e3f
000000e0: 6942 7f3f dea5 813f 9319 813f 3957 7e3f
000000f0: 8d19 803f c83c 7f3f 0255 7c3f da4f 7e3f
1.0057162 0.99666494 1.0095165 1.0039855 0.99508137 1.0016285 1.0009248 1.0056248
0.98985684 0.99783623 0.9916801 1.0005965 0.99970293 1.0033762 0.9924836 1.0026113
1.0117607 1.0067211 0.9913037 1.0121695 1.0137057 1.0114621 0.9958139 1.0028266
1.0058972 1.0019131 1.0021386 0.9995458 0.9961741 0.9922186 0.9944021 0.99086654
1.0050713 1.0012234 0.9955112 0.999272 0.98906827 1.001146 0.99589914 0.99346393
0.99778885 0.99523157 1.0058196 0.9948824 1.0017926 1.0055535 0.99134076 0.9835498
1.0030915 1.0049818 0.9983384 1.0028045 1.0062008 1.0019765 1.0059603 0.99388665
0.9971071 1.0128744 1.008593 0.9935184 1.0007797 0.9970212 0.9856721 0.99340594

bn1.bias f4 [64]
00000000: 9f53 93bb acea b1ba 0e55 903b 3b31 aebb
00000010: 15b0 083c e89b bcbb 8f65 a83a aefc 4539
00000020: 2026 07bc 466d d73b bfdc f5bb 562d cb3b
00000030: c206 c13a c768 653c 3cd0 23bc ec96 e4b9
00000040: d537 1e3b f016 753a 69cf 5abb 0098 13bb
00000050: dd3f 363c b609 18bc f9bb 30bc 98ad 9ebb
00000060: dbcf 8eba 9ec2 c5ba c1f4 87ba de2d 93bb
00000070: 6d3a 803b 1351 efbb d994 a6bb 2019 f43b
00000080: e79e deb9 8708 f2ba 6d9a 4ebb eb4e d0bb
00000090: a423 d7bb 495f 193b 7272 c8bb 14a9 7eb9
000000a0: 5fe6 13bc 7162 703a e098 523a 03e9 9cbb
000000b0: c93d 8d3b 7dce 87bb da39 ef3b 60cd 21bc
000000c0: 3b87 5a3c b1c8 a7bb 6baf c33b 6e26 0dbc
000000d0: d47a d23b 84c3 573b 1591 f039 b72f 8737
000000e0: 4a2a 28bc 6bca 4f3c d515 573b da98 15bc
000000f0: 8319 093c b961 69bc 20da 04bc 0943 05bb
-0.0044960524 -0.0013573966 0.0044046706 -0.0053159273 0.0083427625 -0.00575589 0.001284765 0.00018881515
-0.008248836 0.0065743057 -0.0075031216 0.006200473 0.0014726745 0.014002032 -0.009998377 -0.00043599994
0.0024142165 0.0009349426 -0.0033387786 -0.002252102 0.011123625 -0.009279659 -0.010787004 -0.0048424713
-0.0010895686 -0.0015087908 -0.0010372625 -0.004491552 0.003913215 -0.007303366 -0.005083662 0.007449284
-0.0004246153 -0.0018465676 -0.003152515 -0.006357064 -0.006565528 0.0023402742 -0.0061171586 -0.00024286314
-0.009027093 0.00091699424 0.00080336444 -0.0047885193 0.004310344 -0.0041444884 0.0073005976 -0.009875625
0.0133379055 -0.00512036 0.005971839 -0.008615119 0.0064233337 0.0032922933 0.00045884462 1.6115473e-05
-0.010263989 0.012682538 0.003281941 -0.009130681 0.008367899 -0.01424449 -0.008108646 -0.0020334146

bn1.running_mean f4 [64]
00000000: c637 a73a 620f 46be 3e90 86bb 0bd7 653e
00000010: 0c02 373d a803 2e3e c84f a93d 0b75 883d
00000020: dfa8 fd3d e3be 0abd 62ca 01be 2198 003e
00000030: 5474 453d f89f 6f3e 2857 86bc e108 2c3e
00000040: 2fe1 7dbe 9950 3dbd 7960 38be 8858 09bd
00000050: d28b 9dbe f295 97be 084e 9cbe 85aa 463e
00000060: 9e02 f23d 3955 39be 44ba 7fbe d976 c33d
00000070: a1dc 8b3e a0dd 38be 6084 04be 3ad7 37be
00000080: 6316 4fbe fbfb 9abe b82d 973e c452 6f3e
00000090: bc37 913e ab97 263c 332b 583e 4def 5c3d
000000a0: 72a4 453e 8472 063e b7f8 6a3e c559 bebd
000000b0: f708 aebd 780d 9cbe df88 e9bd 0aa7 a1be
000000c0: bcc4 96bd ac2e 95be aced e63d d8dc 94bd
000000d0: 369e 56bd e247 b93d cb28 92be 6672 0e3d
000000e0: 8ff0 a1be 478e a6bd 8a2a 023e 6a23 2b3e
000000f0: 6412 013e f3a5 7abe 19a0 bbbd 4b06 0e3d
0.0012757711 -0.19341806 -0.0041065505 0.22445314 0.044679686 0.16993582 0.0826717 0.06662949
0.12385725 -0.03387345 -0.12674859 0.12558033 0.048206642 0.23400867 -0.016398981 0.16800262
-0.24792932 -0.046219442 -0.18005551 -0.033531696 -0.30770737 -0.29606587 -0.30528283 0.19400986
0.118169054 -0.18098916 -0.24973398 0.09544153 0.27316764 -0.18053293 -0.12941122 -0.17953196
-0.20223384 -0.3027037 0.29527068 0.23371416 0.28362834 0.010167996 0.21110229 0.053939153
0.19301012 0.13129622 0.2294644 -0.09294466 -0.08497804 -0.30479026 -0.11403059 -0.31572753
-0.07361743 -0.2913717 0.11275801 -0.07268685 -0.052396975 0.09046914 -0.28546748 0.034777068
-0.31628844 -0.08132606 0.1271154 0.16712728 0.12604672 -0.24477367 -0.091613956 0.03467397

bn1.running_var f4 [64]
00000000: 3c7b d53d 9901 733d da9a b83d 8704 da3d
00000010: 9cbf f33d 36b4 ba3d d764 943d 9ec7 cf3d
00000020: 0f8f d23d 17c5 da3d 1a4e f93d e90c e33d
00000030: a392 f63d 9446 de3d 868e b33d 9e74 be3d
00000040: f4ae fa3d eff5 e63d 6c13 033e b937 9c3d
00000050: 20ae b43d 5e7a b23d 7ef9 bc3d 79f0 053e
00000060: a097 bf3d fb1b da3d 9d15 aa3d b956 ea3d
00000070: e25b ed3d 8fde 9e3d 8a89 ab3d edcb ec3d
00000080: 78cd 003e e019 e43d b9b8 c73d 3f7f 093e
00000090: 8abd e13d ae00 943d f656 c33d 958c ac3d
000000a0: b7e7 ae3d ecc9 e53d dd08 b93d dde3 043e
000000b0: ec32 a03d a780 033e 7e66 983d 22d2 d53d
000000c0: f0a3 e63d f982 ca3d 07fb b43d 63c5 ce3d
000000d0: 32b3 aa3d 5c39 003e 16b3 d23d 4599 bf3d
000000e0: 3d0b e33d 24c5 cc3d eb4d 9b3d 5da0 d33d
000000f0: 191a f03d 20d0 b83d 4b4d a93d e88f e63d
0.10423896 0.059327696 0.090139106 0.10645395 0.11901781 0.09116404 0.07245796 0.10145496
0.102811925 0.10682123 0.121731 0.11086447 0.120396875 0.108533055 0.087674186 0.09299587
0.12240401 0.11277377 0.12800378 0.07627816 0.08822274 0.08714746 0.09227274 0.13080014
0.09355092 0.10649868 0.08304904 0.11442322 0.11589791 0.077572934 0.08375843 0.11562333
0.1257838 0.11137748 0.0975203 0.13427447 0.1102248 0.07226692 0.09538071 0.084252514
0.0854029 0.11220154 0.09034894 0.12977548 0.078222126 0.12842046 0.07441424 0.1044047
0.11261737 0.09888262 0.08836942 0.10096242 0.0833496 0.12521881 0.10288064 0.09355406
0.11086128 0.09998539 0.07583221 0.10333321 0.11723728 0.09024072 0.082666956 0.11257917

conv2.weight f4 [64, 64, 3, 3]
00000000: ab2a 883c b5b5 7cbc 7665 9f3c 3c13 793c
00000010: 2578 d6bc 579b 2cbc b821 993b 397d a9bb
00000020: 7335 d33c d92f 50bc 90f3 c4b9 ad0d c73c
00000030: d7a3 e0bc e26b c4bb bbb8 83bc 7ce4 00bd
00000040: d948 643c 1177 f9bc 67ef 253c c729 86bc
00000050: 57bb 853c 90a2 553c 1e02 22bc fac6 44bc
00000060: 9534 6bbc 4a0d 063d b89f ec3c e80d 50bc
00000070: bf30 203d 453b 1a3d d977 203b 34e7 453d
00000080: 223b 223d 8233 cb3c e30d 143b 7c61 aeba
00000090: 925d 53bc fa06 9bbb 5af6 2a3d d335 06bd
000000a0: b628 943c d89f 82bb bbb0 53bc e3dd 173d
000000b0: c556 2b3c c667 68bc 3c84 66bc 083c 2fbc
000000c0: b104 f93c c6bf f8bc 7a7d e0bc 543a 0cbd
000000d0: 3431 c1bb 098a ccbc 7587 063d 89a3 183d
000000e0: 5c99 493c 0652 0dbc 82ae 02bd 61d0 08bc
000000f0: 74cf 8a3c 8587 e4bc 0fc3 fbbc 7d89 793c
00000100: 14f5 0c3d 10e8 23bd 26b3 23bc 2efc 053c
00000110: c08b 91bb 20ae 98bc 1ba6 3e3c 702b 963c
00000120: 6b2e 1fbd 2c0a 97bc 8304 123d 6bc3 37bc
00000130: db6a 423d 300b 3cbd 441d 9fbc 68e3 243c
00000140: 36bb 57bc 586e 65bc 790b 05bd 350a cebc
00000150: 2619 d5bc d1dc b8bc 1d37 8fbc fc43 033d
00000160: aa01 17bd d5b5 95bc f3ae bfbb 49f1 19bd
00000170: 788c 053d 7d60 a03c 614d 00bd 9679 b03c
00000180: 2e9d 113d d1c4 44bc d3b9 ea3c 382a 6ebc
00000190: 54a6 533b f833 22bc 0b97 473c e42f fe3c
000001a0: 8dd6 79bc addb e13c df84 7e3b c613 37bb
000001b0: 6358 a9bb c15f 863b 3049 4038 6add 053c
000001c0: 126f 983b ef46 06bc 46e6 d13c 030f 05bd
000001d0: fb13 17bd ea6a 83bc 3643 efbc daeb 48bc
000001e0: 3ef2 15bc 4470 eebc 53b9 45bd 7455 4cbc
000001f0: c27d a23c 365b 683c 4565 50bd 1ce4 d4bb
00000200: 2810 9d3b d903 cebc 8b5f 483d 9e62 8fbc
00000210: 171d 79bc 1f00 edbc 8442 e43c 6cf3 993c
00000220: 43ff 7bbc 1a6c 75bb b20b 09bb b80a 1cbd
00000230: 3c99 773c 68a5 5e3c fb2d 153d 067e 143c
00000240: 00aa 183d 944a e43c 7c59 8c3c f533 ddbc
00000250: fba1 a03c 0149 f3bc 11c7 f53c 18ea 9dbc
00000260: c660 e2bc 4991 4bbc 00a6 3b3d 45a7 4a3d
00000270: c62e c0bb 8426 15bc 88c9 c7ba 585a 05bd
00000280: e5a5 ad3b 1cb4 b93c 5c05 2bbc d7e2 dc3c
00000290: 80d9 113d 8a38 bd3c b83c 23bd e0ec 583d
000002a0: 6717 0d3d e4b9 1dbd 978e 2b3d 9342 073d
000002b0: b68d 263c 70f1 fa3c fb01 7e3c 2c2f 2ebd
000002c0: 8060 4ebc e9f3 c3bb eba4 ca3c 97f7 aabc
000002d0: 03ca 193d bbdf 46bb 3f60 c73c af53 9fbc
000002e0: 245d bb3c 0a41 6abb 08e1 f93c 14b1 063c
000002f0: d6a1 353d 1db8 8eba f13f 1539 e95d fcbb
00000300: 75c6 e73a 77ce 5dbc 34ed 953c d9b2 83bc
00000310: 32bb 36bd 7b23 85ba dc74 3abc f8fd d53b
00000320: 91b3 303d 8289 03bb e643 2d3b c122 25bd
00000330: 23c7 1fbc a637 113d 5ed5 eebc f799 063d
00000340: a808 06bc fd77 1dbd 9609 3a3b c81f 8439
00000350: 095e fc3c 5dda ffbc f6c8 22bc 0c29 97bb
00000360: 6ce9 cf3c dcda 8a3c 1cca bc3c e4a0 273b
00000370: 99f9 12bd 9c0d d5bc 98ff e3bc 8b4a b63b
00000380: 3bb7 11bc f857 ca3c bc1b fb3c 2609 da3b
00000390: 7b57 ddbc 4f38 be3c 3989 073c 83b2 6bbc
000003a0: 74db bd3c 6207 e23c a682 01bc e982 07bd
000003b0: 16aa 89bc a5ce 0d3d 0f8e 1fbd e277 503c
000003c0: e59f 7bba 78a0 3bbc 028d a1bc 6e82 073b
000003d0: 78c0 0bbc 72f6 9b3c c9b4 9fbc f045 a2bb
000003e0: 9461 70ba a62e 0d3b 0a25 293d c2fe 493c
000003f0: 734a d9bc b763 b03c a42b 24bd bf14 bf3c
0.016621908 -0.015424182 0.01945756 0.01520234 -0.026180336 -0.010535083 0.004673209 -0.0051723984
0.025782323 -0.01270672 -0.000375655 0.024298513 -0.027421875 -0.005994306 -0.016079297 -0.0314679
0.013933384 -0.030452283 0.010127879 -0.016377343 0.016324682 0.013039246 -0.0098882 -0.01201033
-0.014355798 0.032727517 0.028884754 -0.012698628 0.039108988 0.03765418 0.0024485497 0.048316196
0.039607175 0.024804834 0.0022591285 -0.0013304199 -0.012900727 -0.0047310563 0.041738845 -0.032766175
0.018085819 -0.00398634 -0.012920554 0.037076842 0.010457699 -0.014184898 -0.014069613 -0.010695465
0.030397745 -0.030364882 -0.027403582 -0.034235314 -0.005895758 -0.024968164 0.032844026 0.037265334
0.01230463 -0.008625513 -0.031904705 -0.008350463 0.016944624 -0.027896652 -0.03073266 0.015230534
0.034413412 -0.040016234 -0.009991443 0.0081778 -0.0044417083 -0.018637717 0.011636282 0.01833126
-0.038862627 -0.018437468 0.035648834 -0.011216025 0.047465187 -0.045909107 -0.019423135 0.0100639835
-0.013167193 -0.014003359 -0.032481644 -0.025151351 -0.026012968 -0.022566231 -0.017482335 0.032047257
-0.03686682 -0.01827518 -0.005849713 -0.037583623 0.032604665 0.01957726 -0.031323794 0.021542352
0.03555029 -0.012009815 0.028653061 -0.014536433 0.0032295184 -0.009900086 0.012182008 0.031028695
-0.015248907 0.02757057 0.0038836522 -0.002793537 -0.005168007 0.00410077 4.584453e-05 0.008170465
0.0046519125 -0.008195623 0.025622498 -0.03248502 -0.03688429 -0.016042192 -0.029206853 -0.012263263
-0.009151993 -0.029106267 -0.048272442 -0.0124715455 0.019835357 0.014181903 -0.05087783 -0.0064969193
0.0047931857 -0.02514832 0.048919242 -0.017503079 -0.015204689 -0.028930722 0.027863748 0.01879283
-0.015380683 -0.0037448467 -0.0020911512 -0.03809616 0.0151122175 0.013589241 0.036420804 0.009063249
0.0372715 0.027867593 0.017132513 -0.027002314 0.019608488 -0.029697897 0.030002149 -0.019276664
-0.027634036 -0.012424775 0.045812607 0.049475927 -0.005864951 -0.009103421 -0.0015242556 -0.03255686
0.005299317 0.02266889 -0.0104382895 0.026963634 0.035607815 0.023098249 -0.039852828 0.052960277
0.034446146 -0.038507357 0.04188403 0.033022474 0.010165622 0.030632704 0.015503402 -0.042525455
-0.01259625 -0.005980004 0.024736842 -0.020870013 0.03754617 -0.0030345756 0.024337886 -0.019449083
0.022871561 -0.0035744333 0.030502811 0.00822093 0.044343792 -0.001088861 0.00014233567 -0.0077016247
0.0017683046 -0.013537995 0.018301584 -0.016076492 -0.044612117 -0.0010157669 -0.0113804005 0.0065305196
0.043139998 -0.0020070975 0.0026438176 -0.040316347 -0.009752068 0.03545346 -0.029154476 0.032861676
-0.008180775 -0.038444508 0.0028387061 0.0002520068 0.030806558 -0.031232053 -0.009935608 -0.0046130475
0.025379859 0.016950063 0.023045592 0.0025578076 -0.035882566 -0.026007466 -0.027831838 0.0055630854
-0.008893783 0.02470015 0.030652873 0.0066539226 -0.027019253 0.02322021 0.0082724625 -0.014385822
0.023175932 0.027591411 -0.007904684 -0.03308383 -0.016804736 0.0346209 -0.038953837 0.012723895
-0.0009598716 -0.011451833 -0.019720558 0.0020677107 -0.008529775 0.019038413 -0.019495385 -0.004952185
-0.0009169814 0.0021542697 0.04129509 0.012328805 -0.026524758 0.021531923 -0.04008068 0.023325322

conv2.bias f4 [64]
00000000: 4fbf 69bc 1f66 013d 28ea dc3c 335f b738
00000010: 5118 ea3c 78c4 363c 8bfd 223d 2b3e 6fbc
00000020: d5f2 d1bb a7c5 2c3d 9252 263a b930 013d
00000030: 4427 7abb 8226 98bb 8e89 843c 5665 0d3d
00000040: 0a2d 223c 196b 203d db5e c3bb 0ef6 04bd
00000050: 8a02 c6bc 5e0d 663c 7294 5bbb cd5e b03b
00000060: 3499 143c 78a4 2c3c 63e9 12bd 42e7 d1bc
00000070: 56d9 1d3d 8212 213c 315f 133d 2c71 8fbc
00000080: b645 133b 3492 4f3b 4b01 11bd fcb1 2bbd
00000090: 16a2 bc3c 398c b0bc d6ab 863b c934 6fba
000000a0: 2109 4e3b 8c78 063d 04b8 b83c 832c 22bd
000000b0: b707 e73a 1404 ffbc 0f3a 053d 53e9 723b
000000c0: be28 173d b82f 973c d5d3 463b 4705 153c
000000d0: e600 9cbb ec77 0b3d ad3f b3bc fd57 73bc
000000e0: 22c5 04bd a9c4 f139 bca1 1bbc 9f70 093d
000000f0: 1d4f b1bc ec6a 9b3c 0441 63ba 3fc8 87bc
-0.014266803 0.03159153 0.026967123 8.743852e-05 0.028576048 0.01115524 0.03979258 -0.014602224
-0.0064071217 0.042180683 0.00063447014 0.031540606 -0.0038170377 -0.0046432624 0.016178872 0.03452047
0.009898433 0.039164636 -0.0059622354 -0.03246122 -0.024171133 0.014041273 -0.0033505228 0.005382395
0.00906973 0.010537259 -0.035867106 -0.025622968 0.038537346 0.009831073 0.035979453 -0.01751002
0.002247197 0.0031672837 -0.035401624 -0.041917786 0.023026507 -0.021551238 0.00410984 -0.0009124992
0.0031438547 0.032829806 0.022548683 -0.03959323 0.00176262 -0.031129874 0.032526072 0.0037065342
0.03690409 0.018455371 0.0030338664 0.0090954965 -0.0047608493 0.034049913 -0.021880949 -0.014852521
-0.032414563 0.00046113625 -0.00949901 0.03355467 -0.02164417 0.018971883 -0.0008669051 -0.016574977

bn2.weight f4 [64]
00000000: 76ab 7b3f 368c 7f3f 3784 7f3f 481c 823f
00000010: 22bf 803f 8d48 803f edd9 7e3f 0371 803f
00000020: 3492 7e3f 9dee 803f 500e 803f b81d 803f
00000030: c022 7f3f 7538 813f 1f40 7e3f b48e 803f
00000040: 5dc0 7f3f edd3 7e3f 7155 803f 48d1 7e3f
00000050: 7f96 813f 3688 803f 1373 7c3f 60c2 7e3f
00000060: b956 803f a201 7d3f ff21 813f c9cc 7d3f
00000070: 716c 7f3f 6572 803f 4b29 803f f207 823f
00000080: 9b44 7c3f c024 7d3f 7bc4 803f 95eb 7d3f
00000090: c003 7f3f cac2 7e3f 1d99 803f 7ebd 7b3f
000000a0: dcf3 7d3f 7f5a 803f d10c 813f cdb2 7f3f
000000b0: 9c74 7e3f f121 7f3f eaa8 813f e935 7f3f
000000c0: 24e5 803f e01e 7e3f fbc1 803f d6a6 803f
000000d0: 1728 7f3f 9530 7f3f 6495 7e3f 72ef 7f3f
000000e0: c773 7e3f b28c 7d3f 0965 813f 9a16 7d3f
000000f0: 0c81 7e3f c652 803f 9ef9 803f 7012 803f
0.98308504 0.9982332 0.9981112 1.0164881 1.0058329 1.0022141 0.9955128 1.0034488
0.9944184 1.0072819 1.0004368 1.000907 0.996624 1.0095354 0.9931659 1.004355
0.999029 0.99542123 1.0026075 0.9953809 1.0124053 1.0041568 0.9861309 0.9951534
1.0026466 0.98830616 1.00885 0.991406 0.99774843 1.003491 1.0012602 1.0158675
0.98542184 0.988842 1.0059961 0.99187595 0.996151 0.99515975 1.0046726 0.9833602
0.99200225 1.0027617 1.0082036 0.99882203 0.9939668 0.99661165 1.0129673 0.99691635
1.0069928 0.9926586 1.0059198 1.0050914 0.9967055 0.99683505 0.994467 0.9997474
0.9939541 0.9904281 1.0108958 0.9886261 0.9941566 1.002526 1.0076177 1.0005627

bn2.bias f4 [64]
00000000: 2aac 54bc 277c f8ba 35e9 ecba 4136 bfba
00000010: 9147 0a3c b4d2 98bb 021b f9bb 7f67 41bb
00000020: 5260 53bb 627a 223c d926 7739 1bd7 453b
00000030: 92eb afbb 432a c03b 2aa8 b93a f36c 193c
00000040: ee0a 413b 2ca4 faba 6b8b 103c a0c7 0abc
00000050: 1556 be3b 761c 1d3c 0efa 08ba 9d95 70bb
00000060: efac 0fbb 584c b43b c7e2 d13b a167 17bc
00000070: 7e47 0f3a ff9d e53b a8f7 d23b e0aa fb3b
00000080: 2806 80bb edc4 a0bb 466a 723b ff8d 85bb
00000090: debf f13a a672 103c 45fa 803b cb73 2fbc
000000a0: a904 41bb 26df 2e3b 57d1 96ba 45cf 963b
000000b0: d122 9abb 30e9 823b 0f31 ef3b 833e 8cbb
000000c0: 9dc8 11bb d890 1fbc e0e4 523b 52b5 1c3b
000000d0: e0b2 db3a e374 1fbc 7a6c c0bb cbf8 de3b
000000e0: 1e7d 99ba a8c3 4abc c2cb 533c 0c87 3ebb
000000f0: 9ebb 4dbc 5b69 d43b 2b0a ed3b af39 89bb
-0.0129805 -0.0018957899 -0.0018074872 -0.0014588312 0.008439914 -0.0046637896 -0.0076020965 -0.0029511151
-0.0032253456 0.009916874 0.00023570227 0.0030188027 -0.0053686583 0.005864413 0.0014164497 0.009364354
0.0029455977 -0.0019122413 0.008822302 -0.008470446 0.0058086016 0.009589305 -0.00052252493 -0.003671027
-0.0021923145 0.005502265 0.006405208 -0.009241016 0.000546567 0.00700736 0.0064382143 0.007680282
-0.003906984 -0.004906288 0.0036989613 -0.004075765 0.0018444022 0.008816397 0.0039360845 -0.01070876
-0.002945224 0.00266833 -0.001150648 0.004602345 -0.0047038575 0.0039950833 0.0072995494 -0.004279913
-0.002224482 -0.009739123 0.0032179877 0.0023911786 0.0016761683 -0.009732458 -0.0058723064 0.006804561
-0.0011710261 -0.01237575 0.012926998 -0.0029072193 -0.012556938 0.006482286 0.007233878 -0.0041877846

bn2.running_mean f4 [64]
00000000: cf7d 913e 2499 f2bd a5c8 b2be 8997 983e
00000010: 2773 aa3e 28e2 afbc 9bbb 8f3e d9f4 9d3e
00000020: 37d1 9dbe af17 443e 9c57 2f3d 6994 adbd
00000030: 197a b9be 7894 b63e d19b 08be 1bfc df3e
00000040: 373f b2be 793b 863d 32ad 0e3d 0d17 cf3d
00000050: 09ca fe3e b5df b2be c097 b3be d402 003f
00000060: 01a1 833e fb94 233e b809 103e 319c 583c
00000070: 601a e33e f548 04bf 28f8 593e a463 6c3d
00000080: 82cb f6bd 12f1 223c 5169 05be 4d7b 95be
00000090: 974b 56bf 899c 87be e135 283f 2990 03bf
000000a0: 685c f9be 83e6 fcbe 1ec7 e13e 4fe8 a13e
000000b0: bf88 2dbf d82a 63be ae90 623e fa7b b93e
000000c0: 86df 6e3e cb49 debe b80a bd3e 3b0c fabd
000000d0: 7184 14bf 1337 b9be 16aa fa3c 871c adbd
000000e0: 8008 c83e a496 2a3d b82d ba3e 5a27 f0bd
000000f0: 6361 7e3e ee4f 36bc 3bb4 f63e 341e 9cbe
0.28416297 -0.118456155 -0.34918705 0.29803112 0.3329098 -0.021470144 0.2807282 0.30850866
-0.3082368 0.1914966 0.04280816 -0.084755726 -0.36225966 0.35660148 -0.13340689 0.4374703
-0.34813854 0.06554312 0.03483314 0.101118185 0.49763516 -0.349363 -0.35076714 0.50004315
0.25708774 0.159748 0.14066207 0.013220833 0.4435606 -0.51673824 0.2128607 0.057712212
-0.12050535 0.009945171 -0.13028456 -0.29195634 -0.8370909 -0.26486614 0.6570721 -0.51391846
-0.48703313 -0.49394616 0.44097227 0.3162255 -0.6778678 -0.22184312 0.22125503 0.362274
0.23327455 -0.43415675 0.3692224 -0.12209364 -0.5801459 -0.3617483 0.030598681 -0.08452707
0.39068985 0.04164757 0.36363006 -0.11726256 0.24841838 -0.011127455 0.4818438 -0.30491793

bn2.running_var f4 [64]
00000000: cc97 c13e c2d0 6f3e 1a50 ca3e 9f73 793e
00000010: 395f 8f3e 8244 5a3e 485f ae3e 7051 983e
00000020: e224 a93e 0f58 a23e 5583 753e 65d9 4e3e
00000030: 419a 923e d270 c03e e409 863e ef9e a53e
00000040: 0adb c93e 453d 973e 5ad2 533e 2496 973e
00000050: c330 013f 6497 be3e 425d bc3e a0ef fc3e
00000060: 8810 6c3e d8cd 933e 1dd2 923e f495 6c3e
00000070: ccad bf3e f830 0d3f 94f4 833e 1772 373e
00000080: d65e b73e aab6 743e efe0 7e3e 6985 9b3e
00000090: a761 633f a414 9d3e f914 0a3f a68e f23e
000000a0: 2ae6 cd3e a65c e23e 1cd2 e53e 826b e73e
000000b0: 9613 203f 78cf a03e e13e 7c3e a03f b63e
000000c0: 40d5 863e 9d12 d03e c870 c93e e0b8 aa3e
000000d0: 0dde 063f 1425 ad3e 9633 553e f069 9a3e
000000e0: eb0a b33e 1b04 5a3e 8022 ba3e b098 b43e
000000f0: c241 853e 2791 593e 30c5 da3e 0a09 9a3e
0.37811124 0.23419479 0.39514238 0.24360512 0.28002337 0.21315196 0.3405707 0.29749632
0.33035952 0.31707808 0.2397588 0.20200117 0.2863331 0.37586075 0.2617942 0.3234782
0.39424926 0.29538932 0.20685712 0.29606736 0.5046503 0.37224877 0.367899 0.4940157
0.23053181 0.28867984 0.2867593 0.23104078 0.37437284 0.55152845 0.25772536 0.17914616
0.35814542 0.23897806 0.24890493 0.3037522 0.8882088 0.3067981 0.5393825 0.47374457
0.40214664 0.4421131 0.44886863 0.4519921 0.62529886 0.31408286 0.24633361 0.35595417
0.26334572 0.406392 0.39343858 0.33344173 0.5268257 0.3381735 0.2082046 0.3015895
0.34969267 0.21290629 0.36354446 0.3527274 0.26026732 0.21246777 0.42728567 0.3008502

conv3.weight f4 [64, 64, 3, 3]
00000000: 19cc 053d d6dd 70bc 9551 7d3b 7445 d53b
00000010: e50b c23c 63f0 da39 a679 c13c 24ad 453c
00000020: 11f2 af3c f746 d4bc 2caf 88ba 3a6a ee3c
00000030: 0c97 8a3c 4007 06bd c3dd d43c a7d2 b73c
00000040: 8ec8 043d 86f8 47bc 1128 5b3c c484 2bbb
00000050: 77f3 f9bc 982b eabb e25e 22bb 320a ecba
00000060: 7118 78bc 41b3 b83c 2cc9 9fbc 96d9 4b3d
00000070: ae31 4abc 4c2a a6bb c844 973c 4af8 d63a
00000080: 01f4 283d d066 473b 162d 6a3b 3f75 363c
00000090: 6113 163d e7e6 f4bc 41f9 16bd 9257 9fbb
000000a0: 980b babb 8c20 cc3c 2a6e c7bc 6e29 c53b
000000b0: c489 2abc ca29 0bbd b898 553c 4793 e5bc
000000c0: dced 003c 0b95 0f3d 9e5f 62bc c586 363c
000000d0: c6cc bdbc c415 05bd 7dbf 52bc 2667 d23b
000000e0: a066 dd3a cceb 243d 42ae e3bc d8e0 38bc
000000f0: 65af 2f3d d343 2f3d c663 b83c d920 293d
00000100: 50dc bfbc 128f 083d 1ca9 253d e04c 113c
00000110: 219d f23c 5b78 4f3b 69f2 f3bc 196e 363b
00000120: ae6b f2bc 9cc2 be3c e842 ff3c 0d84 093d
00000130: 60a6 22bb 4ff5 82bc 9eca fdbc 8a14 58bb
00000140: e52d 6c3c 0c2b 3bbc 3b6c ba3c 43ca cebc
00000150: aa3c 633c 1d66 14bd abd1 4f3c b6ea 20bd
00000160: 907e c3bc 3f09 cf3c db5f b03c d39a ffbc
00000170: 8ac8 9bbc 838f fcbc 35f2 a6bc cc79 aabc
00000180: 9864 e5bc 7a07 d63a b0b2 b2bc ceaa 17bd
00000190: 50f8 ddbc 2b87 743b 5921 153c 2444 e33c
000001a0: 7984 af3b 0655 903c 94a1 0cba e1fd 05bd
000001b0: 55ba 31bb fd37 25bd 59d4 2bbd bbf3 ffbb
000001c0: 77f3 4cbc 2b35 19bd 53f7 013d 4c80 b7bc
000001d0: 178a 223d 4d3c 01bc c07f 8a3c 01e7 863c
000001e0: 2c87 0b3d 97af ca3c a203 84bc e9f6 b63c
000001f0: eb0f 8c3b a4ca 9dbc af7f 11bd d0b0 723c
00000200: b4f4 e6b9 7401 543d 0dcf 14bc ebdc c7bc
00000210: e0d9 92bb 61b3 a3bc 752c 8abc e0a9 d0bc
00000220: 9f6e 723c 6530 0a3d e498 103d 4aaa 143d
00000230: e360 7fbc 2f09 26bd 67e7 413c cc0c a23b
00000240: 1252 cdbc dbcb 193d d347 053d 5ec4 1cbd
00000250: 400f 53bc 9c67 363b 5126 263d b268 bc3c
00000260: 611d 35bd aeb1 f23c ec13 d33c 3380 02bd
00000270: 57df d9bc fc5a ba3c c054 ec3b c9e7 a23a
00000280: d245 9bbc 1af7 1ebc 6192 133d 89be 883c
00000290: e0e1 7e3b 54b8 05bd 43f1 dfbc 425b ca3a
000002a0: 3c46 8cbc 06c7 cfbc 66ce 193d bdff aa3b
000002b0: 9582 95bc 1892 febc 3ab2 da3c 00f6 cc3a
000002c0: 4386 273d 9c68 cd3a f70d e3bb 7a5d 2fbd
000002d0: 833d fdbb bda2 edbc 45ce 0a3d 282a f6bc
000002e0: e0e2 b3bc 5f31 103d 9bf0 8dbc eeca a4bc
000002f0: 6bc6 88bc 9475 d03c c0b4 203d ad71 f9bc
00000300: e680 383d 4d27 2bbc 3ec4 23bc 867b a6bc
00000310: d6cf 4cbb 3aef 17bd e4cf 053d 7e63 65bc
00000320: a499 a6ba cc04 b4bb 20c5 cbba 935e 143d
00000330: c6e0 ff3c 241b f2bc 926e 62bc 81b4 a63c
00000340: 1300 60bc ce50 1d3d 668b f0bc cce1 223d
00000350: c27a 4f3c df02 a0bc f7d7 12bd 67d5 d3bc
00000360: fab3 133d 5a70 073d 110c e2bb 0cc9 f53c
00000370: 5871 08bc 5066 1abd 99e3 20bd 9aa7 cbbb
00000380: 55e8 11bc 8eae 033c e55f 893c 7ad5 9d3c
00000390: d286 c4bc 561b 55bb 9656 5c3c c02a 973c
000003a0: f5b4 273b 0517 a0bb 741e e73c 2f00 ea3b
000003b0: 68f3 b23b 092b 083c ac6d 0abd a418 853b
000003c0: c59c 8a3c f706 04bd fbb1 e7bc 2fe2 6d3c
000003d0: 4a44 ec3b 2ec6 0e3d b85c 543c 833f fe3b
000003e0: b93b 5c3c 702c ddbc 7dea 4fbc 1aff 81bb
000003f0: 5cff 863c f119 1dbd 23d6 b93c e10e fcbc
0.032665346 -0.014701327 0.0038653363 0.0065085236 0.023687312 0.00041759302 0.023617577 0.012065206
0.021477731 -0.025912745 -0.0010428182 0.029103387 0.016917728 -0.032721758 0.02598465 0.022439314
0.032417826 -0.012205249 0.013376252 -0.0026171664 -0.0305116 -0.00714631 -0.0024775793 -0.001800841
-0.015142546 0.022546412 -0.019505106 0.049768053 -0.012340946 -0.00507096 0.018465415 0.00164009
0.041248325 0.0030426271 0.003573244 0.011136352 0.036639575 -0.029895259 -0.0368588 -0.004862734
-0.0056776516 0.024917863 -0.024344523 0.0060169017 -0.010408822 -0.0339754 0.013036899 -0.028024329
0.00786921 0.035054248 -0.013816742 0.01114053 -0.023168933 -0.03249146 -0.012863037 0.0064209877
0.0016891547 0.040263936 -0.027793054 -0.011284076 0.04289188 0.04278929 0.022508513 0.04129109
-0.023420483 0.033339567 0.04044448 0.008868426 0.02961594 0.003165743 -0.029778676 0.002783662
-0.029592361 0.023286156 0.031159833 0.0335732 -0.0024818406 -0.015986113 -0.030980404 -0.0032971227
0.014415239 -0.011423837 0.022756686 -0.02524293 0.013869444 -0.036230195 0.012684266 -0.039286338
-0.02386406 0.025272964 0.021530082 -0.031201756 -0.019016523 -0.03083015 -0.020379165 -0.02081003
-0.028002068 0.0016329132 -0.02181372 -0.037028126 -0.027095944 0.0037312012 0.009102189 0.027742453
0.005356368 0.017618667 -0.0005364653 -0.03271282 -0.002711912 -0.040336598 -0.041950557 -0.0078110374
-0.012509218 -0.03740422 0.031730007 -0.022400044 0.039682474 -0.007887912 0.01690662 0.016467573
0.034064457 0.02474193 -0.016115014 0.022334533 0.0042743585 -0.019261666 -0.03552216 0.014812663
-0.00044051337 0.0517592 -0.009082568 -0.024397334 -0.004481539 -0.019982995 -0.016866902 -0.025471628
0.014796882 0.03373756 0.035302058 0.036295213 -0.015587064 -0.040536102 0.011834956 0.004945373
-0.025063548 0.037547927 0.0325392 -0.038273208 -0.012882054 0.0027832752 0.040563885 0.022999141
-0.04421747 0.02962574 0.025766335 -0.03186054 -0.026595755 0.022748463 0.0072122514 0.0012428697
-0.018954191 -0.009702468 0.03602827 0.016692417 0.0038891956 -0.032646492 -0.027336722 0.0015438574
-0.017123334 -0.025363456 0.037550353 0.0052184747 -0.018250743 -0.031075522 0.026696313 0.0015637279
0.040899526 0.0015671435 -0.006929155 -0.042813756 -0.00772828 -0.029008264 0.03388812 -0.030049399
-0.021958768 0.035203334 -0.017326644 -0.020116296 -0.016696176 0.02544669 0.039234877 -0.030449713
0.045044802 -0.010446382 -0.009995518 -0.020322572 -0.003125181 -0.03709338 0.032668963 -0.014000772
-0.0012710583 -0.005493736 -0.0015546419 0.036223006 0.03123511 -0.029553957 -0.013820307 0.020349743
-0.013671893 0.03840714 -0.029363345 0.039766118 0.012663545 -0.019532619 -0.03585049 -0.025858594
0.03606031 0.03306613 -0.006898411 0.030003093 -0.0083278045 -0.03769523 -0.039279554 -0.006215048
-0.00890549 0.008037223 0.016769359 0.019266833 -0.023990069 -0.0032517514 0.013448378 0.018453002
0.0025590037 -0.0048855566 0.028212763 0.007141135 0.005461145 0.008311042 -0.033795998 0.0040617753
0.016920457 -0.032233205 -0.02828311 0.014519258 0.007210289 0.034856968 0.012961559 0.007759036
0.013441973 -0.026998729 -0.012690184 -0.003967178 0.016479187 -0.038354818 0.022685116 -0.030768814

conv3.bias f4 [64]
00000000: a070 01bd d7d1 e83c 4979 073d d005 74bc
00000010: 2ba8 c63c c97b e43b b017 d83b 1d19 023c
00000020: b979 d33b 6b2b ebbc 17e7 c7bb 0866 143d
00000030: 860c 763c 1904 85ba eb78 fdbc 7f32 8abc
00000040: 6f9e f73c 6e5b 66bc d13a 1d3d a3d5 c13c
00000050: 847c fd3c 961a bd3b 8a48 0e3c 6e29 babc
00000060: 1297 de3c bcad 06bc 515a debc e21a ee3c
00000070: 5fa2 2a3d b822 2a3b 2d36 3b3b 44eb de3c
00000080: 6844 e9bb 5615 6cbc a894 4439 d267 8cbc
00000090: d775 df3c da23 23bd 8b3f e63a 4d7b 0b3d
000000a0: feee 3dbc 1b72 ffbc 40ac 9c3c 9af1 16bd
000000b0: 3a06 223d 6960 113d 0917 153d bfdf 9e3c
000000c0: 9855 e0bc ef55 0fbc 04c5 80bc f8c7 0cbd
000000d0: 2c7b b4bc 12e5 d33c 7da0 6ebc 1c42 babc
000000e0: c992 1a3d 1a80 21bc 1325 253d 5bdf c3bc
000000f0: 9586 21bd f4ff 4fbb 6b3d b6bc d912 4039
-0.03160155 0.028420372 0.03307465 -0.014893964 0.02425011 0.006972764 0.0065946206 0.007940558
0.0064537195 -0.028707227 -0.006100546 0.036230117 0.015017634 -0.0010148316 -0.030941447 -0.016869782
0.030226914 -0.0140598845 0.03838617 0.02366144 0.030943163 0.0057709916 0.008684287 -0.022724833
0.027171645 -0.008220132 -0.027142676 0.029065553 0.041658755 0.0025960635 0.0028566227 0.027211793
-0.0071187504 -0.014409384 0.00018747395 -0.01713935 0.02727787 -0.039829113 0.0017566545 0.034053136
-0.011592625 -0.03118234 0.019125104 -0.036851503 0.03955672 0.035492335 0.03639892 0.0193938
-0.027384564 -0.0087485155 -0.015718944 -0.034370393 -0.02203139 0.025866065 -0.014564631 -0.022736602
0.03773764 -0.009857202 0.04031856 -0.023910215 -0.039434988 -0.0031738253 -0.022246083 0.00018317568

bn3.weight f4 [64]
00000000: 7247 7e3f ea41 813f 0804 813f b663 813f
00000010: 212f 7e3f 2915 7f3f 5e86 803f dce1 7f3f
00000020: 09d9 7e3f 2d31 803f e497 803f 0da6 7f3f
00000030: 9b1c 7f3f 93ed 7c3f 235d 7e3f 0393 7f3f
00000040: 6a50 7f3f abd6 7f3f 6ba9 7d3f e210 803f
00000050: e407 823f 9e8e 7f3f 922e 803f 26d6 7f3f
00000060: 713e 813f 755e 7e3f 5b2e 803f f77b 803f
00000070: 325b 7f3f f76b 803f d1a6 803f 6a67 7d3f
00000080: 87c2 7d3f 2547 7f3f 3728 813f 4b79 7e3f
00000090: 43a3 7d3f 9f91 7c3f 29d7 813f b2ae 813f
000000a0: 1b99 7f3f 21dc 803f 14b4 7d3f dfd4 7c3f
000000b0: c4fc 7e3f 8167 813f f1c4 803f fa04 7f3f
000000c0: 4994 7f3f 329e 803f bae7 7f3f 17e2 7d3f
000000d0: 9179 813f 229f 803f ae77 7e3f 0d78 7f3f
000000e0: e61f 7e3f a73d 813f 31ea 813f 5645 813f
000000f0: 81e6 7f3f f05b 803f 1c91 803f 9b74 7e3f
0.99327767 1.009824 1.0079355 1.0108554 0.99290663 0.9964166 1.0041006 0.9995401
0.9954992 1.0015007 1.0046353 0.9986275 0.99653023 0.9880001 0.99360865 0.998337
0.9973208 0.9993693 0.99086636 1.0005152 1.0158658 0.9982699 1.0014212 0.9993614
1.0097181 0.9936288 1.0014147 1.0037831 0.9974853 1.0032948 1.0050908 0.9898592
0.9912495 0.9971793 1.0090398 0.9940383 0.9907724 0.986597 1.0143787 1.0131438
0.99842995 1.0067178 0.991029 0.98762316 0.9960444 1.0109712 1.0060102 0.9961697
0.9983564 1.0048277 0.9996296 0.9917311 1.0115224 1.0048563 0.99401367 0.9979256
0.99267423 1.009694 1.0149595 1.0099285 0.99961096 1.0028057 1.0044284 0.99396676

bn3.bias f4 [64]
00000000: fd1c 9cbb ab21 e63b e155 003c c212 fbba
00000010: b280 8b3a 22c2 d73b 1ab1 8fbb e938 033c
00000020: df1e 00ba 6e45 a83b 624d b93b ecd4 01bc
00000030: 101d 4e3c 6ad7 95bc 95ca cfbb 884c 703b
00000040: 9f21 093c a1f1 aebb 6a65 58bc 5f74 5ebb
00000050: 6942 87bb 782f 753b df63 90bb 64ae 283c
00000060: 6795 69bb b615 58bc 5f22 493b 07bd 1abc
00000070: e3b8 d1ba 2d16 253c 9674 81bb 6e5c 553b
00000080: 47d8 0dbc ec71 84bb ee62 10ba d9b5 263c
00000090: 218e 81bb 6830 c6bb dd6c fe3b 97c0 5d3c
000000a0: 4211 353b 8803 cebb 7b3e 8fbb 2d79 4dbc
000000b0: df6e e1bb 81a2 243c 7c25 003a 62e9 27bb
000000c0: f12e cabb d9d2 71ba c021 4b3a 7f50 0bbc
000000d0: e0e1 cb3b 87c2 d93b 7264 fab9 def5 5cba
000000e0: 94e5 e6bb 7027 553c 4b98 3cbb 7c60 01bc
000000f0: 70a4 a23a bea1 6e3b 6fdb 293b 029d 1b39
-0.004764198 0.0070230565 0.007832975 -0.001915537 0.0010643213 0.0065844217 -0.004385126 0.008009174
-0.00048874127 0.00513523 0.0056549767 -0.0079243 0.012580171 -0.018291194 -0.0063412883 0.003666671
0.008369832 -0.005338863 -0.013207773 -0.0033943874 -0.0041277898 0.0037412327 -0.004406437 0.010295484
-0.003564203 -0.01318877 0.0030690653 -0.009444482 -0.0016000535 0.010076088 -0.0039506657 0.0032556313
-0.008657522 -0.004041901 -0.0005507906 0.010175192 -0.0039537107 -0.006048251 0.0077644424 0.0135346865
0.0027628695 -0.006287042 -0.004371462 -0.012541098 -0.006879672 0.01004851 0.0004888398 -0.0025621285
-0.0061701466 -0.0009224839 0.00077488646 -0.0085030785 0.0062219948 0.006645504 -0.00047758553 -0.0008428971
-0.007046411 0.013009891 -0.0028777297 -0.007896539 0.0012408625 0.0036412324 0.0025918146 0.00014840442

bn3.running_mean f4 [64]
00000000: a4cd 64be bf68 86be c880 7c3e 136b 5b3f
00000010: 261b 3abe f921 df3e 1480 1d3f 022f fe3c
00000020: 90ec c1be a7d4 b4be e816 0d3f bc25 483e
00000030: 4886 91be 70d4 643e 9867 dabd b028 883d
00000040: da82 fbbe 4c89 923d 6843 fa3e ca32 5e3e
00000050: a39b 253f 5c7a c9be de30 933c efcd afbd
00000060: 9ece c53e 1a39 98be ab9b 4e3d 49d6 533e
00000070: 0535 79be e4ae f0be d6e9 143f 592f 14bf
00000080: 8855 b5be c797 513e 7c2a 0b3f eb79 11be
00000090: cb68 0fbf 0756 66bf 9e7a 503f 5ec6 80bd
000000a0: c624 88be 95be 003f 456a 0c3e 9a0c 19be
000000b0: a4dd 0cbf ba1e 52be 36fd aa3e a6c1 cabe
000000c0: ffb9 fa3e b4fc 1c3f b5ae f5bc def0 e1be
000000d0: 98cc 9ebe 338d 733e dce8 803e ed89 e5be
000000e0: 5811 aa3c 2824 9c3e fd6f 143f 5a41 203f
000000f0: 957e 803e 9216 1c3f e884 b5be 8eaf a13e
-0.2234407 -0.2625179 0.24658501 0.8571026 -0.18174419 0.43580607 0.61523557 0.031028274
-0.37875795 -0.3531849 0.5511308 0.19545645 -0.2842276 0.22346663 -0.1066429 0.066483855
-0.4912327 0.071550936 0.48879552 0.21699062 0.6469061 -0.39351165 0.017967638 -0.085842006
0.386342 -0.29731065 0.050441425 0.20687212 -0.24336632 -0.4700843 0.58169305 -0.57884747
-0.35416818 0.20468055 0.543617 -0.14206664 -0.56019276 -0.8997502 0.814371 -0.062878355
-0.26590556 0.50290805 0.13712414 -0.14946213 -0.55025697 -0.20519534 0.3339631 -0.39600867
0.4897003 0.61323094 -0.029990533 -0.4412908 -0.31015468 0.23784332 0.25177658 -0.44831792
0.020760223 0.30496335 0.5798338 0.6259972 0.25096574 0.6097194 -0.35452962 0.3157925

bn3.running_var f4 [64]
00000000: 241e 6c3e 0064 e23e b5e9 9f3e 8a0d 113f
00000010: 3e9f 043f f8b7 a43e 6249 c93e 863e d23e
00000020: c60e 083f c074 5b3e 37e7 cb3e 7520 9f3e
00000030: d5be 743e d76c 823e e0c4 373e 32b9 403e
00000040: 4799 123f 2a77 ee3e 77d4 983e a89b 1f3e
00000050: 3f05 073f faaa 143f 08cd 613e 3fbd 963e
00000060: be89 943e 5d70 613e e35d 053f b9e9 593e
00000070: 0ae9 c43e 4012 fb3e 43a4 383f 0002 bb3e
00000080: c4a5 633e 720f d03e 2072 023f a999 fe3e
00000090: 8754 233f d980 0d3f 9d59 3e3f 25bb a43e
000000a0: a1a3 d73e eff1 263f 3062 a93e 342f 593e
000000b0: c2c0 8e3e e8f2 9c3e 5bbd fb3e 1820 813e
000000c0: 3a1c d93e 26c3 043f f2d9 8f3e f9b0 1b3f
000000d0: d7fa 9b3e b875 323e 92d8 bc3e 5d96 183f
000000e0: 7a78 4a3e b0be aa3e aaea 113f b56b ad3e
000000f0: d4ec 7c3e 0b91 2c3f f729 ab3e fce9 823e
0.23058373 0.4421692 0.31232992 0.56661284 0.51805484 0.32171607 0.393138 0.41063327
0.5314754 0.21431255 0.3982484 0.3107945 0.23900922 0.25473663 0.17946196 0.18820646
0.5726513 0.4657529 0.29849598 0.15586722 0.5274238 0.5807339 0.2205087 0.29441258
0.2901134 0.2201552 0.52096385 0.21280564 0.38459045 0.4903736 0.72125643 0.36524963
0.22231203 0.40636784 0.5095539 0.49726608 0.63800853 0.5527473 0.7435549 0.3217403
0.42117026 0.6521291 0.33082724 0.21209413 0.27881438 0.30654073 0.49167904 0.25219798
0.42404348 0.5186027 0.28095967 0.60816914 0.30464813 0.17427719 0.3688398 0.59604436
0.1977252 0.33348608 0.56998694 0.33871236 0.24699718 0.6740882 0.33430454 0.2556914

policy_conv.weight f4 [2, 64, 1, 1]
00000000: d385 f73d 90a7 9cbd 98d3 7f3d c99e fcbb
00000010: 80c0 96bd 3ebc fa3d dd29 03bd d25b e43d
00000020: 1b6e d9bd b81a 183d e81e df3d 9b50 ebbd
00000030: a861 9dbd a8e8 fbbb 3dba 093d 1fa3 a83c
00000040: a03d 33bd e6a0 013e 0364 bcbd fd70 2b3c
00000050: 23a2 c23d 6652 eabd 7461 213d 4e82 ca3d
00000060: ade2 02bd ce6e 7bbd c1f0 fe3d f618 813d
00000070: b412 6dbd af4c fbbc 8d6d 0a3d 006a a63c
00000080: e5cd f4bd fea0 ddbd 9715 b63d 3e28 c3bd
00000090: 7874 053d dbdc e93c 3137 603d 9946 61bd
000000a0: ad5c 28bb 1ee2 3c3c a39c 7c3d f564 b63c
000000b0: 71c0 e03c 1ed9 d5bc 127e 013e 1759 3cbc
000000c0: dd47 9e3c a425 d63d 52fe 1e3c d724 edbd
000000d0: 1daa 5dbd b74c 92bd c2dd c33d c53d 78bd
000000e0: d5b1 08bd 2f2c 9f3d 333d 193d 6dff 923c
000000f0: 9e5b cb3d 0b64 ca3d 95c8 e1bd 4e2d 623c
00000100: c517 903c b0e1 0fbd e64a 573c 3765 02be
00000110: 2115 963d 121f 493d 4083 c4bd c0fc afbc
00000120: 1d52 df3a e6a8 403d bd3a 1fbd 6e8c ccbb
00000130: 8895 e73d ea50 af3c b655 f23d 7917 af3c
00000140: f2ad 213d c336 3a3d 0bc7 91bd ce99 bc3d
00000150: 7f43 03be ac5a 99bd 7e32 8cbd e18c af3d
00000160: e2cb c4bd ad99 973d 2eaa 8c3d be74 003d
00000170: df95 5fbc fa17 953c 99f9 dabd e77f 97bb
00000180: 84a7 9e3d 1ade 00be fc1f 7abd cc94 b03d
00000190: a285 9bbd 71b0 94bb 54d0 f8bd 0894 03bc
000001a0: 5bcc f93d 161e 50bd a722 243d aec1 173d
000001b0: f81b 1dbc d03b 843d 1de1 84bd a089 713c
000001c0: 766e 93bd 3acf 9cbd e305 343d b052 a23d
000001d0: 53c4 ccbd 8687 74bb 150e b53d fd8c e4bc
000001e0: ffa9 babc 281f 3f3d 201e cdbd 6bf4 30bb
000001f0: f261 513c 6ecc 34bd b633 e83d 0895 bbbc
0.12086072 -0.076491475 0.06245765 -0.0077093584 -0.07360935 0.122429356 -0.032022346 0.11150326
-0.10616704 0.037134856 0.10894567 -0.11489984 -0.07684642 -0.007687647 0.033624876 0.020585595
-0.043759942 0.12659034 -0.09198763 0.01046395 0.095035814 -0.114414975 0.03939958 0.09888135
-0.031954456 -0.06138497 0.12448264 0.06303589 -0.057879165 -0.030676214 0.033795882 0.020314217
-0.11953334 -0.108217224 0.08890837 -0.0952916 0.032581776 0.028547695 0.054740135 -0.054998968
-0.0025690005 0.01152852 0.061672818 0.022264937 0.027435513 -0.026104506 0.12645748 -0.01149585
0.019321376 0.10456398 0.009704189 -0.11579292 -0.05411731 -0.071435384 0.09563781 -0.060605783
-0.03337272 0.07772099 0.03741188 0.017944062 0.09929584 0.09882363 -0.11024586 0.013804747
0.01758946 -0.03512734 0.013140416 -0.12733923 0.07328249 0.049101897 -0.095953465 -0.021482825
0.0017038021 0.047036074 -0.038874377 -0.0062423265 0.11307818 0.021400888 0.11832754 0.021373497
0.039472528 0.04546238 -0.071180426 0.092090234 -0.12818716 -0.074879974 -0.06845568 0.085717924
-0.096092 0.07402358 0.06868397 0.031361334 -0.013646572 0.01819991 -0.10692138 -0.0046234014
0.07746795 -0.12584725 -0.06106566 0.08622131 -0.07593848 -0.004537635 -0.121491104 -0.008030899
0.12197181 -0.050809942 0.04007211 0.03704994 -0.009589188 0.06456721 -0.064882495 0.014742285
-0.07198803 -0.07656713 0.043950927 0.07925928 -0.099983834 -0.0037312224 0.088405766 -0.02789926
-0.022786139 0.046660572 -0.100155115 -0.0027001153 0.0127797 -0.04414027 0.11337988 -0.022898212

policy_conv.bias f4 [2]
00000000: d72c b8bd ea95 a2bc
-0.089929275 -0.019846875

policy_bn.weight f4 [2]
00000000: 6f02 7a3f c57c 7b3f
0.97659963 0.9823726

policy_bn.bias f4 [2]
00000000: 6b17 b6bc 0724 37bc
-0.022227963 -0.011178023

policy_bn.running_mean f4 [2]
00000000: 3f11 943d b8ec 86bd
0.07229852 -0.06588119

policy_bn.running_var f4 [2]
00000000: be85 bb3f a4fd 1d3f
1.465019 0.6171515
