models/connect4_model_epoch_4.pth (torch, 329001 bytes, 30 tensors)

conv1.weight f4 [64, 1, 3, 3]
0	0xbe95477f	-0.2915611
1	0xbe7c38fc	-0.24631113
2	0xbe74eab2	-0.23917654
3	0xbe53f89a	-0.20700303
4	0xbe667a83	-0.22507672
5	0x3be9e41e	0.0071377894
6	0xbe11f74c	-0.14254493
7	0xbdabb541	-0.08384181
8	0x3eb119cf	0.34590003
9	0xbd2b7edb	-0.041869026
10	0x3d393771	0.04521889
11	0xbe4e317a	-0.20136061
12	0xbdd1ba04	-0.10240558
13	0xbd747507	-0.05968192
14	0xbe4afac3	-0.1982222
15	0xbdbbb97c	-0.09166238
16	0xbd7768bd	-0.06040262
17	0xbdc930a3	-0.0982373
18	0x3d543518	0.051808447
19	0x3b9ed7ee	0.004847518
20	0x3d66f169	0.05638257
21	0xbe124885	-0.14285477
22	0xbe4b809e	-0.19873282
23	0x3cb0b779	0.021571862
24	0x3ea12a53	0.31477603
25	0x3e5fff10	0.21874642
26	0xbb7c24d6	-0.0038474104
27	0xbe7ef222	-0.24897054
28	0x3d0c030a	0.034182586
29	0x3e912013	0.28344783
30	0x3ea7b525	0.3275539
31	0xbd3af057	-0.045639362
32	0xbe07869c	-0.13234943
33	0x3c45776f	0.012052401
34	0x3db2896a	0.08717616
35	0xbe8cbc04	-0.27487195
36	0xbd9330f2	-0.0718707
37	0x3e7baba8	0.245772
38	0x3e4ecbba	0.20194903
39	0x3ca745a4	0.02041895
40	0xbe4e2171	-0.20129944
41	0x3e55de78	0.20885646
42	0x3e93dcc9	0.28879383
43	0xbe869c46	-0.26291102
44	0xbe82b949	-0.25531986
45	0xbea40ea1	-0.3204241
46	0x3b849b5e	0.0040468415
47	0xbeaaab8b	-0.33334002
48	0xbe7d5b71	-0.24741913
49	0xbda6b59e	-0.081401095
50	0x3d9a887e	0.07545565
51	0xbe99f75b	-0.3007153
52	0xbd9b8518	-0.07593745
53	0x3c56dbd2	0.013113933
54	0xbe947b81	-0.29000476
55	0xbd22ee43	-0.039778005
56	0x3de3c773	0.11122026
57	0xbd73d110	-0.05952555
58	0xbe644bb2	-0.222945
59	0x3e15ca3b	0.14627926
60	0xbe04dd09	-0.12974943
61	0xbd94523b	-0.07242247
62	0xbbcd574f	-0.0062665115
63	0xbe8c8994	-0.27448714
64	0xbdf9a95b	-0.12190505
65	0xbe2bbb8b	-0.1677076
66	0xbe76fadd	-0.24119134
67	0xbc803782	-0.015651468
68	0xbd925870	-0.07145774
69	0x3e73a623	0.23793845
70	0xbde0fc1d	-0.10985587
71	0x3ea814ee	0.32828468
72	0xbb5a6642	-0.003332511
73	0xbe2a3437	-0.16621481
74	0xbe7e0321	-0.24805881
75	0x3e58f5d5	0.21187527
76	0x3e8cd23e	0.27504152
77	0xbe894e3a	-0.26817495
78	0x3dc3e681	0.095654495
79	0xbe1d12f8	-0.15339267
80	0xbd506688	-0.05087903
81	0xbce56e23	-0.028006619
82	0x3ea0ade3	0.31382665
83	0x3e93f508	0.28897882
84	0xbe8608e1	-0.2617865
85	0xbe097970	-0.13425231
86	0x3d3ff841	0.046867613
87	0xbb7aa92b	-0.0038247805
88	0x3ea6022b	0.3242353
89	0x3da3f517	0.080057316
90	0xbe9006a0	-0.28130054
91	0xbd3f64e4	-0.046727076
92	0x3e86d306	0.26332873
93	0x3e88377a	0.26604825
94	0xbe71a868	-0.23599398
95	0xbe628552	-0.2212117
96	0x3e8d123f	0.27552983
97	0xbe59e91b	-0.21280329
98	0xbda271ea	-0.07931884
99	0xbe5e5d5d	-0.21715303
100	0x3d901225	0.07034711
101	0x3db86f4c	0.09005603
102	0x3e30daf9	0.17271031
103	0xbe491c41	-0.19639684
104	0x3dc8bbfb	0.098014794
105	0xbe706c3a	-0.23478785
106	0x3e688b90	0.22709489
107	0x3e71d519	0.23616447
108	0xbb064e92	-0.002049361
109	0xbe82f1d1	-0.25575116
110	0x3e856a60	0.2605772
111	0xbc0b9b24	-0.008520875
112	0x3e9bf5c4	0.30460942
113	0xbdcc6769	-0.099806614
114	0xbe75da21	-0.24008991
115	0x3e71ad56	0.23601279
116	0xbe6e1bcb	-0.2325279
117	0xbe1d75e5	-0.15377004
118	0xbc878d14	-0.016546763
119	0x3e3eda6d	0.1863801
120	0xbe9509e8	-0.2910912
121	0xbe8b38ce	-0.27191776
122	0x3eab4b6a	0.33455974
123	0xbd94acfc	-0.07259557
124	0xbe7ee7d8	-0.24893129
125	0x3d30bc68	0.04314843
126	0xbd774389	-0.06036714
127	0x3a8cf500	0.0010754168
128	0x3e6cb7cf	0.23116992
129	0x3e5c9e29	0.21544708
130	0xbe027806	-0.12741098
131	0x3d05c76f	0.032660898
132	0xbe48cf20	-0.19610262
133	0xbde3932e	-0.11112057
134	0xbe8cd493	-0.2750593
135	0x3d0450e1	0.032303695
136	0x3ca1dea4	0.019759484
137	0x3ddf717b	0.109103166
138	0xbe2294d6	-0.15877089
139	0xbe37fc81	-0.17967416
140	0xbe2a097a	-0.16605178
141	0x3e872b49	0.2640021
142	0xbc06d6e9	-0.0082299495
143	0xbe9bc8a0	-0.30426502
144	0xbe8b9b5c	-0.27266967
145	0x3e1de913	0.15420942
146	0x3c716b05	0.014734988
147	0x3e3831cb	0.17987745
148	0x3d854b05	0.065084495
149	0x3ea4133b	0.32045922
150	0x3e9ac5c8	0.3022902
151	0x3e763f22	0.24047521
152	0xbe67e893	-0.22647314
153	0xbe492b49	-0.19645418
154	0xbb23038f	-0.0024873947
155	0xbcae36cd	-0.021266365
156	0xbe3982a3	-0.1811624
157	0xbdeb2939	-0.11482472
158	0x3e8a85fd	0.2705535
159	0x3e9fd935	0.31220403
160	0xbe9748df	-0.29547784
161	0xbd141768	-0.036155134
162	0xbe640b6c	-0.22269982
163	0x3e1d5969	0.15366139
164	0x3e999b69	0.3000138
165	0x3ea00653	0.31254825
166	0xbea123ba	-0.3147257
167	0xbd6556a2	-0.055990823
168	0x3e1cb22d	0.15302344
169	0xbe77c085	-0.24194534
170	0x3dafa6f4	0.08576766
171	0x3d3a922e	0.045549564
172	0xbdab079a	-0.08351059
173	0xbe796e89	-0.24358572
174	0xbe0cceec	-0.1375081
175	0x3da09ddc	0.07842609
176	0x3d6cfe54	0.057859734
177	0x3e6a978a	0.2290937
178	0x3dd9bd4a	0.10631807
179	0x3e1ea431	0.15492322
180	0x3dacc6c3	0.08436348
181	0xbe98b8ed	-0.29828587
182	0x3ddaba0e	0.10680018
183	0xbc91abe6	-0.017782163
184	0xbbbf3ca6	-0.0058360873
185	0x3e71f009	0.23626722
186	0xbe04da75	-0.1297396
187	0xbe8ea54d	-0.2786049
188	0xbd8486a7	-0.064709954
189	0x3e8f0fe7	0.2794182
190	0xbe25ac6a	-0.16179052
191	0xbcb8d316	-0.022561591
192	0x3ea520d3	0.32251605
193	0x3d024cd2	0.031811543
194	0x3c39c2b2	0.011337923
195	0x3e7f787d	0.24948306
196	0x3e63419a	0.22192994
197	0x3d3fde61	0.046842936
198	0xbced5206	-0.028969776
199	0xbe1a628f	-0.1507666
200	0xbaf2a1e5	-0.0018511383
201	0xbe86fe52	-0.26365906
202	0x3ca572a0	0.020196259
203	0xbea5998d	-0.32343712
204	0x3e106437	0.14100729
205	0xbe36ff83	-0.17870907
206	0xbd5c997f	-0.053857323
207	0x3d6a413b	0.057191115
208	0x3e94246f	0.28934047
209	0x3e3fe1a4	0.18738419
210	0x3d2ff1c8	0.04295519
211	0xbe8a8cbb	-0.27060494
212	0x3e640aec	0.22269791
213	0x3e8cedb4	0.27525103
214	0x3ea99398	0.33120418
215	0xbc584cb4	-0.013201881
216	0x3d6ca1dc	0.05777155
217	0x3e048f73	0.12945347
218	0x3e897520	0.26847172
219	0xbe13c1b3	-0.14429359
220	0xbdb06522	-0.086130396
221	0x3e9d52f4	0.3072735
222	0xbe9d2d48	-0.3069861
223	0xbda75bd9	-0.081718154
224	0x3dfddc81	0.123955734
225	0x3e623314	0.22089797
226	0xbe04f0c2	-0.12982467
227	0xbe7e1e0d	-0.24816151
228	0xbb356b3d	-0.0027682327
229	0x3de0b3a5	0.109717645
230	0x3ea11d4a	0.31467658
231	0xbe70e73f	-0.23525713
232	0x3e611c9f	0.21983574
233	0xbd2828f0	-0.041054666
234	0x3dcb3eca	0.099240854
235	0xbcf8bd01	-0.030363562
236	0xbe594584	-0.21217924
237	0xbeab2f96	-0.33434743
238	0xbcc393cb	-0.023874184
239	0xbd07e510	-0.033177435
240	0x3c6d2e0b	0.0144763095
241	0x3e374c0b	0.17900102
242	0x3d98df8b	0.074645124
243	0x3e97ebfd	0.29672232
244	0x3e9e980f	0.30975387
245	0xbe6164ca	-0.22011104
246	0xbdab83bf	-0.08374738
247	0xbbc08d08	-0.0058761872
248	0xbcfaef0b	-0.030631563
249	0x3cdbd602	0.026835445
250	0xbea6236e	-0.32448906
251	0x3e9378fb	0.28803238
252	0xbe25d5c8	-0.16194832
253	0x3e33ed41	0.17570974
254	0x3e96337a	0.29336149
255	0x3e85a451	0.26101926

conv1.bias f4 [64]
0	0xbc10b538	-0.008832268
1	0xbe544239	-0.20728387
2	0xbaae8730	-0.0013315435
3	0x3e71caba	0.2361249
4	0x3d4067aa	0.04697386
5	0x3e31a10e	0.17346594
6	0x3da1f82e	0.07908665
7	0x3d87a5d5	0.06623427
8	0x3e044a34	0.12918931
9	0xbd003373	-0.031299066
10	0xbe0d5037	-0.13800131
11	0x3e0a6195	0.13513787
12	0x3d47efea	0.048812784
13	0x3e71c14b	0.23608892
14	0xbcc420f0	-0.023941487
15	0x3e34f459	0.17671336
16	0xbe80b454	-0.2513758
17	0xbd5572f8	-0.052111596
18	0xbe3e33ff	-0.18574522
19	0xbcf7957b	-0.030222645
20	0xbea461d4	-0.32105887
21	0xbe9a94c9	-0.3019164
22	0xbea6e2df	-0.32594964
23	0x3e59b303	0.21259694
24	0x3dfda502	0.12384988
25	0xbe3ffdda	-0.1874918
26	0xbe87104c	-0.2637962
27	0x3dd056d4	0.10172811
28	0x3e93e879	0.288883
29	0xbe3ea9f2	-0.18619516
30	0xbe0faefc	-0.14031595
31	0xbe400cd3	-0.18754892
32	0xbe5477fd	-0.20748897
33	0xbea0437a	-0.3130148
34	0x3e9b0fc2	0.3028546
35	0x3e7c2465	0.24623258
36	0x3e9a0f40	0.3008976
37	0xbb8831fa	-0.0041563483
38	0x3e5e1919	0.21689261
39	0x3d5e9083	0.054337036
40	0x3e4c2cdd	0.19938989
41	0x3e0c3d91	0.1369536
42	0x3e6cbd9a	0.23119202
43	0xbdc22291	-0.09479249
44	0xbdb858be	-0.09001301
45	0xbea3c746	-0.3198797
46	0xbde643c5	-0.11243395
47	0xbea7cff5	-0.32775846
48	0xbd9a8400	-0.07544708
49	0xbe9c2c38	-0.30502486
50	0x3dedd5f4	0.11613074
51	0xbd9149a6	-0.070941254
52	0xbd66e224	-0.05636801
53	0x3db787b0	0.08961427
54	0xbe9a9e91	-0.30199102
55	0x3ce58fb5	0.028022626
56	0xbea244a9	-0.3169301
57	0xbda9e09a	-0.082947925
58	0x3e001634	0.1250847
59	0x3e2ca24f	0.16858791
60	0x3e0aa813	0.13540678
61	0xbe81b69c	-0.25334632
62	0xbdca9a49	-0.09892709
63	0x3d060b1a	0.03272543

bn1.weight f4 [64]
0	0x3f811b8a	1.0086529
1	0x3f7f5c39	0.99750096
2	0x3f8173c8	1.0113459
3	0x3f807b59	1.0037643
4	0x3f7e6941	0.99379355
5	0x3f80a204	1.0049443
6	0x3f7ed61d	0.9954546
7	0x3f7ef9fd	0.996002
8	0x3f7fbfd7	0.999021
9	0x3f8053cd	1.0025574
10	0x3f7cd3ad	0.9876049
11	0x3f7fa8b9	0.99866825
12	0x3f7e9826	0.9945091
13	0x3f80c813	1.0061058
14	0x3f7e627e	0.9936904
15	0x3f80280a	1.0012219
16	0x3f81ab06	1.0130317
17	0x3f802c43	1.0013508
18	0x3f7e381c	0.99304366
19	0x3f813fdb	1.0097612
20	0x3f822b2d	1.0169426
21	0x3f82a5ff	1.0206908
22	0x3f8038b9	1.001731
23	0x3f7f2189	0.99660546
24	0x3f810048	1.0078211
25	0x3f80b674	1.005568
26	0x3f7de8c0	0.99183273
27	0x3f805dca	1.0028622
28	0x3f805b76	1.0027912
29	0x3f7ed486	0.99543035
30	0x3f7faec3	0.9987604
31	0x3f7c64a5	0.9859107
32	0x3f815d9f	1.0106696
33	0x3f80d774	1.0065751
34	0x3f7bea46	0.9840435
35	0x3f802d84	1.001389
36	0x3f7d94d2	0.99055207
37	0x3f7ec016	0.9951185
38	0x3f802bf4	1.0013413
39	0x3f7c7e52	0.9863025
40	0x3f8123d9	1.0089065
41	0x3f7df299	0.991983
42	0x3f80e21f	1.0069007
43	0x3f7f88cc	0.9981811
44	0x3f806e48	1.0033655
45	0x3f810a47	1.0081261
46	0x3f7b48c2	0.98157895
47	0x3f79da1e	0.97598445
48	0x3f7d7f1d	0.99022084
49	0x3f816953	1.0110267
50	0x3f8059ef	1.0027446
51	0x3f7ee3d6	0.995664
52	0x3f7ff2e6	0.9998001
53	0x3f7cf01b	0.9880387
54	0x3f811854	1.0085549
55	0x3f7e234a	0.99272597
56	0x3f7d35a7	0.9890999
57	0x3f80cd80	1.0062714
58	0x3f81b779	1.0134116
59	0x3f7efcf2	0.99604714
60	0x3f81943a	1.012336
61	0x3f800a1c	1.0003085
62	0x3f7d8393	0.9902889
63	0x3f7caa08	0.9869695

bn1.bias f4 [64]
0	0x3b8e9d5e	0.0043522557
1	0x37c26408	2.3173183e-05
2	0x3b17c1bb	0.0023156244
3	0x3bd172de	0.006391867
4	0x3bda8def	0.006669752
5	0xbc123051	-0.008922652
6	0x3c3e29d8	0.011606656
7	0xbb9e6ff4	-0.004835123
8	0xbbaa9622	-0.0052058855
9	0x3c4e4da1	0.01259175
10	0xbc977cec	-0.018492185
11	0x3b5e7232	0.0033942577
12	0x3ab6a5ad	0.0013934873
13	0x3c74ad92	0.0149339605
14	0xbb1ca3c0	-0.0023901314
15	0xbb61bfc9	-0.0034446588
16	0xbc34fb6c	-0.011046272
17	0x3bb44d62	0.005502389
18	0x3a4dfffa	0.0007858273
19	0xbc6c75fe	-0.014432428
20	0x3cbfe03e	0.023422357
21	0xbb250018	-0.0025177058
22	0xba61561a	-0.0008595899
23	0xbc80b76a	-0.015712459
24	0x3a0f2c68	0.0005461634
25	0xbb3397ac	-0.0027403636
26	0xbc38795f	-0.011259406
27	0x3a9b2130	0.0011835452
28	0xbb8bd514	-0.0042673443
29	0xbc8d6b56	-0.017263096
30	0x3b1bb4c0	0.0023758858
31	0x3c399ab6	0.01132839
32	0xbadf05e6	-0.0017015308
33	0xbc506211	-0.012718693
34	0xbc36d97c	-0.011160251
35	0xbc2f256e	-0.010690076
36	0xbae8b96e	-0.0017755458
37	0xbb93b09e	-0.0045071384
38	0xbbf3f165	-0.007444548
39	0x3b971e71	0.004611783
40	0xbaef9904	-0.0018279855
41	0x3b55acdc	0.0032604253
42	0xba97a8b7	-0.0011570667
43	0x3ae64337	0.0017567639
44	0xbb3cc9a1	-0.0028806704
45	0x3bf5c421	0.007500187
46	0x3aabfdc8	0.0013121897
47	0xbc83b51c	-0.01607757
48	0x3c0de575	0.008660664
49	0xbaef5676	-0.001826002
50	0x3bf89148	0.0075856782
51	0xbc122cbf	-0.008921801
52	0x3a458e48	0.0007536155
53	0x3bfb7f93	0.00767512
54	0x3ad42eed	0.0016188301
55	0xbae2af87	-0.0017294743
56	0xbc5fecb1	-0.0136672715
57	0x3c336412	0.010949152
58	0x3c204a58	0.00978335
59	0xbaaaf6c3	-0.0013043511
60	0x3c39e1f2	0.0113453735
61	0xba297dd0	-0.0006465586
62	0xba27c91e	-0.0006400513
63	0xbb352f72	-0.0027646688

bn1.running_mean f4 [64]
0	0xb9a6e39c	-0.0003183157
1	0xbe4d5c39	-0.20054711
2	0xbb8c9e8b	-0.0042913607
3	0x3e70ce65	0.23516233
4	0x3d411b88	0.047145396
5	0x3e3abad0	0.18235326
6	0x3dad746f	0.084694736
7	0x3d8d8073	0.06909265
8	0x3e05bbdb	0.13059942
9	0xbd11af44	-0.035567537
10	0xbe08b7f7	-0.13351427
11	0x3e073425	0.13203485
12	0x3d47b64e	0.048757844
13	0x3e7810f3	0.24225216
14	0xbc99d5f4	-0.018778779
15	0x3e3856fb	0.1800193
16	0xbe84f2fc	-0.25966632
17	0xbd4c3e41	-0.049864057
18	0xbe3efb5f	-0.18650578
19	0xbd0be666	-0.034155272
20	0xbea2d01b	-0.31799397
21	0xbe9f21e5	-0.31080547
22	0xbea24cf9	-0.3169935
23	0x3e5017d0	0.20321584
24	0x3dfb03ae	0.12256561
25	0xbe431503	-0.19050984
26	0xbe85d3d7	-0.26138183
27	0x3dce2bcb	0.100669466
28	0x3e92b9be	0.28657335
29	0xbe42fee9	-0.19042553
30	0xbe0e22b7	-0.1388043
31	0xbe411530	-0.18855739
32	0xbe588dde	-0.21147868
33	0xbea28fb9	-0.31750277
34	0x3e9dd1d8	0.3082416
35	0x3e7b1330	0.24519038
36	0x3e98132a	0.2970212
37	0x3ba22141	0.004947812
38	0x3e6198e2	0.22030976
39	0x3d7050a1	0.058670644
40	0x3e4c99d3	0.19980554
41	0x3e0d5139	0.13800515
42	0x3e7381af	0.23779939
43	0xbdc69f1c	-0.096983165
44	0xbdba5dca	-0.0909992
45	0xbea357c3	-0.31902894
46	0xbdf42dcb	-0.11922797
47	0xbea9881a	-0.3311165
48	0xbd9deb5b	-0.07710906
49	0xbe9b9870	-0.30389738
50	0x3deece76	0.11660473
51	0xbd988cf6	-0.07448761
52	0xbd5d143f	-0.053974386
53	0x3dc4e50c	0.09614
54	0xbe99dd32	-0.3005157
55	0x3d0af719	0.033927057
56	0xbea99994	-0.33124983
57	0xbdaddce0	-0.08489394
58	0x3e0708fe	0.13187024
59	0x3e3670a1	0.17816402
60	0x3e07abdc	0.13249153
61	0xbe837bf5	-0.2568051
62	0xbdc5c994	-0.096575886
63	0x3d147994	0.03624876

bn1.running_var f4 [64]
0	0x3d8ee1e5	0.0697668
1	0x3c8c93a0	0.017160237
2	0x3d66f8be	0.056389563
3	0x3da5b872	0.08091821
4	0x3dd36c0f	0.10323345
5	0x3d6a4833	0.05719776
6	0x3d17ac51	0.037029568
7	0x3d9ab9b0	0.07554948
8	0x3d9876b0	0.07444513
9	0x3da9219f	0.08258366
10	0x3dde4abc	0.10854098
11	0x3da80237	0.082035474
12	0x3dd3e610	0.10346615
13	0x3db124d0	0.086495996
14	0x3d5de08c	0.054169223
15	0x3d811d81	0.063044555
16	0x3db8e85b	0.09028693
17	0x3dc35d38	0.095392644
18	0x3df1520b	0.117832266
19	0x3d1b54f4	0.037922814
20	0x3d60d2db	0.054888587
21	0x3d680e4f	0.05665427
22	0x3d7106bd	0.058844317
23	0x3ddfe976	0.10933201
24	0x3d80d817	0.06291216
25	0x3da87285	0.08224968
26	0x3d3e85b0	0.046514213
27	0x3dc29abc	0.095021695
28	0x3db3cf24	0.08779743
29	0x3d2cd9c6	0.042199872
30	0x3d70794c	0.058709428
31	0x3db73c1f	0.08947014
32	0x3dde377f	0.10850429
33	0x3db1f205	0.0868874
34	0x3d8efb37	0.06981509
35	0x3df3d9d8	0.11906785
36	0x3db294e0	0.08719802
37	0x3d06b4f6	0.03288742
38	0x3d8b5187	0.068026595
39	0x3d5c9b24	0.05385889
40	0x3d5c947d	0.053852547
41	0x3da54910	0.08070576
42	0x3d6061f4	0.054780915
43	0x3dd4fb62	0.1039951
44	0x3d303215	0.043016512
45	0x3de29230	0.11063039
46	0x3d1aaaa6	0.0377604
47	0x3d98f0cc	0.07467803
48	0x3dade18a	0.08490284
49	0x3d921493	0.071328305
50	0x3d6b34a6	0.057423256
51	0x3d97d740	0.074141026
52	0x3d47a9d8	0.04874596
53	0x3de797da	0.1130826
54	0x3d86c228	0.06580001
55	0x3d786e05	0.060651798
56	0x3da480dc	0.080323905
57	0x3d912c26	0.07088499
58	0x3d20edbd	0.039289225
59	0x3d9299a0	0.07158208
60	0x3dc27937	0.09495776
61	0x3d674b5b	0.05646835
62	0x3d34e1cb	0.044160645
63	0x3da71b0f	0.08159458

conv2.weight f4 [64, 64, 3, 3]
0	0x3c96e198	0.018418118
1	0xbcd853c5	-0.026407132
2	0x3ca43d8b	0.020048877
3	0x3b937e6e	0.0045011556
4	0xbce75986	-0.02824093
5	0xbb383cc3	-0.0028112389
6	0xbaf8d8e5	-0.0018985538
7	0x3b222942	0.002474383
8	0x3cbdcdf9	0.023169504
9	0xbc8db979	-0.017300354
10	0xbc247fc7	-0.01004023
11	0x3c5fa3f0	0.013649926
12	0xbcafba52	-0.02145115
13	0xbc398fc5	-0.011325781
14	0xbce77656	-0.02825467
15	0xbcf13d22	-0.029448096
16	0x3c2d066d	0.010560614
17	0xbd1ddf9e	-0.038543336
18	0x3cac140c	0.021005653
19	0xbc7ca018	-0.015419029
20	0x3c26fdbe	0.010192333
21	0x3cb31d5e	0.02186459
22	0xbc795d2b	-0.015219967
23	0xbc9452fa	-0.018105973
24	0xbc2d4793	-0.010576147
25	0x3d2f4ff8	0.042800874
26	0x3d092cc3	0.033489954
27	0xbccc79c4	-0.024960406
28	0x3d18bb5c	0.037288055
29	0x3ce9a833	0.028522586
30	0x3c026e1f	0.007960825
31	0x3d266b28	0.040629536
32	0x3d06e4c7	0.032933023
33	0x3ce60648	0.028079167
34	0x3b86509f	0.0040989663
35	0xbb4f6361	-0.0031644928
36	0xbc8508d4	-0.016239561
37	0xb9ecba22	-0.00045152107
38	0x3d3e369d	0.046438802
39	0xbcf6ed47	-0.03014244
40	0x3c59994a	0.013281176
41	0xbc4de0c5	-0.012565796
42	0xbc6f94bc	-0.014622863
43	0x3d09b434	0.03361912
44	0x3c52a732	0.012857245
45	0xbc813101	-0.015770437
46	0xbce50518	-0.02795653
47	0xbbeff4ab	-0.007322868
48	0x3cd4d9e3	0.025982803
49	0xbd1b8cdd	-0.037976135
50	0xbcf67e8d	-0.030089641
51	0xbd28ff1e	-0.041258924
52	0xbc2b76c4	-0.010465328
53	0xbcc7b68a	-0.024379034
54	0x3cc8e275	0.024522046
55	0x3d0547c6	0.03253915
56	0x3c268468	0.010163404
57	0xbc7678ce	-0.0150434505
58	0xbd21da09	-0.039514575
59	0xbc1ca6d7	-0.009561262
60	0x3c2c07a4	0.010499869
61	0xbcf9c42f	-0.030489055
62	0xbd060ce1	-0.032727126
63	0x3c7f3824	0.01557735
64	0x3cdf3c9d	0.027250582
65	0xbd233b20	-0.039851308
66	0xbc621674	-0.013799299
67	0xba09279c	-0.00052320375
68	0x39d30335	0.00040247446
69	0xbcc764f0	-0.024340123
70	0x3c7fff0a	0.015624771
71	0x3c789941	0.015173257
72	0xbd137b9a	-0.036006548
73	0xbcf88e95	-0.030341426
74	0x3d133800	0.035942078
75	0xba9b101c	-0.0011830362
76	0x3d37452b	0.044743698
77	0xbd61721e	-0.05504047
78	0xbc92d58f	-0.017924098
79	0x3a493ba8	0.0007676431
80	0xbccfcba7	-0.025365664
81	0xbc88cf24	-0.016700335
82	0xbd35ca3e	-0.044382326
83	0xbca73899	-0.02041273
84	0xbcec0368	-0.028810218
85	0xbce39161	-0.027779283
86	0xbc55af09	-0.01304222
87	0x3d041cbb	0.032253962
88	0xbd2b05e9	-0.041753683
89	0xbc44e26f	-0.012016877
90	0xbca23bf2	-0.019803975
91	0xbd0d6b7c	-0.034526333
92	0x3d1494e1	0.036274794
93	0x3cbf824f	0.023377566
94	0xbd11056d	-0.035405565
95	0x3c823581	0.015894653
96	0x3d13ec9f	0.03611433
97	0xbc5f3af6	-0.013624897
98	0x3cca3774	0.024684645
99	0xbc8bf21c	-0.01708322
100	0x3b15c6f5	0.0022854183
101	0xbc8d057b	-0.017214527
102	0x3c48eb1f	0.0122630885
103	0x3cfca147	0.030838622
104	0xbc82d72d	-0.015971744
105	0x3d025b1d	0.031825174
106	0x388f8a18	6.844493e-05
107	0xbbb7b566	-0.005606341
108	0xbb891fe5	-0.0041847103
109	0x3ba85469	0.0051370156
110	0xbc31ca6b	-0.010851483
111	0x3bc8eec3	0.0061319782
112	0xba68691e	-0.00088657613
113	0xbc0963bc	-0.008385595
114	0x3c99a9fb	0.01875781
115	0xbd298e64	-0.04139556
116	0xbd026483	-0.031834137
117	0xbcafe7c5	-0.021472821
118	0xbd1f2ad6	-0.03885921
119	0xbc182ebb	-0.009288485
120	0xbc5f8c8c	-0.013644349
121	0xbd049e83	-0.03237773
122	0xbd4471b7	-0.04796001
123	0xbca936ec	-0.020656072
124	0x3cdc9e11	0.02693084
125	0x3c6d6622	0.014489682
126	0xbd835671	-0.06412972
127	0xbc0deb91	-0.00866212
128	0xbb8e0fde	-0.0043353876
129	0xbcd00ae7	-0.025395824
130	0x3d38aed5	0.045088608
131	0xbcd010c9	-0.025398629
132	0xbc92e9c5	-0.017933736
133	0xbcf14e19	-0.029456185
134	0x3cbd7026	0.023124766
135	0x3cdf849c	0.027284913
136	0xbc86e917	-0.016468568
137	0xbc52b52a	-0.012860576
138	0x3b6d14ad	0.0036175654
139	0xbd20edf6	-0.039289437
140	0x3b1f24f1	0.0024283493
141	0x3c81bbaa	0.015836556
142	0x3d1ea90b	0.03873543
143	0x3bd30f6d	0.006441048
144	0x3cfe8ba6	0.031072449
145	0x3d314454	0.043278053
146	0x3c994b00	0.01871252
147	0xbcbe1176	-0.023201685
148	0x3c2edbfd	0.0106725665
149	0xbd0ffbb7	-0.035152163
150	0x3cdc1f86	0.0268705
151	0xbd014f41	-0.031569723
152	0xbc49f795	-0.012327095
153	0xbc2b3d79	-0.010451668
154	0x3d269b08	0.040675193
155	0x3d4d7727	0.05016246
156	0xbc35bb7e	-0.011092065
157	0xbc2dd64f	-0.010610177
158	0xbc0c2e02	-0.008555891
159	0xbd1dddba	-0.038541533
160	0x3b9cdc8e	0.0047870344
161	0x3cbd7ed9	0.023131775
162	0xbca8061c	-0.020510726
163	0x3d1c63c2	0.038181074
164	0x3d16c2c4	0.036806837
165	0x3ce1c29b	0.027558615
166	0xbd2bdd14	-0.041958883
167	0x3d51995e	0.051171653
168	0x3cf70b0e	0.030156638
169	0xbd164d38	-0.036694735
170	0x3d13f251	0.036119763
171	0x3d0b8184	0.034059063
172	0xb93b3394	-0.00017852924
173	0x3cf1abb4	0.02950082
174	0x3be8fc19	0.0071101305
175	0xbd42dbd8	-0.04757294
176	0xbc958904	-0.01825381
177	0xbc22f31d	-0.009945658
178	0x3d0a8737	0.033820357
179	0xbcc97553	-0.024592077
180	0x3d183617	0.03716096
181	0xbc634fd5	-0.013874014
182	0x3cba821e	0.022767123
183	0xbcc6050b	-0.024172327
184	0x3caf4874	0.021396853
185	0xbb79c1ca	-0.0038109892
186	0x3cd5569a	0.026042271
187	0x3c5a1dd2	0.013312774
188	0x3d36e985	0.044656295
189	0x3b936e8e	0.004499263
190	0x3a104088	0.000550278
191	0xbc5e79ac	-0.0135788135
192	0x3bb2556c	0.005442312
193	0xbc3dfb84	-0.0115956105
194	0x3c818e55	0.01581494
195	0xbc0402f7	-0.0080573475
196	0xbd3c3a9f	-0.045954343
197	0xba92d82c	-0.001120334
198	0xbbf3a963	-0.007435964
199	0xbaac90d4	-0.0013165721
200	0x3d178dcf	0.037000474
201	0xbba610cb	-0.00506792
202	0x39bab809	0.000356138
203	0xbd4821e3	-0.048860442
204	0xbc544901	-0.012956859
205	0x3cf47123	0.029839104
206	0xbd0d0907	-0.034432437
207	0x3d120242	0.035646684
208	0xbc69f3bf	-0.014279305
209	0xbd35da80	-0.04439783
210	0x3c2c8aa3	0.0105311
211	0xbc6cf01d	-0.014461544
212	0x3cc0de4b	0.023543498
213	0xbcdaae09	-0.026694315
214	0xbc534173	-0.012894022
215	0xbabc08f9	-0.0014345936
216	0x3cac2997	0.021015925
217	0x3c10f28f	0.008846893
218	0x3ccefbac	0.02526649
219	0xba011b02	-0.0004924984
220	0xbd119909	-0.035546336
221	0xbcba4c52	-0.02274147
222	0xbd022d56	-0.031781517
223	0x3bb97b6a	0.005660464
224	0xbc21a7e6	-0.00986669
225	0x3ca383f5	0.019960383
226	0x3cf31ead	0.029677713
227	0x3bd4c8ac	0.0064936485
228	0xbd0e3b4c	-0.03472452
229	0x3cd9025f	0.026490388
230	0x3c932a1b	0.017964413
231	0xbcbe795b	-0.023251226
232	0x3c92d55a	0.017924
233	0x3cf5af63	0.029990857
234	0xbbfee012	-0.007778176
235	0xbd1eae64	-0.03874053
236	0xbc4020b2	-0.011726545
237	0x3ce7d987	0.028301967
238	0xbd20c542	-0.03925062
239	0x3c2472f1	0.01003717
240	0x3b930d9d	0.004487707
241	0xbb78b81b	-0.0037951532
242	0xbcc99ced	-0.02461096
243	0xb94c4ef6	-0.00019484371
244	0xbc86c0ca	-0.01644935
245	0x3c886b69	0.01665278
246	0xbc837452	-0.016046677
247	0xbc0e7852	-0.008695679
248	0xbbe23afb	-0.0069040037
249	0x3bacd05d	0.0052738623
250	0x3d3736ca	0.044729985
251	0x3c03d049	0.0080452645
252	0xbd1e0d1a	-0.038586713
253	0x3ca45100	0.020058155
254	0xbd470f07	-0.048598316
255	0x3cb6e4d8	0.022325918

conv2.bias f4 [64]
0	0xbc66ab39	-0.014078909
1	0x3d006cc8	0.031353742
2	0x3cdc609c	0.026901536
3	0xbadcfaf8	-0.0016859462
4	0x3ce2f809	0.027706163
5	0x3c499e7c	0.012305852
6	0x3d241696	0.040060602
7	0xbc74196b	-0.014898638
8	0xbbd011d4	-0.0063497815
9	0x3d2dc02b	0.042419594
10	0x3a822e03	0.0009931925
11	0x3d00b195	0.031419355
12	0xbb55e2a7	-0.0032636316
13	0xbb8af17b	-0.0042402125
14	0x3c870f97	0.016486926
15	0x3d0f9640	0.0350554
16	0x3c254ed7	0.010089598
17	0x3d21e7ab	0.039527576
18	0xbba3180d	-0.0049772323
19	0xbd048ff0	-0.032363832
20	0xbccad214	-0.024758376
21	0x3c69c685	0.014268522
22	0xbb60034f	-0.003418166
23	0x3bb25531	0.0054422845
24	0x3c18213d	0.009285268
25	0x3c297663	0.010343167
26	0xbd15558b	-0.036458533
27	0xbccf310f	-0.025291948
28	0x3d1da332	0.038485713
29	0x3c1f9a70	0.009741411
30	0x3d1325e1	0.035924796
31	0xbc86aeb9	-0.016440736
32	0x3b0459fa	0.0020195232
33	0x3b55cbcb	0.003262269
34	0xbd14144a	-0.03615216
35	0xbd2b7e89	-0.04186872
36	0x3cbafd1c	0.02282577
37	0xbcb09847	-0.021556986
38	0x3bb1b5f7	0.005423303
39	0xba7c692e	-0.000962871
40	0x3b6469d8	0.0034853127
41	0x3d05f832	0.0327074
42	0x3cb8b6f9	0.022548186
43	0xbd203da5	-0.03912129
44	0x3af06e03	0.0018343333
45	0xbcfbd96a	-0.03074332
46	0x3d078587	0.033086326
47	0x3b760b90	0.0037543513
48	0x3d1a50c3	0.037674677
49	0x3c9896eb	0.01862665
50	0x3b2f9b1d	0.0026795336
51	0x3c171ed8	0.009223662
52	0xbb995961	-0.0046798442
53	0x3d0a55a9	0.0337731
54	0xbcacbc8a	-0.021085996
55	0xbc77b1b4	-0.015118051
56	0xbd03c44b	-0.03216962
57	0xb9659020	-0.00021892833
58	0xbc1c9750	-0.00955756
59	0x3d09c1d3	0.03363211
60	0xbca8bc3d	-0.020597572
61	0x3c97a71e	0.018512305
62	0xba31db0f	-0.00067846564
63	0xbc862359	-0.016374277

bn2.weight f4 [64]
0	0x3f7c00cd	0.9843872
1	0x3f7fa13c	0.998554
2	0x3f7f883c	0.9981725
3	0x3f816654	1.0109353
4	0x3f820024	1.0156293
5	0x3f802f88	1.0014505
6	0x3f7d6e5a	0.9899651
7	0x3f812d3b	1.0091928
8	0x3f7f0205	0.99612457
9	0x3f7f7c5a	0.9979912
10	0x3f8066bf	1.0031356
11	0x3f7f707a	0.99781
12	0x3f7defa1	0.9919377
13	0x3f7fa4ac	0.99860644
14	0x3f7cf01f	0.98803896
15	0x3f810f57	1.0082806
16	0x3f7e3d9b	0.9931275
17	0x3f7d690c	0.98988414
18	0x3f815768	1.0104799
19	0x3f7f6dcf	0.9977693
20	0x3f814ebd	1.0102154
21	0x3f808c18	1.0042753
22	0x3f7a47b7	0.9776568
23	0x3f7eaeb7	0.99485344
24	0x3f7f463a	0.9971653
25	0x3f7b9632	0.98276055
26	0x3f80f215	1.0073878
27	0x3f7ce125	0.98781043
28	0x3f80c07a	1.0058739
29	0x3f8118bb	1.0085672
30	0x3f818a84	1.0120397
31	0x3f8294d1	1.0201665
32	0x3f7c16fb	0.98472565
33	0x3f7d85bd	0.99032193
34	0x3f81b2a8	1.0132647
35	0x3f7d813c	0.9902532
36	0x3f806f32	1.0033934
37	0x3f7d9ff3	0.9907219
38	0x3f801cc6	1.0008781
39	0x3f7cb3a1	0.9871159
40	0x3f7d8c27	0.9904198
41	0x3f816826	1.0109909
42	0x3f81100e	1.0083025
43	0x3f7e9b0b	0.99455327
44	0x3f80ca9e	1.0061834
45	0x3f7d7eb0	0.99021435
46	0x3f812b50	1.0091343
47	0x3f7fb48e	0.9988488
48	0x3f8155fc	1.0104365
49	0x3f808b44	1.00425
50	0x3f7fea75	0.9996713
51	0x3f7e7e78	0.99411726
52	0x3f7fcdf3	0.9992363
53	0x3f7f25c1	0.9966698
54	0x3f809850	1.0046482
55	0x3f7f7137	0.9978213
56	0x3f7d0ad4	0.9884465
57	0x3f7e1751	0.9925433
58	0x3f80cf38	1.0063238
59	0x3f7d4d21	0.98945814
60	0x3f811fa4	1.0087781
61	0x3f81ba2b	1.0134939
62	0x3f800b57	1.0003461
63	0x3f80a01a	1.0048859

bn2.bias f4 [64]
0	0xbc0b9e6d	-0.008521658
1	0xbb7b7aa2	-0.0038372655
2	0x3b0f2c16	0.0021846346
3	0xbc31f7c4	-0.010862295
4	0x3c7478df	0.014921396
5	0xba9791fa	-0.001156389
6	0xbafdbd52	-0.001935879
7	0x3b01aee2	0.0019788076
8	0xbb8acd51	-0.0042359014
9	0xbb067dfb	-0.0020521868
10	0x3c279b71	0.010229931
11	0x3a936fa2	0.0011248479
12	0xbc161b9c	-0.009161856
13	0x3c0fb21d	0.008770493
14	0x3a5caf72	0.00084184774
15	0x3ca634ac	0.020288788
16	0x3a6d2464	0.0009046255
17	0xbac7f604	-0.0015255813
18	0x3be0f867	0.0068655494
19	0xbc1cb0c8	-0.009563632
20	0x3c1b4026	0.009475743
21	0x3b7b02f3	0.0038301318
22	0xba5f12f7	-0.0008509601
23	0xbb192dbd	-0.002337321
24	0xbb0913af	-0.0020916273
25	0x3b6ffbdc	0.0036618626
26	0x3bd62edd	0.0065363483
27	0xbc2ad5be	-0.010426937
28	0x3b9365da	0.0044982256
29	0x3c623bc7	0.013808197
30	0x3c499060	0.012302488
31	0x3a683882	0.0008858518
32	0xbbab715e	-0.0052320203
33	0x3c4f2a39	0.012644344
34	0x3c0c7536	0.008572867
35	0xbc45d345	-0.012074296
36	0x3bc2de5a	0.0059469165
37	0x3bec7e01	0.0072171693
38	0x3c2be131	0.0104907015
39	0xbb4f740c	-0.0031654863
40	0x3b883cab	0.004157623
41	0x3b638236	0.0034715063
42	0xbbc28098	-0.0059357397
43	0x3c5e3ba3	0.013564023
44	0x3b4fbe64	0.0031699175
45	0xbb03e445	-0.0020125073
46	0x3c665e0a	0.014060507
47	0xb8fb5fe8	-0.000119864766
48	0x3bd8458d	0.006600088
49	0x3a2d7bfd	0.0006617902
50	0xba05467a	-0.0005084049
51	0xb9cfaa9e	-0.00039609236
52	0x3beb2d7b	0.0071770526
53	0xbc676757	-0.014123759
54	0x3b5c73de	0.0033638398
55	0x3a37c718	0.0007010563
56	0x3c00c813	0.007860201
57	0xbba81ff1	-0.005130761
58	0x3ca5c6d2	0.020236406
59	0xbbcbbf07	-0.0062178406
60	0xb943043e	-0.0001859823
61	0x3c51ba31	0.012800739
62	0x3c87b06e	0.01656362
63	0xbb8dcec7	-0.0043276283

bn2.running_mean f4 [64]
0	0x3e52f642	0.20601752
1	0xbe2ceca8	-0.16887152
2	0xbf27f6a3	-0.6561071
3	0x3e89e1a4	0.26929963
4	0x3edd1714	0.4318167
5	0x3cd72f53	0.026267683
6	0x3efa51f9	0.48890665
7	0x3ef1a1f1	0.47193864
8	0xbe96bc44	-0.2944051
9	0x3def5ade	0.116872534
10	0xbd04698f	-0.03232723
11	0xbeb5caa4	-0.35506165
12	0xbe0f48da	-0.13992634
13	0x3eea362c	0.45744455
14	0xbe79148f	-0.24324249
15	0x3f224144	0.6338084
16	0xbf2a8f9d	-0.66625386
17	0x3d8c4698	0.06849402
18	0xbd433b6c	-0.04766409
19	0x3da9885f	0.08277964
20	0x3f284ccf	0.657422
21	0xbef286a8	-0.4736836
22	0xbee1cc99	-0.44101408
23	0x3efb468d	0.49077263
24	0x3e939466	0.28824157
25	0x3ebd1f11	0.36937764
26	0xbdb28040	-0.08715868
27	0xbe2ee656	-0.17080054
28	0x3eee6690	0.46562624
29	0xbf50c6cd	-0.81553346
30	0x3e6c238c	0.23060435
31	0xbaac6e90	-0.0013155509
32	0xbf142ac8	-0.5787778
33	0x3edbd4e3	0.42935857
34	0x3dd496b0	0.10380304
35	0xbf2cc155	-0.674825
36	0xbf9421bd	-1.1572796
37	0xbee2a699	-0.4426773
38	0x3f84300a	1.032716
39	0xbef0af49	-0.47008732
40	0xbe6bb9b9	-0.23020066
41	0xbf5b0484	-0.85553765
42	0x3efce723	0.49395093
43	0x3f07e6ee	0.53086746
44	0xbf6fd9f1	-0.9369193
45	0xbf080d66	-0.53145444
46	0x3dec365c	0.11533806
47	0x3ee2ed29	0.44321564
48	0x3ea14269	0.3149598
49	0xbf06f810	-0.52722263
50	0x3e212327	0.15736066
51	0xbe8c3af1	-0.2738872
52	0xbf192ddf	-0.5983562
53	0xbf07cd60	-0.5304775
54	0x3b68b753	0.003550966
55	0xbd77722c	-0.060411617
56	0x3f5e2bb5	0.8678544
57	0x3e0eb656	0.13936743
58	0x3f01db57	0.5072531
59	0xbe8f0358	-0.2793224
60	0x3e963fcc	0.29345548
61	0xbc3c9275	-0.011509527
62	0x3f69ccf2	0.91328347
63	0xbefb114e	-0.4903664

bn2.running_var f4 [64]
0	0x3eb58734	0.35454714
1	0x3e83ffa4	0.25780976
2	0x3f18092e	0.5938901
3	0x3e80a7a3	0.25127897
4	0x3ec90498	0.39261317
5	0x3e8dc42c	0.2768873
6	0x3f0b6d07	0.5446324
7	0x3eca5442	0.3951741
8	0x3ed28377	0.41115925
9	0x3ebdcc5c	0.37069976
10	0x3e95ea8d	0.2928051
11	0x3ecdabbb	0.40170082
12	0x3e91e8ba	0.2849787
13	0x3efa7862	0.4891997
14	0x3ecea544	0.40360463
15	0x3ed9fd23	0.4257594
16	0x3f2e8993	0.6817867
17	0x3eea55ec	0.45768678
18	0x3e84994c	0.25898206
19	0x3eb3c7bf	0.35113332
20	0x3f4869c7	0.78286403
21	0x3f0ab5c3	0.54183596
22	0x3f06b3b2	0.52617943
23	0x3f041749	0.5159803
24	0x3e99c2be	0.3003139
25	0x3ec1b55a	0.37833673
26	0x3e9931d5	0.2992083
27	0x3eb2403b	0.3481463
28	0x3ecf29b4	0.40461504
29	0x3f7b5440	0.9817543
30	0x3e945afb	0.28975663
31	0x3e480cb7	0.195361
32	0x3f3df174	0.74196553
33	0x3ecec2e3	0.40383062
34	0x3e75dedb	0.24010794
35	0x3f1fce0a	0.62423766
36	0x3fa7a78b	1.3098005
37	0x3ef30cc9	0.47470692
38	0x3f8084d3	1.0040535
39	0x3f1eb92d	0.62001306
40	0x3eb205d8	0.34770083
41	0x3f5b6f4c	0.857167
42	0x3f294f93	0.66137046
43	0x3f091ff7	0.535644
44	0x3f83ecaa	1.0306599
45	0x3f2a1a36	0.66446245
46	0x3e8e069a	0.27739412
47	0x3eda06e7	0.4258339
48	0x3e94e1d8	0.29078555
49	0x3eecb15b	0.4622906
50	0x3f104239	0.5635105
51	0x3f0873dc	0.5330179
52	0x3f0daabf	0.5533866
53	0x3f15f15c	0.5857141
54	0x3e977f65	0.29589382
55	0x3ecfa45e	0.4055509
56	0x3f661dd6	0.89889276
57	0x3e92c20a	0.28663665
58	0x3edf0b50	0.43563318
59	0x3ef57554	0.47941077
60	0x3ea52335	0.32253423
61	0x3eb38305	0.35060897
62	0x3f68fcc4	0.9101069
63	0x3ed40e01	0.41416934

conv3.weight f4 [64, 64, 3, 3]
0	0x3ce78500	0.028261662
1	0xbcbde4a3	-0.023180312
2	0xbb429a85	-0.0029694152
3	0xbb5f17e4	-0.003404134
4	0x3c95e1ef	0.01829621
5	0xba3960a8	-0.0007071593
6	0x3cb0aa9b	0.021565726
7	0x3c531224	0.012882743
8	0x3c90576a	0.017619807
9	0xbcfda9fc	-0.030964844
10	0x3b54ba71	0.003245976
11	0x3d15201f	0.036407586
12	0x3c5b9c3c	0.013403948
13	0xbd230ac2	-0.03980518
14	0x3cd51e82	0.026015524
15	0x3cc42995	0.02394561
16	0x3d3b0559	0.045659397
17	0xbcbcccc6	-0.023046862
18	0x3cc02873	0.023456788
19	0xbaf85c92	-0.0018948487
20	0xbcc526ce	-0.024066355
21	0xbc074836	-0.0082569625
22	0xb9b8d308	-0.00035252445
23	0xbba731a0	-0.0051023513
24	0x3b0231f3	0.0019866198
25	0x3c9a5cd4	0.018843092
26	0xbc713884	-0.014722947
27	0x3d186c3a	0.037212588
28	0xbcbf9d66	-0.023390483
29	0xbc8f3853	-0.017482912
30	0x3c8bc4e5	0.01706166
31	0x3b697458	0.0035622325
32	0x3ce376bb	0.027766576
33	0x3b85e18a	0.0040857242
34	0xba8c46d7	-0.0010702264
35	0x3c848ebc	0.016181342
36	0x3cb872ab	0.022515615
37	0xbd3f96c8	-0.046774656
38	0xbd30435b	-0.043032985
39	0xbb99292e	-0.0046740985
40	0xbc241c6e	-0.010016544
41	0x3cfcb285	0.030846843
42	0xbce34af3	-0.0277457
43	0x3b2c9b4e	0.0026337686
44	0xbb6922e0	-0.0035573766
45	0xbd0c9424	-0.034320965
46	0x3b582028	0.003297815
47	0xbc9af351	-0.01891485
48	0x3bbf5557	0.0058390307
49	0x3d0e4ff5	0.03474422
50	0xbc24adaf	-0.010051175
51	0x3b458435	0.0030138616
52	0xbcb8aa7d	-0.022542233
53	0xbd2ac802	-0.04169465
54	0xbc5bc0d1	-0.01341267
55	0x3a6bf7b4	0.0009001449
56	0xbabe6b36	-0.0014527801
57	0x3d19fbbb	0.037593585
58	0xbd10b02e	-0.035324268
59	0xbc9cdc19	-0.01914792
60	0x3d2093ad	0.039203335
61	0x3d1f8e40	0.03895402
62	0x3cecfe01	0.028929712
63	0x3d22cba8	0.039745003
64	0xbce05020	-0.027381957
65	0x3cec6a6f	0.028859345
66	0x3d3ee6c5	0.046606798
67	0x3c1085c4	0.008820955
68	0x3ca0dcb9	0.019636499
69	0xba4e42de	-0.00078682404
70	0xbd215832	-0.03939075
71	0x3b5b5ce7	0.0033472122
72	0xbcbc0f98	-0.022956654
73	0x3d131f9c	0.035918817
74	0x3d2b9915	0.041894037
75	0x3cedee64	0.029044338
76	0xbb851d9a	-0.0040623667
77	0xbc8278c6	-0.01592673
78	0xbc25b7a7	-0.010114587
79	0xbb88872a	-0.0041665034
80	0x3c20b830	0.009809539
81	0xbc97c481	-0.018526318
82	0x3bf750d9	0.0075474796
83	0xbd275909	-0.040856395
84	0x3bba49ab	0.0056850514
85	0xbd1cf362	-0.038318045
86	0x3c597733	0.013273048
87	0xbd3f2896	-0.046669565
88	0xbcbc88d9	-0.023014473
89	0x3cb56998	0.022145078
90	0x3c241e72	0.010017024
91	0xbd11965f	-0.035543796
92	0xbcd26702	-0.025683884
93	0xbd0543c9	-0.032535348
94	0xbc814080	-0.015777826
95	0xbcf7dc19	-0.030256318
96	0xbd07a000	-0.033111572
97	0x3c054ae1	0.008135528
98	0xbce7c082	-0.028290037
99	0xbd266ea5	-0.040632863
100	0xbd0003dc	-0.03125368
101	0x3bcbe4bb	0.006222335
102	0x3c0674b2	0.008206533
103	0x3cc64e79	0.02420734
104	0x3bf87107	0.0075818333
105	0x3c967a35	0.01836882
106	0xbb843cc8	-0.004035566
107	0xbcb1d6b6	-0.021708827
108	0xbbf8b499	-0.0075898883
109	0xbd64ab46	-0.0558274
110	0xbd123ddd	-0.03570353
111	0xbb154ef3	-0.0022782653
112	0xbc4027a1	-0.011728198
113	0xbd2ad7cb	-0.041709702
114	0x3cc7d016	0.024391215
115	0xbcac6c36	-0.021047693
116	0x3d47b15b	0.048753124
117	0xbc4c56be	-0.012471853
118	0x3c945f54	0.018111862
119	0x3b4372d6	0.0029823086
120	0x3cc12b8e	0.023580339
121	0x3cdd7a91	0.027035983
122	0xbcaa21e3	-0.020768112
123	0x3cb3bd74	0.021940924
124	0x3c03ab4c	0.008036446
125	0xbd0e50e8	-0.034745127
126	0xbd3f8871	-0.04676098
127	0x3c5f441a	0.0136270765
128	0xb9a7cb5c	-0.00032004237
129	0x3d467b00	0.048457146
130	0x3a84da8b	0.0010135932
131	0xbc86663b	-0.01640617
132	0xbc916c95	-0.017751971
133	0xbca47fb7	-0.02008043
134	0xbc885565	-0.016642282
135	0xbcf04473	-0.029329514
136	0x3bff7ff5	0.007797236
137	0x3cf8dd8d	0.030379081
138	0x3ce7b8cf	0.028286366
139	0x3cf0e671	0.029406758
140	0xbcaa623a	-0.020798791
141	0xbd1fd51d	-0.0390216
142	0x3bb0672d	0.0053833933
143	0x3be94775	0.007119114
144	0xbcd4b2ae	-0.025964107
145	0x3d182f72	0.037154622
146	0x3cadc3c5	0.021211514
147	0xbd0a7e06	-0.03381159
148	0xbc4e8ca5	-0.012606774
149	0xbb4498a8	-0.0029998217
150	0x3d33574b	0.04378442
151	0x3cf07bd2	0.029355917
152	0xbd2b89c1	-0.04187942
153	0x3ca322c1	0.019914033
154	0x3c7497bc	0.014928754
155	0xbd063f64	-0.032775298
156	0xbd0d476b	-0.034491938
157	0x3ccfee0d	0.025382066
158	0x3ba21c82	0.004947246
159	0x3bb8df61	0.005641863
160	0xbcb2eee6	-0.021842431
161	0xbc69f891	-0.014280454
162	0x3d20da69	0.039270792
163	0x3c870264	0.016480632
164	0x3c4924d9	0.012276852
165	0xbcc18b7d	-0.023626084
166	0xbd0dbaca	-0.034601964
167	0x3ba702e6	0.005096781
168	0xbbadc73b	-0.005303291
169	0xbcdaeee9	-0.02672525
170	0x3d1718a1	0.036888722
171	0x37ffc308	3.0489187e-05
172	0xbcd08691	-0.025454791
173	0xbd17704b	-0.036972325
174	0x3d045000	0.032302856
175	0xbc355174	-0.011066783
176	0x3d504b45	0.050853033
177	0x3a32e25c	0.00068238913
178	0xbc6578ea	-0.014005879
179	0xbd2f2a83	-0.04276515
180	0xbc9a3121	-0.018822255
181	0xbd181246	-0.037126802
182	0x3ce2197b	0.02760004
183	0xbd31bad4	-0.043391064
184	0xbcaefed7	-0.021361751
185	0x3ccaed76	0.024771433
186	0xbc9cf74b	-0.019160887
187	0xbc5f44d6	-0.013627252
188	0xbcc1868e	-0.023623731
189	0x3d0e1f84	0.034698024
190	0x3d0ece5e	0.034864776
191	0xbcc908a8	-0.02454026
192	0x3d5a9d5a	0.05337272
193	0xbb2fbee4	-0.002681666
194	0xba939175	-0.001125856
195	0xbc50ac35	-0.01273637
196	0xbab6ab92	-0.001393663
197	0xbd0d6c12	-0.034526892
198	0x3d242059	0.04006991
199	0xbce2a561	-0.02766675
200	0x3bcfd388	0.006342355
201	0xbb6afe64	-0.0035857195
202	0xbc3bb086	-0.011455661
203	0x3d28a9d1	0.041177575
204	0x3d0a3941	0.033746008
205	0xbd0d747a	-0.03453491
206	0x3b407c60	0.0029371008
207	0x3c852f33	0.016257858
208	0xbce8885e	-0.028385337
209	0x3cacd832	0.021099184
210	0xbd13dd3e	-0.036099665
211	0x3cf67339	0.03008424
212	0x3c7c0ae6	0.015383458
213	0xbcb5169c	-0.022105508
214	0xbd0e47f1	-0.034736577
215	0xbc93e69b	-0.018054297
216	0x3d123076	0.035690747
217	0x3d06f595	0.03294905
218	0xbc13103f	-0.008976041
219	0x3cceb4e8	0.025232747
220	0xbbe04490	-0.006844111
221	0xbd24e355	-0.040255863
222	0xbcf50326	-0.029908728
223	0xbc42557c	-0.011861201
224	0xbc88a77c	-0.016681425
225	0x3be0ce10	0.006860502
226	0x3bdedee4	0.006801473
227	0x3c70c5f5	0.014695634
228	0xbcaa6111	-0.020798238
229	0xbc332033	-0.01093297
230	0x3c52df21	0.012870581
231	0x3c14fa23	0.00909284
232	0x3b03b1b4	0.0020094933
233	0xbb4aa6eb	-0.0030922245
234	0x3c86c1e2	0.016449872
235	0x3bf60ebb	0.00750908
236	0x3af45653	0.0018641449
237	0xbc21fddd	-0.009887186
238	0xbcfa8068	-0.030578807
239	0xbab85784	-0.0014064168
240	0x3c567c16	0.013091108
241	0xbce10034	-0.027465917
242	0xbcf810f7	-0.030281527
243	0x3bb5d85e	0.0055494746
244	0x3838e8a2	4.4085675e-05
245	0x3d2ae3ec	0.04172127
246	0x3c8d5484	0.017252214
247	0x3bef1baa	0.007296999
248	0x3c3ec910	0.011644617
249	0xbcf4839b	-0.02984791
250	0xbc74f456	-0.014950832
251	0x3c3d4807	0.011552817
252	0x3c4d25c6	0.012521213
253	0xbd4553d7	-0.04817566
254	0x3cc6571a	0.024211455
255	0xbd39f3e3	-0.045398604

conv3.bias f4 [64]
0	0xbd02b232	-0.03190822
1	0x3ce85ca7	0.028364493
2	0x3d07079f	0.032966252
3	0xbc6a95e0	-0.01431796
4	0x3cc70058	0.024292156
5	0x3bf66ef9	0.007520553
6	0x3bcefdb3	0.0063168644
7	0x3c050adf	0.008120268
8	0x3bd2e58f	0.006436057
9	0xbcefec96	-0.029287618
10	0xbbc993aa	-0.006151636
11	0x3d14cd1d	0.036328424
12	0x3c70f96e	0.014707906
13	0xba6b3484	-0.0008972364
14	0xbd020127	-0.03173938
15	0xbc895f77	-0.016769154
16	0x3cf64022	0.030059878
17	0xbc6a6cc4	-0.014308158
18	0x3d1c01b1	0.03808755
19	0x3cbdbb17	0.0231605
20	0x3cfb7198	0.030693814
21	0x3bbb6f3d	0.0057200477
22	0x3c0eb46c	0.008710008
23	0xbcb87ac9	-0.022519486
24	0x3cda6258	0.026658222
25	0xbc0be6de	-0.00853893
26	0xbcd89ddd	-0.026442463
27	0x3cebeb12	0.028798614
28	0x3d2b36ca	0.041800298
29	0x3b3288e3	0.0027242235
30	0x3b2bd0d7	0.0026217008
31	0x3cdda65e	0.02705687
32	0xbbcc4cea	-0.006234755
33	0xbc6a6457	-0.014306149
34	0x39200756	0.00015261522
35	0xbc8bda42	-0.017071847
36	0x3cdea2ee	0.0271773
37	0xbd24ed11	-0.040265147
38	0x3b0241c3	0.0019875623
39	0x3d0b7347	0.034045484
40	0xbc2f4ffe	-0.010700224
41	0xbd001ce6	-0.03127756
42	0x3c9a9094	0.018867768
43	0xbd1733e6	-0.03691473
44	0x3d1f38ba	0.038872458
45	0x3d100220	0.035158277
46	0x3d173eb3	0.03692503
47	0x3c9eda97	0.019391341
48	0xbcdef689	-0.027217166
49	0xbc16c37d	-0.0092018815
50	0xbc809c02	-0.01569939
51	0xbd0db67c	-0.03459786
52	0xbcad5139	-0.021156894
53	0x3cd48f8a	0.025947351
54	0xbc738b77	-0.014864794
55	0xbcba176f	-0.022716252
56	0x3d1b3f81	0.03790236
57	0xbc1f0762	-0.00970635
58	0x3d25636b	0.040378015
59	0xbcc39b0f	-0.023877649
60	0xbd215067	-0.03938332
61	0xbb463ad4	-0.0030247467
62	0xbcb09125	-0.021553585
63	0x39b24491	0.00034001892

bn3.weight f4 [64]
0	0x3f7e9ebc	0.9946096
1	0x3f82f032	1.0229552
2	0x3f807b12	1.0037558
3	0x3f8160a9	1.0107623
4	0x3f7f4c82	0.99726117
5	0x3f803deb	1.0018896
6	0x3f809be2	1.0047572
7	0x3f7d5cb3	0.9896957
8	0x3f7f7403	0.99786395
9	0x3f8118a4	1.0085645
10	0x3f804788	1.002183
11	0x3f8176a9	1.0114337
12	0x3f80039b	1.00011
13	0x3f7afeb2	0.98044884
14	0x3f8025bf	1.0011519
15	0x3f802ac6	1.0013053
16	0x3f7f493d	0.9972113
17	0x3f7d45c8	0.989346
18	0x3f7df817	0.9920668
19	0x3f806a8c	1.0032516
20	0x3f8212a0	1.0161934
21	0x3f80d906	1.006623
22	0x3f805676	1.0026386
23	0x3f7f4858	0.9971976
24	0x3f81bb55	1.0135294
25	0x3f7cef5b	0.9880273
26	0x3f7f818b	0.9980704
27	0x3f8109b1	1.0081083
28	0x3f80a422	1.0050089
29	0x3f8062e0	1.0030174
30	0x3f807455	1.0035502
31	0x3f80a0fc	1.0049129
32	0x3f7c9d85	0.98677856
33	0x3f7f2444	0.9966471
34	0x3f814e88	1.0102091
35	0x3f7e9b4f	0.9945573
36	0x3f7e8a7c	0.9943006
37	0x3f7bd226	0.98367536
38	0x3f81bbce	1.0135438
39	0x3f82b2c5	1.0210806
40	0x3f7f765a	0.99789965
41	0x3f811c70	1.0086803
42	0x3f7d815c	0.9902551
43	0x3f799df3	0.97506636
44	0x3f8011c8	1.0005426
45	0x3f81b0f2	1.0132124
46	0x3f80dd7f	1.0067595
47	0x3f7c1ad4	0.98478436
48	0x3f807e14	1.0038476
49	0x3f806852	1.0031836
50	0x3f7c8e0e	0.9865426
51	0x3f7c4935	0.98549205
52	0x3f82173b	1.0163339
53	0x3f8157a3	1.010487
54	0x3f7cdec7	0.9877743
55	0x3f811991	1.0085927
56	0x3f7f0862	0.99622166
57	0x3f7e0985	0.99233276
58	0x3f81dc6e	1.0145395
59	0x3f80471d	1.0021702
60	0x3f802547	1.0011376
61	0x3f80145a	1.0006211
62	0x3f80b6f0	1.0055828
63	0x3f7c254a	0.984944

bn3.bias f4 [64]
0	0xbbf3d467	-0.007441092
1	0x3cab8951	0.020939501
2	0x3be88ac5	0.0070966207
3	0xbb9bf2c2	-0.0047591636
4	0x3b9e729d	0.0048354403
5	0x3c805441	0.015665175
6	0xbbd517f6	-0.0065031005
7	0x3c37c4bf	0.0112163415
8	0x3a8409b3	0.0010073691
9	0x3cbc5b46	0.022992741
10	0x3c0d86b0	0.008638069
11	0x3c27e7f5	0.010248174
12	0x3c57a944	0.013162915
13	0xbd07b164	-0.033128157
14	0xbb2b2215	-0.0026112844
15	0x3c3fb956	0.011701902
16	0x3bfbe680	0.00768739
17	0x3be925bb	0.0071150935
18	0xbc84422b	-0.016144833
19	0xba7715fe	-0.00094255793
20	0xbc16100f	-0.009159102
21	0x3c4a33f9	0.012341493
22	0xbb9ee075	-0.0048485347
23	0x3cad6c26	0.021169733
24	0x3b458e86	0.0030144765
25	0xbc5751c5	-0.013142054
26	0x3c2f1be3	0.010687801
27	0xbc8f3051	-0.017479094
28	0x3bbcd084	0.0057621617
29	0x3c31e95e	0.010858862
30	0xbc0a4f9d	-0.008441833
31	0x3cb6cccb	0.02231445
32	0xbc3b5340	-0.011433423
33	0xbc06030e	-0.008179439
34	0xbbb16300	-0.005413413
35	0x3c5385e0	0.012910336
36	0x3afad63a	0.0019137331
37	0xbc1c000c	-0.009521496
38	0x3bb9dcf5	0.005672092
39	0x3ccfc89a	0.025364209
40	0xbbdef238	-0.006803777
41	0xbc252103	-0.010078671
42	0x3bfa4b67	0.007638383
43	0xbca8b54f	-0.020594267
44	0xbb99c1e6	-0.004692304
45	0x3c372ac3	0.011179629
46	0x3bd8d745	0.006617459
47	0xbc64b1d5	-0.013958414
48	0xbb8ca99a	-0.004292679
49	0x39e318e4	0.0004331536
50	0xbb18f5e2	-0.0023339917
51	0xbc02db70	-0.007986888
52	0x3c37c35e	0.011216013
53	0x3c3c44e8	0.011491038
54	0x3a7ef649	0.00097260304
55	0x3bae303a	0.0053158076
56	0x3a1d55f4	0.0006001883
57	0x3c999253	0.01874653
58	0xbbd83f2f	-0.006599329
59	0xbc6ad4c2	-0.014332952
60	0xb926f4c7	-0.0001592218
61	0x3bae9378	0.0053276382
62	0x3b33984f	0.0027404015
63	0xbb647b66	-0.003486359

bn3.running_mean f4 [64]
0	0xbedb18d5	-0.42792383
1	0xbdb485aa	-0.08814557
2	0x3ee73f39	0.45165423
3	0x3f89f09b	1.0776552
4	0xbea1c615	-0.31596437
5	0x3ee5a8e0	0.44855404
6	0x3f3db627	0.7410607
7	0x3dac2cf8	0.084070146
8	0xbf2b9329	-0.67021424
9	0xbedb3380	-0.4281273
10	0x3f474db1	0.7785292
11	0x3ecfea6c	0.40608537
12	0xbef9897d	-0.48737708
13	0x3f2ef657	0.68344635
14	0xbdacd62f	-0.0843929
15	0x3e0b6cf6	0.13615784
16	0xbf2a07fb	-0.6641843
17	0x3dc71fe6	0.09722881
18	0x3f0c16db	0.54722375
19	0x3e6d43f0	0.23170447
20	0x3f563606	0.83676183
21	0xbee26391	-0.44216588
22	0x3e794091	0.24341036
23	0xbe02d2cb	-0.12775724
24	0x3f0b71b1	0.54470354
25	0xbf4be81a	-0.79651034
26	0x3e47bb68	0.19505084
27	0x3e91b1f0	0.28456068
28	0xbe8ef031	-0.27917627
29	0xbf09c7f4	-0.5382073
30	0x3f85549d	1.0416447
31	0xbeec25b4	-0.46122515
32	0xbf426128	-0.759295
33	0x3ea1c320	0.3159418
34	0x3f59395d	0.84853154
35	0xbeb81738	-0.35955215
36	0xbf1f6c52	-0.6227466
37	0xbf7d4023	-0.9892599
38	0x3f8d5de0	1.1044273
39	0xbe07a114	-0.1324504
40	0xbe9555ba	-0.29166967
41	0x3f4cceee	0.8000325
42	0x3e9572de	0.291892
43	0xbe8a40b2	-0.27002484
44	0xbf0aeb56	-0.54265344
45	0xbe187d9c	-0.14891666
46	0x3f0fbc68	0.5614686
47	0xbed1a590	-0.40946627
48	0x3f1ad967	0.6048798
49	0x3f43c13e	0.7646674
50	0xbe1093c8	-0.14118874
51	0xbf5a70ef	-0.85328573
52	0xbee9c182	-0.45655447
53	0x3e1ee60b	0.15517442
54	0x3e76869d	0.24074788
55	0xbe7c59b0	-0.24643588
56	0xbe995247	-0.29945585
57	0x3efed176	0.4976918
58	0x3f4e9fa5	0.8071235
59	0x3f7dad06	0.9909214
60	0x3eb79124	0.3585292
61	0x3f55839b	0.8340394
62	0xbf1196a9	-0.56870514
63	0x3f4918f1	0.7855368

bn3.running_var f4 [64]
0	0x3ecb64df	0.39725396
1	0x3ec0e24d	0.37672654
2	0x3f3d8082	0.7402421
3	0x3f6b96f7	0.9202723
4	0x3f077898	0.52918386
5	0x3e9a2e1b	0.301133
6	0x3f15bece	0.5849427
7	0x3f671813	0.9027111
8	0x3f9b052c	1.2110953
9	0x3e9e943a	0.30972463
10	0x3f52ab6f	0.82292837
11	0x3e862202	0.2619782
12	0x3e952b00	0.2913437
13	0x3e7837db	0.24240057
14	0x3ea93e13	0.3305517
15	0x3e4f4d6f	0.20244382
16	0x3f31bd64	0.6942961
17	0x3f360306	0.71098363
18	0x3ea42a56	0.3206355
19	0x3ead4754	0.33843482
20	0x3f1853d0	0.5950289
21	0x3f712d03	0.9420931
22	0x3eaab30b	0.33339724
23	0x3ed123b9	0.40847567
24	0x3e72d91c	0.23715633
25	0x3f38b154	0.7214558
26	0x3f7663de	0.96246135
27	0x3e6de034	0.23230058
28	0x3edad7de	0.4274282
29	0x3ee4dc47	0.44699308
30	0x3fa12644	1.2589803
31	0x3e5025e0	0.20326948
32	0x3f0c9c63	0.5492613
33	0x3f0eac77	0.5573191
34	0x3f55bb82	0.8348924
35	0x3f402305	0.75053436
36	0x3f59f288	0.851357
37	0x3efa43f6	0.48879975
38	0x3faaa0bf	1.3330306
39	0x3edcfd23	0.43161878
40	0x3ee98fc9	0.45617512
41	0x3f73f6f3	0.9529869
42	0x3f81c040	1.0136795
43	0x3e7c1a7f	0.24619482
44	0x3e4b7bb8	0.19871414
45	0x3e8a7854	0.27044928
46	0x3f348e02	0.70529187
47	0x3e68e9e8	0.22745478
48	0x3f2da7f6	0.67834413
49	0x3f4064bd	0.75153714
50	0x3ee21449	0.441561
51	0x3fa097ae	1.2546289
52	0x3f1afced	0.60542184
53	0x3e946b1e	0.28987974
54	0x3edd7c2f	0.43258807
55	0x3f2e3e0a	0.68063414
56	0x3f932347	1.1495141
57	0x3f118287	0.56839794
58	0x3f55474c	0.83311915
59	0x3effdeaf	0.49974582
60	0x3ea2f2b8	0.31825805
61	0x3fabf41a	1.3433869
62	0x3ed3cc8f	0.41367003
63	0x3ee9a3e4	0.4563285

policy_conv.weight f4 [2, 64, 1, 1]
0	0x3df937aa	0.1216882
1	0xbda64026	-0.08117704
2	0x3d801d69	0.062556095
3	0xbc1378fd	-0.009001014
4	0xbda4ae6b	-0.0804108
5	0x3e035095	0.12823708
6	0xbd0e010f	-0.03466898
7	0x3dcd0305	0.100103416
8	0xbde4d85b	-0.11174079
9	0x3d26675b	0.04062591
10	0x3de3b074	0.1111764
11	0xbdfa7ea8	-0.12231189
12	0xbd95572b	-0.072920166
13	0xbbf4904a	-0.0074634897
14	0x3d20aabe	0.039225332
15	0x3c96ab84	0.018392332
16	0xbd3e019a	-0.046388246
17	0x3df6a145	0.120424785
18	0xbdb717ef	-0.08940112
19	0x3c169160	0.009189934
20	0x3dba37be	0.09092663
21	0xbdfe51e5	-0.12417964
22	0x3d3e13a4	0.04640545
23	0x3dd35c60	0.103203535
24	0xbd19993d	-0.037499655
25	0xbd692b70	-0.05692619
26	0x3dfd63fb	0.123725854
27	0x3d8a6634	0.06757775
28	0xbd85d6f7	-0.06535142
29	0xbd002b77	-0.03129145
30	0x3ce29da5	0.027663061
31	0x3c943956	0.018093746
32	0xbe098077	-0.13427912
33	0xbdd34482	-0.10315801
34	0x3dae5728	0.085127175
35	0xbdce8d39	-0.1008553
36	0x3cd98a38	0.026555166
37	0x3cc0a323	0.02351529
38	0x3d53e631	0.0517332
39	0xbd6c91cf	-0.05775624
40	0x3b152699	0.0022758602
41	0x3c45bebc	0.0120694
42	0x3d5c8fcf	0.053848084
43	0x3c4a898e	0.012361897
44	0x3cf2b1b9	0.02962576
45	0xbd08ee5f	-0.033430453
46	0x3deff022	0.117157236
47	0xbc5a27da	-0.013315165
48	0x3cb20217	0.021729512
49	0x3dd09728	0.10185081
50	0x3bfa5d71	0.0076405336
51	0xbdf82a67	-0.121174626
52	0xbd6ff934	-0.058587268
53	0xbda0fe11	-0.07860959
54	0x3dc440c2	0.09582664
55	0xbd87ecf5	-0.06636993
56	0xbd18f25f	-0.037340518
57	0x3d85429b	0.065068446
58	0x3d00612a	0.031342663
59	0x3c5e112f	0.013553902
60	0x3dd0d72a	0.10197289
61	0x3dbebaaf	0.09312951
62	0xbdf8e54e	-0.121531114
63	0x3cbb2629	0.022845345
64	0x3c89e871	0.01683447
65	0xbd388b6c	-0.045054838
66	0x3bb81635	0.0056178817
67	0xbe02ebbd	-0.1278524
68	0x3d96676b	0.07343944
69	0x3d5fa694	0.05460222
70	0xbdcac124	-0.0990012
71	0xbcdde541	-0.027086856
72	0x3b3cf83d	0.0028834485
73	0x3d3c94b2	0.046040244
74	0xbd12f89e	-0.03588163
75	0xbc668e8d	-0.014072073
76	0x3df2f992	0.11864008
77	0x3c9fcec2	0.01950777
78	0x3dfec22b	0.12439378
79	0x3ceee54f	0.029162077
80	0x3d01bb7c	0.03167294
81	0x3d0df583	0.034657966
82	0xbd8f25b2	-0.06989612
83	0x3dc052c4	0.09390786
84	0xbe05e198	-0.13074338
85	0xbda81d19	-0.08208675
86	0xbd810fd9	-0.06301851
87	0x3da270af	0.07931649
88	0xbdc74d6a	-0.097315624
89	0x3d8f49a9	0.069964714
90	0x3d8cef97	0.06881636
91	0x3d1366a0	0.035986543
92	0xbc65cd16	-0.014025947
93	0x3caa4c7c	0.020788424
94	0xbddeaa5f	-0.108723395
95	0xb96f5710	-0.0002282525
96	0x3d8b0cb8	0.06789535
97	0xbe05461b	-0.13015024
98	0xbd83fb39	-0.06444401
99	0x3da44af4	0.08022109
100	0xbda7597b	-0.08171364
101	0xbc0d63ca	-0.008629749
102	0xbdf7bc26	-0.12096433
103	0xbcac63cc	-0.02104368
104	0x3df8e0a9	0.121522255
105	0xbd663925	-0.05620684
106	0x3d2de2dc	0.042452678
107	0x3cd30ed3	0.025763905
108	0xbb4e139a	-0.003144479
109	0x3d89b502	0.067239776
110	0xbd9aa4a3	-0.07550933
111	0x3c4d3c0b	0.012526522
112	0xbd9a3941	-0.075304516
113	0xbd9acd81	-0.07558728
114	0x3d146755	0.036231358
115	0x3d8ce7f0	0.06880176
116	0xbdd2afa0	-0.10287404
117	0xba59ba80	-0.0008305684
118	0x3da3fce6	0.08007221
119	0xbd0d05a9	-0.034429226
120	0xbcd6513b	-0.02616178
121	0x3d2c5deb	0.042081755
122	0xbdd053a8	-0.10172206
123	0x3aa6cd4c	0.0012725978
124	0x3c3448fc	0.011003729
125	0xbd3aea36	-0.045633517
126	0x3dd5b65b	0.10435172
127	0xbc92f20a	-0.017937679

policy_conv.bias f4 [2]
0	0xbdb7c713	-0.08973517
1	0xbcadfbf2	-0.021238301

policy_bn.weight f4 [2]
0	0x3f7852c8	0.97001314
1	0x3f79dae9	0.97599655

policy_bn.bias f4 [2]
0	0xbc9a503f	-0.018837092
1	0xbc8c58b9	-0.01713215

policy_bn.running_mean f4 [2]
0	0x3d286a14	0.04111679
1	0xbe1112f4	-0.14167386

policy_bn.running_var f4 [2]
0	0x3fe5e1dd	1.7959553
1	0x3f4f410e	0.8095864
