models/connect4_model_epoch_6.pth (torch, 329001 bytes, 30 tensors)

conv1.weight f4 [64, 1, 3, 3]
0	0xbe8e3cfb	-0.277809
1	0xbe821fa0	-0.25414753
2	0xbe70a32c	-0.23499745
3	0xbe5833f6	-0.21113572
4	0xbe6507a1	-0.22366191
5	0x3afea958	0.001942913
6	0xbe17757e	-0.14790913
7	0xbd9bfcea	-0.07616599
8	0x3eb3b67a	0.35100156
9	0xbd21d2fb	-0.039507847
10	0x3d2dc920	0.042428136
11	0xbe57423e	-0.21021363
12	0xbdd6b5ff	-0.10483932
13	0xbd786595	-0.06064375
14	0xbe4a211c	-0.19739193
15	0xbdbac465	-0.091194905
16	0xbd5aa68b	-0.053381484
17	0xbdd9a783	-0.106276534
18	0x3d3c47ea	0.04596702
19	0xbc0dfd20	-0.008666307
20	0x3d616e13	0.055036616
21	0xbe1b6933	-0.15176849
22	0xbe3ed31d	-0.18635221
23	0x3cb5dab3	0.02219901
24	0x3ea4c7c4	0.3218366
25	0x3e63d403	0.22248845
26	0x3ba333be	0.0049805334
27	0xbe7b9ea0	-0.2457223
28	0x3d16796e	0.036736898
29	0x3e8ea202	0.27857977
30	0x3ea9ef68	0.33190465
31	0xbd1506dc	-0.036383495
32	0xbdf63eeb	-0.120237194
33	0x3c84a986	0.016194116
34	0x3da66296	0.081242725
35	0xbe8fa100	-0.2805252
36	0xbd93aad2	-0.07210316
37	0x3e79cb7a	0.24394026
38	0x3e51dd27	0.20494519
39	0x3ce6713c	0.028130166
40	0xbe50efe2	-0.20404008
41	0x3e56f80e	0.20993063
42	0x3e9075ff	0.28215024
43	0xbe832ec8	-0.2562163
44	0xbe86db21	-0.26339057
45	0xbea60ee1	-0.32433227
46	0xbb3fa932	-0.0029245135
47	0xbead59f8	-0.33857703
48	0xbe80a6bc	-0.25127208
49	0xbd942c58	-0.072350204
50	0x3daca794	0.084304005
51	0xbe96f858	-0.29486346
52	0xbd8ae766	-0.06782417
53	0x3c82b835	0.015956977
54	0xbe9a122d	-0.30091992
55	0xbd045feb	-0.032318037
56	0x3dcf0d81	0.101099975
57	0xbd586fe0	-0.052841067
58	0xbe5c4e84	-0.21514326
59	0x3e1c5a84	0.15268904
60	0xbdef201c	-0.11676046
61	0xbd95b86a	-0.07310565
62	0xbc211999	-0.009832763
63	0xbe8c0cd4	-0.27353537
64	0xbe008967	-0.12552415
65	0xbe2c8253	-0.1684659
66	0xbe671fb0	-0.22570682
67	0xbcaa5cb3	-0.020796156
68	0xbda0e6ea	-0.07856543
69	0x3e74958e	0.23885176
70	0xbddf77f6	-0.109115526
71	0x3ead8dd7	0.33897278
72	0x398a4402	0.0002637208
73	0xbe295fe6	-0.16540489
74	0xbe71e9a9	-0.2362429
75	0x3e586575	0.21132453
76	0x3e8d5364	0.27602684
77	0xbe8eb1b5	-0.27869955
78	0x3dccd9fb	0.10002514
79	0xbe1b72ec	-0.15180558
80	0xbd53ab92	-0.051677294
81	0xbd05d14b	-0.0326703
82	0x3e9ecde7	0.31016466
83	0x3e936815	0.28790346
84	0xbe82a9c6	-0.25520152
85	0xbe0f1ef1	-0.13976647
86	0x3d399920	0.045312047
87	0xbc7a5e45	-0.015281265
88	0x3ea83df6	0.32859772
89	0x3dafbda9	0.08581097
90	0xbe912bbe	-0.28353685
91	0xbd5f12b1	-0.054461185
92	0x3e8aae50	0.27086115
93	0x3e87a5ce	0.26493686
94	0xbe74b472	-0.2389696
95	0xbe5a3926	-0.21310863
96	0x3e8e402d	0.27783337
97	0xbe5594e7	-0.20857583
98	0xbda75628	-0.0817073
99	0xbe65ea11	-0.2245257
100	0x3d936fc8	0.07199055
101	0x3d96e717	0.07368296
102	0x3e22d0bc	0.15899938
103	0xbe5374cd	-0.20650025
104	0x3ddcf387	0.10788637
105	0xbe68f6bf	-0.22750376
106	0x3e62b297	0.22138439
107	0x3e749f0b	0.23888795
108	0x3c6de6cc	0.014520358
109	0xbe80662a	-0.25077945
110	0x3e86d6ea	0.2633584
111	0xbbccfa22	-0.006255404
112	0x3e97e446	0.29666346
113	0xbda1513e	-0.07876824
114	0xbe73b10c	-0.23798007
115	0x3e6cce79	0.23125638
116	0xbe7d6e59	-0.24749126
117	0xbe28cfe7	-0.16485558
118	0xbc5c9ee0	-0.013465613
119	0x3e390211	0.18067195
120	0xbe96200d	-0.29321328
121	0xbe8d23e0	-0.27566433
122	0x3ea9ce8f	0.33165404
123	0xbd95d297	-0.073155575
124	0xbe7ef8db	-0.24899618
125	0x3d2e15ea	0.042501368
126	0xbd7c3555	-0.0615743
127	0xbaf8dbd7	-0.0018986416
128	0x3e69d7f6	0.22836289
129	0x3e5bb14d	0.21454354
130	0xbdee3dd5	-0.11632887
131	0x3d2705c4	0.040776983
132	0xbe3f9636	-0.18709645
133	0xbdcf1cc6	-0.1011291
134	0xbe95a505	-0.29227462
135	0x3d16769f	0.03673422
136	0x3c0812b9	0.008305245
137	0x3de37d40	0.11107874
138	0xbe2885b3	-0.16457252
139	0xbe3ebaba	-0.18625918
140	0xbe31b900	-0.17355728
141	0x3e84e39e	0.25954908
142	0xb9947834	-0.00028318318
143	0xbe974375	-0.29543653
144	0xbe90228a	-0.2815135
145	0x3e1216a0	0.14266443
146	0x3c49230b	0.012276421
147	0x3e3613f5	0.1778105
148	0x3d9ffe90	0.07812226
149	0x3ea0ec49	0.3143027
150	0x3e9f8bdc	0.31161392
151	0x3e6daf4f	0.23211406
152	0xbe677ea8	-0.2260691
153	0xbe51ea41	-0.20499517
154	0xbc7b7c57	-0.015349469
155	0xbcdc9abc	-0.026929252
156	0xbe316466	-0.17323455
157	0xbde309c7	-0.11085849
158	0x3e8cb993	0.27485332
159	0x3e99fb54	0.3007456
160	0xbe9ad888	-0.30243325
161	0xbd10a4da	-0.035313465
162	0xbe5f89fc	-0.2182998
163	0x3e19149a	0.14949265
164	0x3e992a04	0.29914868
165	0x3ea5409e	0.32275862
166	0xbe9e6bf1	-0.30941728
167	0xbd3edc05	-0.046596546
168	0x3e243252	0.1603482
169	0xbe784e25	-0.2424856
170	0x3da10826	0.07862882
171	0x3d53d1bd	0.051713694
172	0xbdb84815	-0.089981236
173	0xbe7b9503	-0.24568562
174	0xbe0ede74	-0.13952047
175	0x3db286d4	0.08717123
176	0x3d5bc419	0.05365381
177	0x3e64c058	0.22338998
178	0x3ddc1a51	0.10747207
179	0x3e210d00	0.15727615
180	0x3dafefd2	0.08590664
181	0xbe9b5baa	-0.30343372
182	0x3deca9f7	0.11555856
183	0xbd00009f	-0.031250592
184	0xbca6d8bf	-0.020367024
185	0x3e72fa2b	0.23728244
186	0xbdf5c2ec	-0.12000069
187	0xbe8cfc3a	-0.27536184
188	0xbd8acd2f	-0.06777417
189	0x3e922c7f	0.28549573
190	0xbe28ceab	-0.16485088
191	0xbcb6061d	-0.022219712
192	0x3ea1d7af	0.31609866
193	0x3d2d737e	0.04234647
194	0xbc20e2b8	-0.009819679
195	0x3e812aaa	0.25227863
196	0x3e6974f8	0.22798526
197	0x3d348417	0.044071283
198	0xbd107f19	-0.03527746
199	0xbe1eed01	-0.15520097
200	0x3ba4f78a	0.005034392
201	0xbe87fc40	-0.2655964
202	0x3c15c685	0.009141569
203	0xbea8a99e	-0.32941908
204	0x3e081c0d	0.1329195
205	0xbe325215	-0.17414124
206	0xbd66253a	-0.056187846
207	0x3d2df8b9	0.04247353
208	0x3e9722c5	0.29518715
209	0x3e37f86c	0.17965859
210	0x3d541861	0.051781062
211	0xbe901d07	-0.28147146
212	0x3e669029	0.2251593
213	0x3e884c3a	0.26620656
214	0x3ea70827	0.32623407
215	0xbcbc5203	-0.022988325
216	0x3d454359	0.04815993
217	0x3e0790e5	0.13238867
218	0x3e8bd5f2	0.27311665
219	0xbe0bf4de	-0.13667628
220	0xbdb3a5b6	-0.08771841
221	0x3e981c94	0.29709303
222	0xbea3daf3	-0.32002982
223	0xbda4db0c	-0.080495924
224	0x3df99984	0.12187484
225	0x3e66c090	0.22534394
226	0xbe153aa2	-0.14573148
227	0xbe75f566	-0.24019393
228	0x3b4ad16d	0.0030947581
229	0x3deebbff	0.11656951
230	0x3e9b6bfc	0.30355823
231	0xbe731645	-0.23738964
232	0x3e652dfb	0.22380821
233	0xbd4dc084	-0.050232425
234	0x3dc3d6b7	0.09562438
235	0xbd130ff4	-0.035903886
236	0xbe5bbf99	-0.21459807
237	0xbea82204	-0.32838452
238	0xbce72df5	-0.028220156
239	0xbccf21f2	-0.025284741
240	0x3cae9c63	0.021314805
241	0x3e36255c	0.17787689
242	0x3da8367c	0.08213517
243	0x3e9f25d0	0.31083536
244	0x3e92e2e3	0.28688726
245	0xbe628c5a	-0.22123852
246	0xbdaae7f1	-0.083450206
247	0xbc33aea9	-0.010966935
248	0xbce3c13e	-0.027802106
249	0x3d12a48d	0.03580146
250	0xbeaa6a03	-0.33284006
251	0x3e9352a9	0.28774002
252	0xbe268709	-0.1626245
253	0x3e2b0ec2	0.16704848
254	0x3e9096ea	0.28240138
255	0x3e8d9f82	0.27660757

conv1.bias f4 [64]
0	0xbc5bf7e0	-0.013425797
1	0xbe591492	-0.21199253
2	0x39f7ea02	0.0004728586
3	0x3e71934f	0.2359135
4	0x3d3908c5	0.04517438
5	0x3e2e6f2b	0.17034595
6	0x3dac1d1a	0.08403988
7	0x3d8ba22c	0.06818041
8	0x3e05455b	0.13014738
9	0xbcfb823c	-0.030701749
10	0xbe0c9dfc	-0.13732141
11	0x3e0b11da	0.13581029
12	0x3d490e8f	0.04908615
13	0x3e712e64	0.23552853
14	0xbcce78b6	-0.025204044
15	0x3e38127d	0.17975803
16	0xbe808123	-0.25098523
17	0xbd5bee35	-0.05369397
18	0xbe400705	-0.18752678
19	0xbd02440c	-0.031803176
20	0xbea51e4a	-0.3224967
21	0xbe9af969	-0.3026841
22	0xbea4fdf3	-0.32224998
23	0x3e5b12e6	0.21393928
24	0x3dfe0933	0.12404098
25	0xbe4097aa	-0.18807855
26	0xbe86990c	-0.2628864
27	0x3dcca0c7	0.09991603
28	0x3e936c63	0.2879363
29	0xbe3f55e7	-0.18685113
30	0xbe123733	-0.1427887
31	0xbe3f0ff2	-0.18658426
32	0xbe544132	-0.20727995
33	0xbea07055	-0.31335703
34	0x3e9a8e61	0.3018675
35	0x3e7a7355	0.24458058
36	0x3e9a22e5	0.30104747
37	0xbbba4f9e	-0.0056857606
38	0x3e5f4838	0.21804893
39	0x3d65275c	0.05594574
40	0x3e4863a1	0.19569255
41	0x3e0a358f	0.13496993
42	0x3e6fd028	0.23419249
43	0xbdc39c0a	-0.095512465
44	0xbdb7bc82	-0.08971502
45	0xbea26143	-0.3171483
46	0xbde5f88f	-0.112290494
47	0xbea6b8ff	-0.32563016
48	0xbd98d449	-0.07462365
49	0xbe9b9f6d	-0.3039507
50	0x3df16f4f	0.117888086
51	0xbd93df5f	-0.07220339
52	0xbd5a4448	-0.053287774
53	0x3db91da8	0.090388596
54	0xbe9b5e8f	-0.3034558
55	0x3cff84f8	0.031191334
56	0xbea200f6	-0.31641358
57	0xbda80ef2	-0.082059756
58	0x3e00a46c	0.12562722
59	0x3e2bfc50	0.16795468
60	0x3e0b56e1	0.1360736
61	0xbe811989	-0.25214794
62	0xbdcbfe04	-0.09960559
63	0x3d09bc7a	0.03362701

bn1.weight f4 [64]
0	0x3f817d76	1.0116413
1	0x3f80c3c7	1.0059747
2	0x3f7f815c	0.9980676
3	0x3f81944c	1.0123382
4	0x3f7b9ee5	0.9828933
5	0x3f8197f2	1.0124495
6	0x3f800ed4	1.0004525
7	0x3f8154d7	1.0104016
8	0x3f80b794	1.0056024
9	0x3f807d8c	1.0038314
10	0x3f7d9c5b	0.99066705
11	0x3f7d1011	0.9885264
12	0x3f7fd288	0.9993062
13	0x3f8131b9	1.0093299
14	0x3f7f54ab	0.9973857
15	0x3f7ee495	0.9956754
16	0x3f82ecc2	1.0228503
17	0x3f7ec9b5	0.9952653
18	0x3f7e1237	0.99246544
19	0x3f8169b5	1.0110384
20	0x3f814d0e	1.010164
21	0x3f829ebc	1.0204692
22	0x3f807ae0	1.0037498
23	0x3f7b1338	0.980762
24	0x3f7f35a3	0.9969122
25	0x3f80059b	1.0001711
26	0x3f7d4cb4	0.98945165
27	0x3f7f88a8	0.99817896
28	0x3f7d7a7c	0.9901502
29	0x3f7d2002	0.98876965
30	0x3f803a12	1.0017722
31	0x3f7ab586	0.9793323
32	0x3f802b5a	1.001323
33	0x3f8133d1	1.0093938
34	0x3f7c93a3	0.98662776
35	0x3f805df7	1.0028676
36	0x3f7d6261	0.9897824
37	0x3f80dd1e	1.006748
38	0x3f819f29	1.0126697
39	0x3f7d4496	0.9893278
40	0x3f81afc6	1.0131767
41	0x3f801e62	1.0009272
42	0x3f82499a	1.0178711
43	0x3f7ebc53	0.9950611
44	0x3f804a04	1.0022588
45	0x3f823a5b	1.0174059
46	0x3f7b25c8	0.98104525
47	0x3f78a62f	0.97128576
48	0x3f7c070f	0.9844827
49	0x3f828ec2	1.0199816
50	0x3f80030d	1.0000931
51	0x3f7e5ec7	0.9936337
52	0x3f7ea241	0.9946633
53	0x3f7aa24a	0.97903883
54	0x3f80ae63	1.0053219
55	0x3f7ebd12	0.9950725
56	0x3f7ea65a	0.9947258
57	0x3f805073	1.0024551
58	0x3f81c2b6	1.0137546
59	0x3f7da0b1	0.9907332
60	0x3f81106a	1.0083134
61	0x3f801d1e	1.0008886
62	0x3f7f3521	0.99690443
63	0x3f7ba587	0.9829945

bn1.bias f4 [64]
0	0x3c450789	0.012025722
1	0x3bb21ac7	0.005435321
2	0xba0998ec	-0.00052489224
3	0x3ab39d8c	0.0013703569
4	0xbbcc9d30	-0.006244324
5	0xbbbedc72	-0.005824619
6	0x3c3fa7af	0.011697694
7	0x3bbd92e5	0.0057853335
8	0xbb467769	-0.0030283576
9	0x3bc86be1	0.006116376
10	0xbc53c053	-0.012924272
11	0xbbeaf050	-0.0071697608
12	0xbbcbec95	-0.006223271
13	0x3c882578	0.016619429
14	0xbb8f10fb	-0.004366038
15	0xbbfd6577	-0.007733043
16	0xbc62abf4	-0.013834942
17	0x38c5e98d	9.437194e-05
18	0xbb2fd6d5	-0.002683093
19	0xbc75ecd4	-0.0150100775
20	0x3cae6c41	0.021291854
21	0x3be8fc75	0.0071101733
22	0xbb02518c	-0.0019885032
23	0xbcf66ede	-0.030082162
24	0x3bae0f95	0.005311916
25	0xbc24dc5f	-0.010062306
26	0xbc9f2905	-0.01942874
27	0x39f5ee2f	0.00046907502
28	0xbc3b8615	-0.011445542
29	0xbccdcb55	-0.02512137
30	0x3a7e68c7	0.0009704944
31	0x3c6d2961	0.0144751975
32	0xbc5c7555	-0.0134557085
33	0xbc8c9423	-0.01716048
34	0xba4122ed	-0.000736757
35	0xbc4519b1	-0.012030051
36	0xbb10dda4	-0.0022104764
37	0x3b24754b	0.0025094326
38	0xba26f2ee	-0.0006368597
39	0x3c474597	0.012162588
40	0xbbc999fc	-0.0061523896
41	0x3c7b7fdc	0.015350308
42	0x3a2a4c6b	0.00064963725
43	0x39963efe	0.00028657162
44	0x3bd8d33a	0.006616977
45	0xbb225705	-0.0024771106
46	0x391a9005	0.00014740236
47	0xbcb26e27	-0.02178104
48	0x3adbfe79	0.0016784213
49	0xba98d2b9	-0.001165948
50	0x3b8d04cc	0.0043035503
51	0xbbebd467	-0.007196951
52	0xba7de48b	-0.00096852396
53	0x3c4c55c7	0.012471623
54	0x3855d0f8	5.0977775e-05
55	0x38ee9a04	0.00011377412
56	0xbc79f05b	-0.015255059
57	0xbaac1d6f	-0.001313133
58	0x3c4f2f2b	0.012645523
59	0xbb5544ef	-0.0032542308
60	0x3b9f8ec6	0.004869315
61	0x3b8a1bc4	0.0042147357
62	0x3ba7b23a	0.005117682
63	0xbb909ed6	-0.004413466

bn1.running_mean f4 [64]
0	0xbb636d51	-0.0034702609
1	0xbe4fdd5a	-0.20299283
2	0xbb3b14a7	-0.0028546245
3	0x3e715e53	0.23571138
4	0x3d3abdfe	0.045591347
5	0x3e3a297c	0.18179888
6	0x3db3ec76	0.08785336
7	0x3d8f8ff8	0.07009882
8	0x3e06e35b	0.13172667
9	0xbd113148	-0.03544739
10	0xbe093432	-0.13398817
11	0x3e081ce9	0.13292278
12	0x3d4523e8	0.048129946
13	0x3e77747b	0.24165528
14	0xbcb7d40b	-0.022439977
15	0x3e3bead5	0.183513
16	0xbe84e422	-0.25955302
17	0xbd4e9b61	-0.05044115
18	0xbe3f82e9	-0.18702282
19	0xbd0f5f48	-0.035002977
20	0xbea34a8a	-0.31892806
21	0xbe9f9b88	-0.31173348
22	0xbea0e88c	-0.3142742
23	0x3e517f9e	0.20458838
24	0x3dfc6833	0.12324562
25	0xbe43bd04	-0.19115072
26	0xbe855f5c	-0.26049316
27	0x3dcb6e91	0.09933198
28	0x3e92413e	0.285654
29	0xbe433058	-0.1906141
30	0xbe10d9c1	-0.14145567
31	0xbe4056d3	-0.18783121
32	0xbe58e92f	-0.21182702
33	0xbea2c5cc	-0.31791532
34	0x3e9d0cc3	0.306738
35	0x3e795f16	0.24352679
36	0x3e988860	0.29791546
37	0x3b8fcb3c	0.004388241
38	0x3e61c37e	0.2204723
39	0x3d79a70f	0.060950335
40	0x3e49c7f4	0.19705182
41	0x3e0c9043	0.13726906
42	0x3e75c3a0	0.24000406
43	0xbdc71f4f	-0.097227685
44	0xbdb8f589	-0.09031207
45	0xbea2552c	-0.31705606
46	0xbdf4d986	-0.11955552
47	0xbea92cf0	-0.33042097
48	0xbd9d7a4f	-0.07689344
49	0xbe9b4e66	-0.3033325
50	0x3df1854d	0.11793003
51	0xbd99e654	-0.07514635
52	0xbd56097c	-0.05225514
53	0x3dc54d8a	0.0963393
54	0xbe9a9ea1	-0.3019915
55	0x3d180aa0	0.037119508
56	0xbea9b9e3	-0.33149633
57	0xbdac6b66	-0.08418922
58	0x3e0697e3	0.13143878
59	0x3e369c68	0.17833102
60	0x3e082736	0.13296208
61	0xbe836aaf	-0.2566733
62	0xbdc847ce	-0.09779321
63	0x3d18fba5	0.037349362

bn1.running_var f4 [64]
0	0x3da04187	0.07824998
1	0x3c95a7a0	0.018268406
2	0x3d61c20e	0.055116706
3	0x3da0263d	0.078197934
4	0x3dc6978c	0.09696874
5	0x3d76e373	0.060275506
6	0x3d0c535a	0.034259178
7	0x3d9b4d20	0.0758307
8	0x3d985198	0.07437438
9	0x3da4a3f1	0.08039082
10	0x3dd63470	0.104592204
11	0x3da25736	0.079267904
12	0x3dd1678e	0.102248296
13	0x3dae5316	0.08511941
14	0x3d582fc6	0.052779935
15	0x3d78f9ad	0.060784984
16	0x3dbfeddb	0.09371539
17	0x3db8fe45	0.09032873
18	0x3de8c7de	0.11366247
19	0x3d1afd5c	0.03783928
20	0x3d630310	0.055422843
21	0x3d6547fc	0.055976853
22	0x3d662df8	0.056196183
23	0x3dd4810e	0.10376178
24	0x3d824b30	0.06361997
25	0x3da38965	0.0798519
26	0x3d4254b6	0.047444068
27	0x3dbe2556	0.09284465
28	0x3db454e2	0.088052526
29	0x3d220fbf	0.039565798
30	0x3d5b4744	0.05353476
31	0x3db2df07	0.08733945
32	0x3dcf084c	0.101090044
33	0x3da6e92c	0.08149943
34	0x3d8cccb3	0.06874981
35	0x3df16726	0.11787252
36	0x3db09116	0.08621423
37	0x3d1106b2	0.035406776
38	0x3d8484b4	0.064706236
39	0x3d58e0f3	0.052948903
40	0x3d65d7ee	0.05611413
41	0x3db56e42	0.08858921
42	0x3d71eae4	0.0590619
43	0x3de2c49d	0.11072657
44	0x3d25c199	0.040467832
45	0x3dde5787	0.10856538
46	0x3d195686	0.03743603
47	0x3d9d9942	0.07695247
48	0x3db25c83	0.087090515
49	0x3d91275f	0.070875876
50	0x3d637348	0.055529863
51	0x3d8ce9a5	0.06880502
52	0x3d4d3e25	0.050108094
53	0x3de01889	0.1094218
54	0x3d8f8250	0.07007277
55	0x3d74957b	0.05971287
56	0x3da36cf5	0.07979766
57	0x3d8cc668	0.068737805
58	0x3d1bc276	0.03802725
59	0x3d90b8dd	0.0706651
60	0x3dc18b31	0.09450377
61	0x3d6f4b00	0.058421135
62	0x3d33d4a9	0.04390398
63	0x3da744c9	0.081674166

conv2.weight f4 [64, 64, 3, 3]
0	0x3b986e98	0.0046518557
1	0xbcfce1de	-0.03086942
2	0x3c59ceaa	0.013293901
3	0x3c07b2b3	0.008282351
4	0xbcee2ced	-0.029074157
5	0xbb412ccd	-0.0029476166
6	0x3b82e861	0.003994987
7	0xbb8c17e4	-0.004275309
8	0x3ca2330f	0.019799737
9	0xbc98c7c2	-0.01864994
10	0xbc8136d3	-0.015773213
11	0x3c55aa2f	0.013041063
12	0xbc6fa940	-0.014627755
13	0xbc378a18	-0.011202358
14	0xbd1c8343	-0.03821112
15	0xbcc611bc	-0.024178378
16	0x3c1afb82	0.009459378
17	0xbce617f7	-0.0280876
18	0x3cb8dfb1	0.022567602
19	0xbc730143	-0.014831844
20	0x3c32f514	0.010922689
21	0x3bcc860c	0.0062415656
22	0xbc18af20	-0.009319097
23	0xbbe17359	-0.0068802056
24	0xbb383d6e	-0.0028112787
25	0x3d3d1607	0.046163585
26	0x3cdbcd03	0.026831156
27	0xbcc4f2f5	-0.024041632
28	0x3d246584	0.040135875
29	0x3ccd44e3	0.025057262
30	0x3c24e28a	0.010063777
31	0x3cdfe9ea	0.027333219
32	0x3d20dca5	0.039272923
33	0x3cc1ec3b	0.023672214
34	0x3b33ae05	0.0027416956
35	0x3bcc4f64	0.00623505
36	0xbc8200c9	-0.015869515
37	0xbbd73500	-0.0065675974
38	0x3d585c1d	0.05282222
39	0xbd04d488	-0.032429248
40	0xbb48fe37	-0.0030669102
41	0xbc8da4d9	-0.01729052
42	0xbac25d9e	-0.0014828925
43	0x3d19fe71	0.03759617
44	0x3c1d80b8	0.0096132085
45	0xbcdfb9f5	-0.02731035
46	0xbd28e38b	-0.041232627
47	0x3b29d0c5	0.002591179
48	0x3ccccf3d	0.025001163
49	0xbd1dda53	-0.03853829
50	0xbd113223	-0.035448205
51	0xbd0d462c	-0.03449075
52	0xbc271ef0	-0.010200247
53	0xbca5d8db	-0.020245006
54	0x3cb0f03c	0.021598928
55	0x3cca5572	0.024698947
56	0x3c2b7f1e	0.010467319
57	0xbc5f4850	-0.0136280805
58	0xbd295681	-0.041342262
59	0xbccba119	-0.02485709
60	0x3caea904	0.021320827
61	0xbd0d0999	-0.03443298
62	0xbd26ace2	-0.040692218
63	0x3c2a2e51	0.010387019
64	0x3cc50908	0.024052158
65	0xbd386f64	-0.045028105
66	0xbbfb8b4a	-0.0076765167
67	0xbb8bb631	-0.0042636623
68	0x3c84e0e2	0.016220514
69	0xbc6b5383	-0.014363172
70	0x3c75916c	0.014988285
71	0x3c54044b	0.012940477
72	0xbce53e6d	-0.027983868
73	0xbd04ed70	-0.032453
74	0x3ce0dba0	0.027448475
75	0x3b4c626b	0.0031186591
76	0x3d22d95b	0.039758068
77	0xbd64e89d	-0.0558859
78	0xbd0955d6	-0.033529125
79	0xbb392a3e	-0.0028253938
80	0xbca6a1c1	-0.020340802
81	0xbcecccf7	-0.028906329
82	0xbd5451a4	-0.05183567
83	0xbcf3a900	-0.029743671
84	0xbd0470d8	-0.03233418
85	0xbcd835a7	-0.02639277
86	0xbc91c981	-0.01779628
87	0x3d1407d7	0.03614029
88	0xbd18c909	-0.037301097
89	0xbcea84f8	-0.028627858
90	0xbcd69130	-0.026192278
91	0xbd16c554	-0.03680928
92	0x3d239215	0.039934237
93	0x3ca85f1b	0.020553162
94	0xbd4b152d	-0.04958074
95	0x3cafb49b	0.021448424
96	0x3d13cab5	0.03608199
97	0xbcbea21f	-0.023270665
98	0x3ce034d2	0.027368937
99	0xbc954df2	-0.018225644
100	0x3bd4428a	0.0064776586
101	0xbcc53cfe	-0.024076935
102	0x3c9cb913	0.019131219
103	0x3d1f24db	0.038853507
104	0xbccf35ad	-0.02529415
105	0x3d1aacc3	0.037762415
106	0xbba4c065	-0.005027818
107	0xbc5ffe6b	-0.013671498
108	0xbc366a7f	-0.011133789
109	0x3b4e1b61	0.0031449425
110	0xbc846e93	-0.016166007
111	0x3aeb6866	0.001796019
112	0x3a8bdfd3	0.0010671563
113	0xba8768ab	-0.0010330876
114	0x3c377a34	0.011198569
115	0xbd0391aa	-0.032121338
116	0xbce12773	-0.027484631
117	0xbcf4b7de	-0.029872831
118	0xbd2d196f	-0.042260583
119	0xbbec3f0b	-0.0072096637
120	0xbc3b1028	-0.011417426
121	0xbd09378c	-0.03350024
122	0xbd6b8307	-0.057498004
123	0xbc122916	-0.008920928
124	0x3d0b0f3a	0.033950068
125	0x3bb6c6b0	0.0055778846
126	0xbd713b4d	-0.058894444
127	0xbc154fc6	-0.009113258
128	0x3b06516b	0.0020495306
129	0xbcabce9b	-0.02097254
130	0x3d202fda	0.039108135
131	0xbcf48681	-0.029849293
132	0xbc38bbe4	-0.011275265
133	0xbd08f5e4	-0.033437625
134	0x3ce287a1	0.027652564
135	0x3cf0dd8f	0.029402522
136	0xbc96ddff	-0.018416403
137	0xbc7aa3d0	-0.015297845
138	0xbbb5dbf1	-0.0055499007
139	0xbd424645	-0.047430295
140	0x3c6a8feb	0.014316539
141	0x3cbfd8a3	0.02341873
142	0x3d25262f	0.040319618
143	0x3b335e0a	0.0027369284
144	0x3cfeeccc	0.031118773
145	0x3d1227c3	0.03568245
146	0x3cc32d72	0.023825381
147	0xbd00a613	-0.03140838
148	0xbb813c5c	-0.003943963
149	0xbcf8b85a	-0.030361343
150	0x3cdfc200	0.027314186
151	0xbd0cba74	-0.034357503
152	0xbbaf87b4	-0.0053567532
153	0xbc5061fc	-0.012718674
154	0x3d1b9063	0.037979495
155	0x3d4a10bb	0.04933236
156	0xbc5f87ae	-0.013643188
157	0xbcad38f4	-0.021145321
158	0xbbcac9f7	-0.006188627
159	0xbcbf601a	-0.023361254
160	0x3c2e18ae	0.010626001
161	0x3c96c8ac	0.018406235
162	0xbcef37e8	-0.029201463
163	0x3d198516	0.037480436
164	0x3d2aaf90	0.041671336
165	0x3d087868	0.033317953
166	0xbd4467e3	-0.047950637
167	0x3d3f9dde	0.046781413
168	0x3d0ece10	0.034864485
169	0xbd46b2e5	-0.04851045
170	0x3d200fb7	0.039077487
171	0x3d1fb104	0.038987175
172	0xbc0c1e0c	-0.008552086
173	0x3cc067df	0.02348703
174	0x3b4bfedb	0.0031127247
175	0xbd26de0d	-0.040739108
176	0x39dd4006	0.00042200106
177	0xb7d66980	-2.5559915e-05
178	0x3d11c9d6	0.035592876
179	0xbccd75c5	-0.025080571
180	0x3d0e6f80	0.034774303
181	0xbc42cc0e	-0.011889471
182	0x3c9d68fa	0.019215096
183	0xbcc9674b	-0.024585387
184	0x3cb48f51	0.022040995
185	0xbcad9f8c	-0.021194242
186	0x3cfbbc60	0.030729473
187	0x3cabb123	0.020958489
188	0x3d301372	0.042987294
189	0x3c4f472e	0.012651248
190	0x3b011541	0.0019696506
191	0xbc9fbb9a	-0.019498635
192	0xbbbd5661	-0.0057781194
193	0x38338880	4.280405e-05
194	0x3cc7b257	0.024377031
195	0xbc3e348e	-0.01160921
196	0xbd3aea14	-0.04563339
197	0x3aefce3b	0.0018295714
198	0xbc060d21	-0.008181841
199	0xbb03d281	-0.0020114484
200	0x3cff09a0	0.03113252
201	0x39ee7924	0.00045485154
202	0xbc44fac0	-0.012022674
203	0xbd1b07bd	-0.037849177
204	0xbc844357	-0.016145391
205	0x3d11aa29	0.035562668
206	0xbd1d5837	-0.038414206
207	0x3d0090fe	0.031388275
208	0xbc88a802	-0.016681675
209	0xbd440a6d	-0.047861505
210	0x3be1e3b8	0.0068936013
211	0xbca598bb	-0.02021443
212	0x3cc077fb	0.023494711
213	0xbc8a23b1	-0.016862722
214	0xbc1c604e	-0.009544445
215	0xbaff0907	-0.0019457646
216	0x3c990778	0.01868032
217	0x3b5eb22a	0.0033980706
218	0x3cd683b2	0.026185844
219	0x3c01261d	0.007882622
220	0xbcef27a4	-0.029193707
221	0xbd14f0ce	-0.03636246
222	0xbcd5efc8	-0.026115313
223	0x3c4f0ec2	0.012637796
224	0xbc86a7c3	-0.016437417
225	0x3c8b6cae	0.017019596
226	0x3cb5bb8f	0.022184161
227	0x3c006fd5	0.007839163
228	0xbd2e46cb	-0.042547982
229	0x3d1dc10b	0.03851418
230	0x3cbd9478	0.023142084
231	0xbca5388e	-0.020168569
232	0x3cc0fcf8	0.023558125
233	0x3cfed4f9	0.031107413
234	0xbc3fb7f2	-0.011701571
235	0xbd52c355	-0.051455814
236	0xbc1de40c	-0.00963689
237	0x3cef4c46	0.029211175
238	0xbd0089b1	-0.031381313
239	0x3c536ec6	0.012904828
240	0x3c42bb62	0.011885496
241	0xbb9ba09c	-0.0047493707
242	0xbd140cfe	-0.036145203
243	0xbadda943	-0.0016911406
244	0xbcb097b2	-0.021556709
245	0x3c317693	0.010831493
246	0xba95a63c	-0.001141734
247	0xbb70dcf2	-0.0036752787
248	0xbc78e652	-0.015191631
249	0x3afee5dd	0.0019447167
250	0x3d2427b1	0.040076915
251	0x3c39cc9b	0.011340286
252	0xbd0ce948	-0.03440216
253	0x3cbecb2a	0.023290236
254	0xbd471b46	-0.048609994
255	0x3cfcbe78	0.030852541

conv2.bias f4 [64]
0	0xbc534259	-0.0128942365
1	0x3d000486	0.031254314
2	0x3cdd4046	0.027008187
3	0xbaf434e2	-0.0018631483
4	0x3ceace7a	0.028662909
5	0x3c4b1d2a	0.01239709
6	0x3d245068	0.040115744
7	0xbc6e1670	-0.014531717
8	0xbbd50b36	-0.0065015806
9	0x3d2ec729	0.042670403
10	0x39c09d4c	0.0003673829
11	0x3d015e15	0.031583864
12	0xbb4f5205	-0.003163458
13	0xbb96d8ed	-0.0046034963
14	0x3c8a16b1	0.016856523
15	0x3d0fcb0e	0.035105757
16	0x3c23464d	0.0099654915
17	0x3d227233	0.03965969
18	0xbba2f1bf	-0.004972666
19	0xbd03fef5	-0.032225568
20	0xbcd1bec4	-0.02560366
21	0x3c66e3a4	0.01409236
22	0xbb675bd7	-0.0035302544
23	0x3ba531ec	0.0050413515
24	0x3c0eb14b	0.008709262
25	0x3c2a51a7	0.010395444
26	0xbd13e749	-0.036109243
27	0xbcd15f85	-0.025558243
28	0x3d1d4e71	0.038404886
29	0x3c1e9cfd	0.009680984
30	0x3d13192a	0.03591267
31	0xbc836fd3	-0.016044533
32	0x3b09d890	0.0021033622
33	0x3b96afbd	0.0045985864
34	0xbd135fad	-0.035979915
35	0xbd2af3a5	-0.041736264
36	0x3cbba839	0.022907363
37	0xbcb0a065	-0.021560857
38	0x3baa5818	0.00519849
39	0xba6548a9	-0.0008746484
40	0x3b68f533	0.003554654
41	0x3d0533ef	0.03252023
42	0x3cb87d4b	0.022520682
43	0xbd206485	-0.039158363
44	0x3ae792c9	0.0017667647
45	0xbcf9bbe1	-0.030485095
46	0x3d07776d	0.033072878
47	0x3b93e33c	0.0045131724
48	0x3d16b610	0.036794722
49	0x3c9753f3	0.018472647
50	0x3b32f11c	0.0027304357
51	0x3c12a65a	0.008950794
52	0xbb91ebd0	-0.00445316
53	0x3d09ed56	0.033673607
54	0xbcaeff89	-0.021362083
55	0xbc73b202	-0.014873983
56	0xbd030cbb	-0.031994563
57	0xba09450a	-0.0005236423
58	0xbc247d37	-0.010039619
59	0x3d090ea5	0.03346123
60	0xbcaf4ce5	-0.02139897
61	0x3c920d9c	0.017828755
62	0xb9b71ea9	-0.00034927324
63	0xbc850958	-0.016239807

bn2.weight f4 [64]
0	0x3f7bc556	0.98347986
1	0x3f7dea9e	0.9918612
2	0x3f8032c1	1.0015489
3	0x3f812fa9	1.009267
4	0x3f81d30f	1.0142535
5	0x3f800218	1.0000639
6	0x3f7d3b8b	0.9891898
7	0x3f813304	1.0093694
8	0x3f7f9b1c	0.99846053
9	0x3f8102e3	1.0079006
10	0x3f7f41cf	0.9970979
11	0x3f802579	1.0011436
12	0x3f7ebf26	0.9951042
13	0x3f7f7dda	0.9980141
14	0x3f7cd92c	0.9876888
15	0x3f80965d	1.0045887
16	0x3f80a5c4	1.0050588
17	0x3f7bb00c	0.983155
18	0x3f80a483	1.0050205
19	0x3f7c9444	0.98663735
20	0x3f809328	1.0044909
21	0x3f81febd	1.0155865
22	0x3f7bba78	0.98331404
23	0x3f7cedc5	0.9880031
24	0x3f806b4b	1.0032743
25	0x3f787286	0.9704975
26	0x3f80c507	1.0060128
27	0x3f7d8658	0.9903312
28	0x3f7f5922	0.9974538
29	0x3f8188b3	1.0119842
30	0x3f827cf4	1.0194383
31	0x3f83228a	1.0244915
32	0x3f7d04f2	0.9883567
33	0x3f7f0fae	0.996333
34	0x3f828ffd	1.0200192
35	0x3f7d3593	0.9890987
36	0x3f8012ae	1.00057
37	0x3f804a25	1.0022627
38	0x3f7f8445	0.998112
39	0x3f7f259e	0.99666774
40	0x3f7ed367	0.99541324
41	0x3f82cc1e	1.0218542
42	0x3f8119c9	1.0085994
43	0x3f7d18b0	0.98865795
44	0x3f80770c	1.003633
45	0x3f7ff2cb	0.9997985
46	0x3f7fb8ae	0.99891174
47	0x3f7ef351	0.9959002
48	0x3f80e96e	1.0071237
49	0x3f811296	1.0083797
50	0x3f7fb07d	0.99878675
51	0x3f7fb86f	0.998908
52	0x3f810add	1.008144
53	0x3f80b7f2	1.0056136
54	0x3f8059f6	1.0027454
55	0x3f813699	1.0094787
56	0x3f7dadb7	0.9909319
57	0x3f7ca7e7	0.986937
58	0x3f80b5af	1.0055445
59	0x3f7cf33c	0.98808646
60	0x3f81386a	1.0095341
61	0x3f81a788	1.0129251
62	0x3f7f6771	0.99767214
63	0x3f8123ca	1.0089047

bn2.bias f4 [64]
0	0xbb0f513d	-0.002186849
1	0xbbc2161b	-0.0059230453
2	0xbb28a191	-0.0025731067
3	0xbbea9c08	-0.0071597137
4	0x3ab5bee1	0.001386609
5	0x3a6c6610	0.0009017894
6	0xbbe1d326	-0.006891626
7	0xbbea23c0	-0.007145375
8	0xbaf7228b	-0.0018854899
9	0x3ba024ea	0.004887213
10	0x3c354721	0.011064322
11	0x3c7c29d5	0.015390833
12	0xbbd5c7ba	-0.0065240534
13	0x3bad788b	0.005293911
14	0x3bea1f24	0.0071448255
15	0x3c83af36	0.016074758
16	0xbaa2bb61	-0.0012415462
17	0xbb74baec	-0.003734286
18	0x3c05cfa0	0.008167177
19	0xbcb4d99d	-0.022076422
20	0x3c5b418d	0.013382328
21	0x3c108ea1	0.008823068
22	0x3b2f5b2f	0.002675723
23	0xbb0c776c	-0.0021433486
24	0xbc430100	-0.011902094
25	0x3b0cebf2	0.002150294
26	0x3b227285	0.0024787497
27	0xbc2d3e6c	-0.010573965
28	0x3b7501b5	0.003738505
29	0x3c88a867	0.016681863
30	0x3c86ef5f	0.016471563
31	0x3c6d9957	0.014501891
32	0xbbba85ce	-0.0056922203
33	0x3c97567f	0.018473862
34	0x3c93a645	0.01802362
35	0xbc03cefb	-0.008044953
36	0xbc19672d	-0.009362978
37	0x3c8fe873	0.017566895
38	0x3c02fb43	0.007994476
39	0x3a56d0ba	0.0008194555
40	0x3beef825	0.0072927647
41	0x3ba5c3c7	0.005058739
42	0xbc0ed2a3	-0.008717212
43	0x3c5b2d46	0.013377493
44	0x3b8b6de9	0.0042550457
45	0x3be80b60	0.007081434
46	0x3c560ab0	0.013064072
47	0x3a273de9	0.000637977
48	0xb99c124b	-0.00029768268
49	0x3b9f56bc	0.0048626345
50	0x3b2e2ba0	0.0026576295
51	0xbb8844e7	-0.0041586044
52	0x3c91b25e	0.017785247
53	0xbc58b10d	-0.013225806
54	0x3b39401d	0.0028266974
55	0x3a83355e	0.0010010411
56	0x3c513f76	0.012771478
57	0xbc8ae98a	-0.016957063
58	0x3cf2bf2e	0.029632177
59	0xbc4daa3d	-0.012552795
60	0xbbf556b0	-0.0074871406
61	0x3c74166d	0.014897925
62	0x3cb98529	0.022646504
63	0xbbac94e9	-0.005266775

bn2.running_mean f4 [64]
0	0x3d8ae912	0.06782736
1	0xbefe9b84	-0.49728024
2	0xbf2acde9	-0.66720444
3	0x3e4ede20	0.20201921
4	0x3e418d03	0.18901448
5	0xbded6f5a	-0.11593504
6	0x3e7cde15	0.24694093
7	0x3ea13f13	0.31493434
8	0xbf0b30f9	-0.543716
9	0x3ada5f78	0.0016660532
10	0xbd9e8ae7	-0.07741337
11	0xbdf5d759	-0.12003965
12	0xbf13c91c	-0.57728744
13	0x3ee1683a	0.4402483
14	0xbe98a404	-0.29812634
15	0x3f3550dd	0.7082651
16	0xbf0bc194	-0.5459225
17	0xbdd674e0	-0.10471511
18	0xbf011049	-0.50415474
19	0xbeb2aca7	-0.34897348
20	0x3f619580	0.88118744
21	0xbe693b89	-0.22776617
22	0xbf1e61ac	-0.61867785
23	0x3efddd90	0.495831
24	0xbc36e1f7	-0.011162273
25	0x3e8ee001	0.27905276
26	0xbf1d58d1	-0.6146365
27	0xbec23fc1	-0.37939265
28	0x3ec7225e	0.38893408
29	0xbf8a27e5	-1.0793425
30	0x3da26f79	0.07931418
31	0xbe07de4b	-0.13268392
32	0xbf65b626	-0.8973106
33	0x3e41e733	0.18935852
34	0xbd4db195	-0.050218184
35	0xbf3698b6	-0.7132677
36	0xbf9faec1	-1.2475206
37	0xbe52f553	-0.20601396
38	0x3f81952b	1.0123647
39	0xbe8dfe7f	-0.27733228
40	0xbe264a93	-0.16239385
41	0xbf74a009	-0.95556694
42	0x3ef55e75	0.47923627
43	0x3ed3c4c1	0.4136105
44	0xbf608702	-0.87706006
45	0xbe9aeed8	-0.30260348
46	0x3e88b181	0.26697925
47	0x3f1a6590	0.6031122
48	0x3c513554	0.012769062
49	0xbf19962d	-0.59994775
50	0x3dd3f2f5	0.10349075
51	0xbed2db57	-0.41182968
52	0xbf125351	-0.5715838
53	0xbf3694f5	-0.7132104
54	0xbd84a8dc	-0.0647752
55	0xbe8f0e3e	-0.27940553
56	0x3f617e53	0.8808338
57	0x3c9a9abd	0.018872613
58	0x3ecb002a	0.39648563
59	0xbf10bbcb	-0.5653655
60	0x3e904ece	0.28185123
61	0xbdc8c377	-0.09802907
62	0x3f723c57	0.9462332
63	0xbf7e0a2a	-0.9923426

bn2.running_var f4 [64]
0	0x3ede3561	0.434001
1	0x3f09dc11	0.5385142
2	0x3f37429e	0.71586025
3	0x3ece6401	0.40310672
4	0x3f0cb0d3	0.5495731
5	0x3eb7ae9c	0.35875404
6	0x3f1d0190	0.6133051
7	0x3eeb29af	0.4593024
8	0x3f283b4e	0.6571549
9	0x3ec31cd7	0.3810794
10	0x3edb5b91	0.42843297
11	0x3ec001f2	0.37501484
12	0x3f2e1934	0.68007207
13	0x3f0535ca	0.520352
14	0x3f03c8e0	0.51478386
15	0x3f0f7505	0.5603793
16	0x3f2efeb3	0.6835739
17	0x3f2bfdac	0.6718395
18	0x3f11f155	0.5700887
19	0x3f010a3d	0.5040625
20	0x3f896a81	1.0735627
21	0x3f0eeb27	0.55827564
22	0x3f66cf9a	0.90160525
23	0x3f0ac45f	0.5420589
24	0x3ebef4bd	0.37296095
25	0x3eff9a73	0.49922523
26	0x3f0f1468	0.5589051
27	0x3f133021	0.57495314
28	0x3f0dac21	0.5534077
29	0x3fc372c4	1.5269399
30	0x3eebb9ac	0.46040094
31	0x3e934300	0.28762054
32	0x3f882a3a	1.0637887
33	0x3ec3668a	0.3816417
34	0x3eac0285	0.33595672
35	0x3f4284af	0.7598371
36	0x3fb73631	1.4313413
37	0x3ed260d7	0.41089508
38	0x3f79300b	0.9733893
39	0x3ef652bb	0.48109993
40	0x3eeb1959	0.45917776
41	0x3f7a3c1e	0.9774798
42	0x3f467ce5	0.77534324
43	0x3f1419fd	0.57852155
44	0x3f8b2657	1.0871075
45	0x3f0dad5b	0.55342644
46	0x3eb010d5	0.34387842
47	0x3f24893c	0.64271903
48	0x3eb0b22c	0.34510934
49	0x3f23357b	0.6375348
50	0x3f390765	0.7227691
51	0x3f31d91a	0.69471896
52	0x3f23da02	0.6400453
53	0x3f469490	0.7757044
54	0x3f00217f	0.5005111
55	0x3f02b542	0.5105783
56	0x3f762c1b	0.9616105
57	0x3ec93d3f	0.3930454
58	0x3f08d6eb	0.5345294
59	0x3f51ef56	0.8200582
60	0x3ef33003	0.47497568
61	0x3efa1fb8	0.48852324
62	0x3f7699af	0.9632825
63	0x3f8eb0e5	1.1147734

conv3.weight f4 [64, 64, 3, 3]
0	0x3d1bb1af	0.03801125
1	0xbd01a4ce	-0.03165131
2	0xbb062d13	-0.0020473644
3	0xbc2b210f	-0.0104448935
4	0x3c9bb0a8	0.019005135
5	0xbc2153b1	-0.009846614
6	0x3ccc485b	0.024936846
7	0x3c61f4fa	0.013791317
8	0x3bada86f	0.00529962
9	0xbd0ec96e	-0.034860067
10	0x3bb175a3	0.0054156347
11	0x3d245d16	0.040127836
12	0x3c55f6b5	0.013059308
13	0xbd140fb6	-0.036147796
14	0x3cd5f5ce	0.026118185
15	0x3cc4793a	0.023983587
16	0x3d840935	0.064470686
17	0xbcbf162e	-0.023326006
18	0x3d148c7c	0.03626679
19	0xbb90c5f9	-0.0044181314
20	0xbc4af1dc	-0.012386765
21	0xbc426dff	-0.011867045
22	0xbc58bed8	-0.013229094
23	0xbc0c1cba	-0.008551771
24	0xbadbbe1f	-0.0016765035
25	0x3c9d6c05	0.019216547
26	0xbc5b6111	-0.013389842
27	0x3d12b90d	0.03582101
28	0xbcc3260c	-0.023821853
29	0xbcec60bf	-0.028854726
30	0x3c872330	0.01649627
31	0x3c41c23a	0.011826092
32	0x3ce6fd3c	0.028196923
33	0x3bcfa18c	0.0063363966
34	0xbb365c6d	-0.0027826086
35	0x3c56ea26	0.013117349
36	0x3cc0a632	0.023516748
37	0xbd2b51c7	-0.041826036
38	0xbd2f91dc	-0.04286371
39	0x3b79f99c	0.0038143164
40	0xbc0bf557	-0.00854238
41	0x3cfb6e30	0.03069219
42	0xbd0439d3	-0.032281708
43	0xbb7bab52	-0.0038401675
44	0xbbdf1a8b	-0.006808584
45	0xbcffb2aa	-0.031213123
46	0x3c521c2f	0.012824102
47	0xbc87d6d4	-0.01658193
48	0x3c232e5f	0.009959786
49	0x3cc0e7ee	0.023548093
50	0xbc3c3ac7	-0.011488623
51	0x3c6f8924	0.014620099
52	0xbc9c7a32	-0.019101236
53	0xbd46b994	-0.048516825
54	0xbcaf9cdf	-0.021437107
55	0xbbfcf398	-0.0077194683
56	0xba239a48	-0.0006240946
57	0x3d4639a5	0.048394818
58	0xbd0b8c64	-0.034069434
59	0xbcd049dc	-0.025425844
60	0x3cff3257	0.031151934
61	0x3d5392b8	0.051653594
62	0x3cefa12d	0.02925166
63	0x3d26944c	0.04066877
64	0xbd0c8eeb	-0.034315985
65	0x3cba9b8b	0.022779247
66	0x3d5a797b	0.05333851
67	0x3c3f6a71	0.011683092
68	0x3c97c767	0.0185277
69	0x3c6cdc3c	0.014456805
70	0xbcf509b1	-0.029911848
71	0x396fc72e	0.00022867016
72	0xbca00126	-0.019531798
73	0x3d165a61	0.036707286
74	0x3d2e8caa	0.042614616
75	0x3d213ff9	0.03936765
76	0xbac51167	-0.0015035094
77	0xbca764e0	-0.020433843
78	0xbc8bb36e	-0.017053332
79	0xbb2b2e86	-0.002612026
80	0x3c4d7366	0.01253972
81	0xbcd1e699	-0.025622653
82	0x3c201ad6	0.009772023
83	0xbd154ec7	-0.03645208
84	0xbc1f6810	-0.0097294
85	0xbd560356	-0.052249275
86	0x3c85c128	0.016327456
87	0xbd1bacc1	-0.038006548
88	0xbca3d771	-0.020000191
89	0x3c9057a3	0.017619913
90	0xbb0e4b62	-0.0021712412
91	0xbd0de37b	-0.03464077
92	0xbcf4efd4	-0.029899515
93	0xbd288ed3	-0.041151833
94	0xbcc0bdfe	-0.023528095
95	0xbcfc1dfd	-0.030776018
96	0xbccc2415	-0.024919549
97	0x3cb1829a	0.021668721
98	0xbcaffa44	-0.02148164
99	0xbd1a8be0	-0.03773105
100	0xbd0109a9	-0.031503353
101	0xbba7d8fa	-0.005122301
102	0xba59f5a4	-0.00083144964
103	0x3cc69a25	0.024243424
104	0x3b059094	0.0020380365
105	0x3c5d4d67	0.013507224
106	0xbc1e77c5	-0.00967211
107	0xbcb216f2	-0.021739457
108	0xbc263cc8	-0.010146327
109	0xbd5bba81	-0.05364466
110	0xbcec65f6	-0.028857213
111	0x3bd03f13	0.0063551753
112	0xbac8ef8f	-0.0015330183
113	0xbd00295f	-0.031289455
114	0x3ce72cdf	0.028219638
115	0xbcccb565	-0.02498884
116	0x3d7e39c3	0.062066805
117	0xbc97fed5	-0.01855413
118	0x3c65098d	0.013979328
119	0xbbc83e52	-0.006110945
120	0x3cb3a364	0.021928497
121	0x3cb96804	0.022632606
122	0xbcbbd8b5	-0.022930482
123	0x3cffd3a8	0.031228855
124	0x3cbc4fe1	0.022987308
125	0xbce5d386	-0.028054964
126	0xbd4e15b2	-0.05031366
127	0x3c6cdf6e	0.014457567
128	0xbb98bc94	-0.004661152
129	0x3d3621e9	0.044465933
130	0x3aed7f93	0.0018119685
131	0xbc98bcdc	-0.018644743
132	0xbce87242	-0.028374795
133	0xbcd14457	-0.025545282
134	0xbaf82e03	-0.0018934611
135	0xbcba1e92	-0.022719655
136	0xbb964c0b	-0.0045867017
137	0x3c8e72b9	0.017388688
138	0x3d113017	0.035446253
139	0x3d17399a	0.036920168
140	0xbca35dd7	-0.019942207
141	0xbd260211	-0.040529314
142	0x3b8fa406	0.004383567
143	0x3bbf1ee4	0.00583254
144	0xbca4a630	-0.020098776
145	0x3cf3e4e9	0.029772239
146	0x3d024487	0.031803634
147	0xbd24e814	-0.04026039
148	0xbc88dcfc	-0.016706936
149	0xbc21411e	-0.009842185
150	0x3d3440d5	0.04400714
151	0x3d15b7ff	0.036552425
152	0xbd28cf89	-0.041213546
153	0x3caad76e	0.020854678
154	0x3c1d1c5d	0.009589282
155	0xbcdc8c53	-0.02692238
156	0xbd00311b	-0.03129683
157	0x3ccd1bc1	0.025037648
158	0x3a74be8f	0.0009336257
159	0x3a9212dc	0.0011144537
160	0xbc936666	-0.017993163
161	0xbc839af8	-0.016065106
162	0x3d01774b	0.031607907
163	0x3c5d1229	0.013493099
164	0x3c366179	0.011131638
165	0xbcbd1af5	-0.023084143
166	0xbd1090cc	-0.03529434
167	0x3b882c52	0.004155674
168	0x3c54cc68	0.012988187
169	0xbc3d0773	-0.011537421
170	0x3d0cd735	0.034384925
171	0x3c07c046	0.008285588
172	0xbcaaca47	-0.020848406
173	0xbced87b6	-0.028995376
174	0x3d2aedc4	0.041730657
175	0xbc55ab4d	-0.01304133
176	0x3d50672c	0.050879642
177	0x3b1db018	0.002406126
178	0xbc4d5da8	-0.012534536
179	0xbd3f720e	-0.04673963
180	0xbcd017f6	-0.02540205
181	0xbd45ce25	-0.048292298
182	0x3c58f3ab	0.013241689
183	0xbd0c7076	-0.03428694
184	0xbce9afe2	-0.02852625
185	0x3cc7596e	0.024334636
186	0xbc62d068	-0.013843633
187	0xba9e14f4	-0.0012060688
188	0xbcd50fa5	-0.026008436
189	0x3d20071d	0.039069284
190	0x3d1b7791	0.037955824
191	0xbcea1e40	-0.028578877
192	0x3d5cab4c	0.0538743
193	0x3bc70e7e	0.0060747257
194	0xbbfc371d	-0.0076969997
195	0xbc23bbc9	-0.009993502
196	0x3ba5be82	0.0050581107
197	0xbd241b6f	-0.040065225
198	0x3d2afcd4	0.041745022
199	0xbca942c3	-0.020661717
200	0x3c856a09	0.016285913
201	0xbb45e998	-0.0030199047
202	0xbc632321	-0.013863356
203	0x3d368490	0.044560015
204	0x3cf7fcf9	0.030271994
205	0xbd2b2e5f	-0.04179227
206	0x3bb30ac8	0.0054639317
207	0x3c057116	0.008144638
208	0xbcb3453b	-0.021883598
209	0x3c9b6a0c	0.018971466
210	0xbd09d1a0	-0.03364718
211	0x3cbab7a9	0.022792654
212	0x3b8a8f4a	0.004228507
213	0xbc73c1f4	-0.014877785
214	0xbce79437	-0.028268917
215	0xbc6554e4	-0.01399729
216	0x3d0858cf	0.03328782
217	0x3cbdb122	0.023155753
218	0xbc65e4e4	-0.014031623
219	0x3d0f4222	0.03497518
220	0xbb05ba9a	-0.0020405413
221	0xbd15e2a7	-0.036593106
222	0xbc35f856	-0.011106571
223	0xbbcf2344	-0.0063213427
224	0xbc995a27	-0.018719746
225	0x3bf52b25	0.00748195
226	0x3bef913d	0.007311015
227	0x3be130cf	0.0068722735
228	0xbc278305	-0.010224109
229	0xbc3152cf	-0.010822966
230	0x3c8462d4	0.016160406
231	0x3c2ed0e5	0.0106699215
232	0xb968ac14	-0.00022189348
233	0xbb5d2bd0	-0.0033748038
234	0x3bea3ae6	0.0071481345
235	0x3c776b3e	0.015101252
236	0x3b4f28df	0.0031610054
237	0xbc535735	-0.01289921
238	0xbd14cf4a	-0.0363305
239	0xbb08a131	-0.002084803
240	0x3cd582ee	0.026063409
241	0xbc760b1d	-0.015017298
242	0xbcafd062	-0.02146167
243	0x3c5ca983	0.013468149
244	0x3b646aa8	0.003485361
245	0x3d0fa391	0.0350681
246	0x3c8cc47d	0.017183537
247	0x3cbdda16	0.02317528
248	0x3cb32b00	0.02187109
249	0xbd0e8b19	-0.034800623
250	0xbca8c03a	-0.020599473
251	0x3cbcae57	0.02303235
252	0x3c8d14c5	0.017221818
253	0xbd463af7	-0.048396077
254	0x3cc87700	0.024470806
255	0xbd464164	-0.048402205

conv3.bias f4 [64]
0	0xbd022eb6	-0.03178283
1	0x3ce9a8ac	0.028522812
2	0x3d079f9b	0.033111196
3	0xbc6888af	-0.014192744
4	0x3cc76f3a	0.02434503
5	0x3bfa2825	0.00763418
6	0x3bcb2ffa	0.0062007876
7	0x3c0a1fbc	0.008430418
8	0x3bd4950b	0.006487494
9	0xbcf2dd92	-0.029646669
10	0xbbbe9cf3	-0.0058170496
11	0x3d12fd58	0.03588614
12	0x3c6e4df2	0.014544951
13	0xba4f2015	-0.0007901204
14	0xbcfe500c	-0.031044029
15	0xbc8a34bc	-0.016870849
16	0x3cf614b7	0.030039174
17	0xbc64440e	-0.013932241
18	0x3d1f4dd2	0.038892575
19	0x3cbb9ab8	0.022900924
20	0x3cfd1a4e	0.030896332
21	0x3bb17cb1	0.0054164757
22	0x3c0bc035	0.008529712
23	0xbcb8c89e	-0.0225566
24	0x3cd63c58	0.026151821
25	0xbc08f4db	-0.008359159
26	0xbcd4165e	-0.025889572
27	0x3ce9ed78	0.028555617
28	0x3d2c32b0	0.042040527
29	0x3b3434ae	0.002749722
30	0x3b40aaf3	0.0029398769
31	0x3ce13a83	0.02749372
32	0xbbb9f73d	-0.005675225
33	0xbc6454eb	-0.013936262
34	0x3a0279e8	0.0004977272
35	0xbc8d3e53	-0.017241633
36	0x3ce0ea48	0.027455464
37	0xbd23d747	-0.040000226
38	0x3b002322	0.001955219
39	0x3d0b851b	0.034062486
40	0xbc2f23c7	-0.010689682
41	0xbcffac0f	-0.031209974
42	0x3c99df24	0.01878316
43	0xbd16d5f8	-0.03682515
44	0x3d203d1d	0.039120782
45	0x3d115a48	0.03548649
46	0x3d1536c6	0.03642919
47	0x3c9e135a	0.019296337
48	0xbcdd46bb	-0.027011266
49	0xbc1779a9	-0.009245315
50	0xbc814017	-0.01577763
51	0xbd0d8252	-0.03454811
52	0xbcab3c90	-0.020902902
53	0x3cd2dd6b	0.025740346
54	0xbc7a6604	-0.0152831115
55	0xbcbae8c2	-0.022816066
56	0x3d1aa294	0.037752703
57	0xbc2069c9	-0.009790846
58	0x3d271b3d	0.04079746
59	0xbcc3c8b0	-0.023899406
60	0xbd20671e	-0.03916084
61	0xbb3cc06a	-0.002880121
62	0xbcb1f1a5	-0.02172167
63	0x38c4933d	9.3734336e-05

bn3.weight f4 [64]
0	0x3f7f935c	0.9983423
1	0x3f842619	1.0324126
2	0x3f80ddad	1.006765
3	0x3f814b6f	1.0101146
4	0x3f7fc1fe	0.99905384
5	0x3f7fefd7	0.9997534
6	0x3f7ff25a	0.99979174
7	0x3f7d8481	0.9903031
8	0x3f809d2a	1.0047963
9	0x3f7d8177	0.9902567
10	0x3f801af1	1.0008222
11	0x3f824308	1.0176706
12	0x3f7f2f00	0.9968109
13	0x3f7a16be	0.9769095
14	0x3f7dfcc1	0.99213797
15	0x3f7f555a	0.9973961
16	0x3f7f62b1	0.99759966
17	0x3f7c8e66	0.9865478
18	0x3f7f1654	0.99643445
19	0x3f80e7ce	1.0070741
20	0x3f8208e7	1.0158967
21	0x3f816e3f	1.011177
22	0x3f809ad3	1.0047249
23	0x3f7d4515	0.98933536
24	0x3f822df1	1.017027
25	0x3f7ef941	0.9959908
26	0x3f7ead93	0.99483603
27	0x3f8162f1	1.010832
28	0x3f8190cb	1.0122312
29	0x3f80b6bc	1.0055766
30	0x3f80c4ec	1.0060096
31	0x3f7f739a	0.9978577
32	0x3f7dcc43	0.99139804
33	0x3f7e5d35	0.9936097
34	0x3f8238cc	1.0173583
35	0x3f801de1	1.0009118
36	0x3f7df0f9	0.9919582
37	0x3f795e14	0.97409177
38	0x3f826ac6	1.0188835
39	0x3f8339aa	1.0251973
40	0x3f80149c	1.000629
41	0x3f81a6b8	1.0129004
42	0x3f7b67c3	0.982052
43	0x3f78029f	0.96879
44	0x3f7e0541	0.99226767
45	0x3f8299a5	1.0203139
46	0x3f8091ff	1.0044554
47	0x3f7d71ca	0.99001753
48	0x3f814a25	1.0100752
49	0x3f814db9	1.0101844
50	0x3f7bf09a	0.98414004
51	0x3f7e6d22	0.99385273
52	0x3f825dda	1.0184891
53	0x3f821886	1.0163734
54	0x3f7c23b9	0.9849201
55	0x3f82289d	1.0168644
56	0x3f7ec146	0.9951366
57	0x3f7f3092	0.9968349
58	0x3f822cff	1.0169982
59	0x3f804ae3	1.0022854
60	0x3f8092c5	1.004479
61	0x3f80fa14	1.0076318
62	0x3f80fa77	1.0076436
63	0x3f7e3ce4	0.9931166

bn3.bias f4 [64]
0	0xbc534b96	-0.012896439
1	0x3cc4a44c	0.024004124
2	0x3c1531da	0.009106124
3	0x3c178c08	0.009249695
4	0x3c0bc31a	0.008530403
5	0x3caad742	0.020854596
6	0xbbb86915	-0.005627761
7	0x3cb4ff1b	0.0220943
8	0x3a71507a	0.00092054124
9	0x3c80e3a3	0.015733546
10	0x3ca4694d	0.020069743
11	0x3c77e03e	0.015129147
12	0x3b2c2b80	0.0026271045
13	0xbd1ad621	-0.037801865
14	0xbc18fe22	-0.009337934
15	0x3bb93bd1	0.0056528826
16	0x3c11a4bb	0.008889372
17	0x3bd240ad	0.0064164014
18	0xbc255ed9	-0.010093414
19	0x3bfb1f0f	0.0076636146
20	0xbbb5d2b8	-0.0055488013
21	0x3c04fb5f	0.008116572
22	0x3a1854d3	0.00058109796
23	0x3cfd1b5b	0.030896833
24	0xbb174ef9	-0.0023087843
25	0x3b8ca7c8	0.004292462
26	0x3c86c919	0.016453313
27	0xbc87d7f7	-0.016582472
28	0x3c7e11c2	0.0155071635
29	0x3c71f962	0.01476893
30	0x3a4b2fe5	0.0007750972
31	0x3c882b65	0.016622255
32	0x3b40a64c	0.0029395996
33	0xb9ece3a4	-0.00045183033
34	0x3bf102b6	0.0073550595
35	0x3c7cb1e8	0.0154232755
36	0xbbc1b7ab	-0.0059117875
37	0xbc678d45	-0.014132802
38	0x3c838579	0.016054856
39	0x3d053764	0.032523528
40	0xbc04816e	-0.008087499
41	0xbbd8b23f	-0.0066130455
42	0xb9e54f72	-0.00043737475
43	0xbc57644a	-0.013146469
44	0xbc6824e7	-0.014168954
45	0x3c630e1d	0.013858345
46	0x3c1ff9cf	0.009764149
47	0xbb69c681	-0.0035671296
48	0xbbae2bf9	-0.0053153005
49	0x3bbb03ca	0.005707239
50	0x3a71a548	0.0009218049
51	0x3aeaaed6	0.0017904888
52	0x3c1aa47b	0.009438629
53	0x3c5b1cbc	0.01337355
54	0x3957021a	0.0002050478
55	0x3c363a97	0.011122367
56	0xbb5d2a9c	-0.003374732
57	0x3c8d94f3	0.017282939
58	0xbb91a1e0	-0.004444346
59	0xbc5378f0	-0.012907252
60	0x3bbd4432	0.005775952
61	0x3aeccfb6	0.0018067274
62	0x3add5d3a	0.0016888746
63	0x3a837130	0.0010028239

bn3.running_mean f4 [64]
0	0xbecee068	-0.40405583
1	0xbe230c21	-0.15922596
2	0x3ef4aea2	0.47789484
3	0x3f6d90ec	0.9279926
4	0xbecb56ec	-0.39714754
5	0x3e38fad0	0.18064427
6	0x3f1c8e60	0.61154747
7	0x3d827f2f	0.063719146
8	0xbf2b4a44	-0.66910195
9	0xbf4216cb	-0.7581603
10	0x3f4a3928	0.78993464
11	0x3ea6d81a	0.32586747
12	0xbf2b213a	-0.66847575
13	0x3f4a26bb	0.7896535
14	0xbeb5e7dc	-0.35528457
15	0xbce71fdc	-0.028213434
16	0xbf73eaf9	-0.95280415
17	0x3e32ccf2	0.17460993
18	0x3ef590b4	0.47961962
19	0xbd9ad9ac	-0.07561049
20	0x3f58f754	0.8475239
21	0xbebb9f84	-0.36645138
22	0x3e05dbf7	0.13072191
23	0xbe8f067b	-0.27934632
24	0x3e8b9868	0.27264714
25	0xbf68f76f	-0.91002554
26	0x3e6699cd	0.22519608
27	0x3d7acc1e	0.061229818
28	0xbea5f888	-0.32416177
29	0xbf340bf0	-0.70330715
30	0x3f7f97c6	0.9984096
31	0xbf235c6a	-0.6381289
32	0xbf602d1c	-0.8756883
33	0x3e2a67f0	0.16641212
34	0x3f5f5d26	0.8725151
35	0xbf1270b4	-0.5720322
36	0xbedc39c6	-0.43012828
37	0xbf92c0a5	-1.146504
38	0x3f996919	1.1985198
39	0xbe003d3b	-0.12523358
40	0xbf16b742	-0.5887338
41	0x3f77b2fe	0.96757495
42	0x3e84c1ac	0.2592901
43	0xbf1afe1a	-0.6054398
44	0xbf11b988	-0.56923723
45	0xbec1007b	-0.3769568
46	0x3f23e554	0.640218
47	0xbf1befa5	-0.60912544
48	0x3f16efb9	0.5895954
49	0x3f501709	0.8128515
50	0xbde5c5eb	-0.112193905
51	0xbf88ca43	-1.0686725
52	0xbeae2b3a	-0.34017354
53	0x3d123e2c	0.035703823
54	0x3eb7978e	0.35857815
55	0x3cab5049	0.020912306
56	0xbeac9a26	-0.33711356
57	0x3ee29ce9	0.44260338
58	0x3f71e2f2	0.94486916
59	0x3f7d8808	0.9903569
60	0x3e96f30f	0.29482314
61	0x3f6d59ac	0.92714953
62	0xbf55b43e	-0.8347815
63	0x3f0bcca1	0.54609114

bn3.running_var f4 [64]
0	0x3eafd406	0.3434145
1	0x3ecc5f95	0.39916673
2	0x3f17c24d	0.59280854
3	0x3f654ae0	0.89567375
4	0x3ee7772f	0.45208117
5	0x3eaf7b51	0.3427377
6	0x3f111fc5	0.566891
7	0x3f61f244	0.88260293
8	0x3f8d6115	1.1045252
9	0x3ed8d5b0	0.4235053
10	0x3f4932d2	0.7859317
11	0x3ed00210	0.40626574
12	0x3ec182c5	0.37795082
13	0x3ec30b0f	0.38094375
14	0x3eb59398	0.35464168
15	0x3e7956b1	0.24349476
16	0x3f9a06be	1.2033308
17	0x3f383bb7	0.7196612
18	0x3ea81a3f	0.32832524
19	0x3f0a3ed6	0.5400213
20	0x3f090e63	0.5353758
21	0x3f3356b3	0.7005417
22	0x3e957ede	0.29198354
23	0x3eb3816a	0.35059673
24	0x3e8dbdf1	0.27683976
25	0x3f0d4f2f	0.5519895
26	0x3f8bfaf8	1.0935965
27	0x3ea43410	0.3207097
28	0x3ea00356	0.31252545
29	0x3f3778e1	0.7166882
30	0x3fbfc87f	1.4983062
31	0x3e790723	0.24319129
32	0x3f2b5cce	0.66938484
33	0x3f4db152	0.80348694
34	0x3f6048ad	0.87610894
35	0x3f73c47d	0.9522169
36	0x3ec96e4e	0.39341968
37	0x3f004e28	0.50119257
38	0x3f9cf29f	1.2261542
39	0x3edeaf0f	0.43492934
40	0x3ed59e87	0.4172251
41	0x3f825e89	1.01851
42	0x3f502d05	0.81318694
43	0x3f054be8	0.5206895
44	0x3e6799cf	0.22617267
45	0x3e8b235e	0.2717542
46	0x3f3de3d0	0.7417574
47	0x3e77a2d7	0.24183212
48	0x3f0694a7	0.52570575
49	0x3f61bc3a	0.88177836
50	0x3f079ec0	0.5297661
51	0x3fa00efd	1.2504574
52	0x3edea0c7	0.43482038
53	0x3eb90ed6	0.3614413
54	0x3e9c1554	0.30485022
55	0x3ea58314	0.32326567
56	0x3f8cb39c	1.0992312
57	0x3edad19f	0.42738053
58	0x3f67c6a4	0.90537477
59	0x3f00e42e	0.50348175
60	0x3e9ba891	0.30402043
61	0x3f6b972a	0.92027533
62	0x3f1876c1	0.59556204
63	0x3e848d3e	0.2588901

policy_conv.weight f4 [2, 64, 1, 1]
0	0x3e00aaf6	0.12565216
1	0xbdae970d	-0.085249044
2	0x3d7eb6b8	0.062185973
3	0xbb1bf6c1	-0.00237982
4	0xbdb42235	-0.08795587
5	0x3dff5ece	0.124692544
6	0xbce110fb	-0.027473917
7	0x3dca88c1	0.09889365
8	0xbdf8dbd6	-0.121513054
9	0x3d14d70a	0.03633789
10	0x3ddac716	0.10682504
11	0xbe069b78	-0.13145244
12	0xbd977959	-0.07396192
13	0xbc1b2843	-0.009470048
14	0x3d2f532f	0.04280394
15	0x3cb9ba74	0.022671916
16	0xbd497335	-0.049182136
17	0x3deb0d6e	0.11477171
18	0xbdb08881	-0.08619786
19	0x3c0eaaa9	0.008707681
20	0x3db665ed	0.089061595
21	0xbe0b7443	-0.13618569
22	0x3d3aa37c	0.045566067
23	0x3dcb2b87	0.099204116
24	0xbd034d76	-0.032056294
25	0xbd583c75	-0.05279203
26	0x3e03f25c	0.12885422
27	0x3d8f5b03	0.06999781
28	0xbd987ac2	-0.07445289
29	0xbd02219c	-0.031770334
30	0x3d07f5e0	0.03319347
31	0x3c6f8e28	0.014621295
32	0xbe104ce9	-0.14091839
33	0xbdc6f2ef	-0.09714305
34	0x3dafc3a7	0.085822396
35	0xbdd74a6a	-0.1051224
36	0x3ca07da9	0.01959117
37	0x3ccf53ba	0.025308479
38	0x3d62433c	0.0552399
39	0xbd6e64a4	-0.058201447
40	0x3a106a77	0.00055090286
41	0x3c87af9e	0.016563233
42	0x3d4e7d1f	0.050412294
43	0x3b976181	0.0046197777
44	0x3ceca37c	0.02888655
45	0xbd137198	-0.035997003
46	0x3de960bc	0.11395404
47	0xbc3b2405	-0.011422162
48	0x3cd4fd1e	0.025999602
49	0x3dd3e096	0.10345571
50	0x3c21e2d0	0.0098807365
51	0xbdfd74c7	-0.12375789
52	0xbd98250e	-0.074289426
53	0xbdb19631	-0.08671225
54	0x3dbe7f3e	0.09301613
55	0xbd965461	-0.07340313
56	0xbd37df9a	-0.044890977
57	0x3d909308	0.07059294
58	0x3d0b5f90	0.034026682
59	0x3c2592d2	0.0101058055
60	0x3dd4d88e	0.10392867
61	0x3dca8c90	0.098900914
62	0xbdf75953	-0.12077584
63	0x3c610500	0.013734102
64	0x3c8e6041	0.017379882
65	0xbd4b69d9	-0.04966149
66	0xbbb631d9	-0.0055601415
67	0xbe02e55f	-0.1278281
68	0x3d92eef1	0.07174481
69	0x3d4d88bd	0.050179232
70	0xbdc09b38	-0.094046056
71	0xbd1789c8	-0.036996633
72	0x3c3a7d10	0.011382356
73	0x3d09cd3b	0.03364299
74	0xbd2305e6	-0.039800547
75	0xbbd5f1b7	-0.006529059
76	0x3ded73fb	0.11594387
77	0x3cbe68ae	0.023243275
78	0x3deb09b2	0.114764586
79	0x3cc70f91	0.024299415
80	0x3d162c92	0.0366636
81	0x3cc2c376	0.023774844
82	0xbd8db381	-0.06919003
83	0x3dc35144	0.095369846
84	0xbe0170bc	-0.12640661
85	0xbda1db86	-0.07903199
86	0xbd91b852	-0.071152344
87	0x3d89faef	0.06737315
88	0xbddb9c5d	-0.10723183
89	0x3d9dc0b9	0.077027746
90	0x3d6a2ac9	0.05716971
91	0x3d24152d	0.040059257
92	0xbc523236	-0.012829354
93	0x3caf5e7b	0.021407356
94	0xbddfd3d3	-0.10929074
95	0xbc0c2d3a	-0.008555705
96	0x3d912a0f	0.070881
97	0xbe0b0576	-0.13576302
98	0xbd8e89c7	-0.06959873
99	0x3dac526e	0.0841416
100	0xbda4087d	-0.080094315
101	0xbc1a0af5	-0.009402026
102	0xbe003d05	-0.12523277
103	0xbcbd41f8	-0.023102745
104	0x3dfe0123	0.124025606
105	0xbd7336e7	-0.05937853
106	0x3d139eb2	0.036040016
107	0x3cf5c336	0.03000031
108	0xbc88c67e	-0.016696211
109	0x3d92341b	0.071388446
110	0xbda1a875	-0.07893459
111	0x3c4efd5d	0.012633649
112	0xbda13bfe	-0.07872771
113	0xbda77e07	-0.08178335
114	0x3d0e0d66	0.034680746
115	0x3d9a77ab	0.07542356
116	0xbdd15b5d	-0.10222504
117	0xbaf069d4	-0.0018342086
118	0x3d9b0d6e	0.07570921
119	0xbd33f871	-0.043938104
120	0xbc99283e	-0.018695947
121	0x3d122746	0.035681985
122	0xbdd57d08	-0.104242384
123	0x39a28ab0	0.00031002378
124	0xb8e50790	-0.000109209795
125	0xbd452450	-0.048130333
126	0x3dd71ef6	0.10503952
127	0xbcc9eb7f	-0.024648426

policy_conv.bias f4 [2]
0	0xbdb72432	-0.089424506
1	0xbcae7384	-0.021295317

policy_bn.weight f4 [2]
0	0x3f7448b1	0.9542342
1	0x3f7b83a7	0.9824776

policy_bn.bias f4 [2]
0	0xbd0cd8c9	-0.03438643
1	0xbb26f70e	-0.0025476846

policy_bn.running_mean f4 [2]
0	0xbce5c3c8	-0.028047457
1	0xbe553f58	-0.20824945

policy_bn.running_var f4 [2]
0	0x3fc5bad4	1.544764
1	0x3f7258a2	0.9466649
