models/connect4_model_epoch_8.pth (torch, 329001 bytes, 30 tensors)

conv1.weight f4 [64, 1, 3, 3]
0	0xbe8e0976	-0.27741593
1	0xbe8061fe	-0.25074762
2	0xbe75b4a1	-0.23994686
3	0xbe584d55	-0.2112325
4	0xbe66f91d	-0.22555967
5	0xbb189596	-0.002328252
6	0xbe198b26	-0.14994487
7	0xbda45e53	-0.080258034
8	0x3eb030b0	0.34412146
9	0xbd0a50c1	-0.03376842
10	0x3d3d12f1	0.046160642
11	0xbe5c2dba	-0.21501818
12	0xbdd22815	-0.10261551
13	0xbd62a22c	-0.05533044
14	0xbe4f44bc	-0.20241064
15	0xbdb3f1ea	-0.08786376
16	0xbd3ce9b6	-0.04612132
17	0xbdddf585	-0.10837845
18	0x3d37249e	0.044712655
19	0xbc32acce	-0.010905458
20	0x3d83febf	0.06445073
21	0xbe10f9c8	-0.14157784
22	0xbe404c8c	-0.187792
23	0x3c8b4176	0.016998988
24	0x3ea70bfc	0.3262633
25	0x3e624030	0.22094798
26	0x3ad946fe	0.0016576943
27	0xbe7dfa5c	-0.24802536
28	0x3d2588b2	0.040413566
29	0x3e8e20a0	0.27759266
30	0x3ea98e82	0.33116537
31	0xbd2d5553	-0.0423177
32	0xbdf01608	-0.11722952
33	0x3c3049f4	0.010759819
34	0x3da67312	0.08127417
35	0xbe8e0e43	-0.27745256
36	0xbd9936bb	-0.07481142
37	0x3e7396f3	0.23788051
38	0x3e4bba17	0.19895206
39	0x3cce8888	0.025211588
40	0xbe4a0288	-0.19727528
41	0x3e5a8e3c	0.2134332
42	0x3e90cf2b	0.28283057
43	0xbe82c1d1	-0.25538495
44	0xbe8c9da3	-0.27464017
45	0xbe9f6173	-0.31129035
46	0xbb917f98	-0.004440259
47	0xbeb07fb1	-0.3447242
48	0xbe8716a3	-0.26384458
49	0xbd9487f6	-0.07252495
50	0x3dbcc754	0.09217706
51	0xbe91eca4	-0.28500855
52	0xbd87488f	-0.06605636
53	0x3c8604b7	0.01635967
54	0xbe96ddf3	-0.2946621
55	0xbd1f38d5	-0.03887256
56	0x3dc720a9	0.09723026
57	0xbd5a2081	-0.053253654
58	0xbe65190f	-0.2237284
59	0x3e228b87	0.15873538
60	0xbdde8740	-0.10865641
61	0xbd92b950	-0.07164252
62	0xbc69e3aa	-0.014275471
63	0xbe8c1e04	-0.2736665
64	0xbdf3f961	-0.119127996
65	0xbe35c2ce	-0.17750093
66	0xbe705bf2	-0.23472574
67	0xbcdfb2f1	-0.027307006
68	0xbda83ee6	-0.08215122
69	0x3e72fb41	0.23728658
70	0xbdd1c1fa	-0.10242076
71	0x3ea891b1	0.32923654
72	0x3b8575e6	0.0040728925
73	0xbe2c7495	-0.16841348
74	0xbe653d28	-0.2238661
75	0x3e57c246	0.21070203
76	0x3e903146	0.28162593
77	0xbe8fd403	-0.2809144
78	0x3dd28e56	0.10281055
79	0xbe1ca4d9	-0.1529726
80	0xbd60e667	-0.05490723
81	0xbd0a57b0	-0.03377503
82	0x3e9d2936	0.30695504
83	0x3e8fb938	0.28070998
84	0xbe838455	-0.256869
85	0xbe142049	-0.14465441
86	0x3d366ab1	0.044535343
87	0xbc096313	-0.008385438
88	0x3eab4e61	0.33458236
89	0x3da5942c	0.08084902
90	0xbe923786	-0.28557986
91	0xbd7576e7	-0.059927847
92	0x3e8dc3a1	0.27688316
93	0x3e8a316d	0.26990834
94	0xbe6c25a8	-0.2306124
95	0xbe5e1686	-0.2168828
96	0x3e8cb1cf	0.27479407
97	0xbe56bd73	-0.20970707
98	0xbdaa934d	-0.08328877
99	0xbe5a6de8	-0.21330988
100	0x3d8b37bb	0.06797739
101	0x3d90a70e	0.07063113
102	0x3e1c5d88	0.15270054
103	0xbe5d424e	-0.21607324
104	0x3deee128	0.11664039
105	0xbe6ac506	-0.22926721
106	0x3e6679a4	0.2250734
107	0x3e6be4f8	0.23036563
108	0x3cc37423	0.02385909
109	0xbe85b2e4	-0.26113045
110	0x3e86eaf8	0.26351142
111	0xbacdc985	-0.0015700316
112	0x3e925a02	0.28584296
113	0xbd9d023a	-0.0766644
114	0xbe7319d5	-0.23740323
115	0x3e69a562	0.22816995
116	0xbe8005d3	-0.25004444
117	0xbe2aac36	-0.16667256
118	0xbc34f252	-0.011044102
119	0x3e2c2338	0.1681031
120	0xbe90bd69	-0.28269508
121	0xbe915470	-0.28384733
122	0x3eb0b12a	0.34510165
123	0xbd90bbfb	-0.070671044
124	0xbe798257	-0.24366127
125	0x3d00f25e	0.03148114
126	0xbd80b564	-0.062845975
127	0xbb68de8d	-0.0035533041
128	0x3e6769c4	0.2259894
129	0x3e59cd97	0.21269833
130	0xbddf4b72	-0.10903062
131	0x3d35fa35	0.04442807
132	0xbe3c28aa	-0.18374887
133	0xbdc9067b	-0.09815689
134	0xbe972ff0	-0.2952876
135	0x3d435997	0.04769286
136	0x3b23ed4b	0.0025013264
137	0x3dd2adf4	0.10287085
138	0xbe237266	-0.15961608
139	0xbe3a3619	-0.18184699
140	0xbe334ff0	-0.17510962
141	0x3e88ae0e	0.26695293
142	0x3bb20a31	0.005433344
143	0xbe934069	-0.2876008
144	0xbe903984	-0.2816888
145	0x3e09589c	0.13412708
146	0x3c98bb3c	0.018643968
147	0x3e344437	0.17604147
148	0x3d8a422f	0.06750905
149	0x3ea41cf4	0.3205334
150	0x3e9faf4f	0.31188437
151	0x3e6b8b97	0.23002468
152	0xbe694ef3	-0.22784023
153	0xbe56d876	-0.20981011
154	0xbcb023f4	-0.021501519
155	0xbd16002a	-0.03662125
156	0xbe2b9298	-0.1675514
157	0xbdf54f80	-0.11978054
158	0x3e8abee3	0.2709876
159	0x3e9bfda0	0.30466938
160	0xbe97bab8	-0.29634643
161	0xbd34bb2a	-0.044123806
162	0xbe5dd9e1	-0.21665145
163	0x3e0eaf76	0.1393412
164	0x3e9b976e	0.3038897
165	0x3ea9529b	0.33070835
166	0xbe99259e	-0.29911512
167	0xbd81ae8b	-0.063321196
168	0x3e213501	0.15742876
169	0xbe7aeefa	-0.24505225
170	0x3d97cf45	0.074125804
171	0x3d33f497	0.04393443
172	0xbdba7ca6	-0.09105806
173	0xbe7dfaeb	-0.24802749
174	0xbe11718a	-0.14203468
175	0x3d96d527	0.07364874
176	0x3d777db8	0.06042263
177	0x3e629dd6	0.22130522
178	0x3dd60b3a	0.1045136
179	0x3e255963	0.1614738
180	0x3dc492d4	0.09598318
181	0xbe9fdb77	-0.31222126
182	0x3df3feff	0.11913871
183	0xbce7bdbb	-0.028288713
184	0xbcb7c691	-0.022433551
185	0x3e6bda81	0.23032571
186	0xbde0fb30	-0.1098541
187	0xbe8c29cf	-0.27375647
188	0xbd852676	-0.065014765
189	0x3e92e988	0.28693795
190	0xbe19875c	-0.14993042
191	0xbcc69b1f	-0.02424389
192	0x3ea2f11a	0.3182457
193	0x3d16b253	0.036791157
194	0xbc9884c3	-0.018617993
195	0x3e764605	0.24050148
196	0x3e75b8b2	0.23996237
197	0x3d53ec67	0.051739123
198	0xbd0aede2	-0.03391827
199	0xbe1a558d	-0.15071698
200	0x3b9d3446	0.0047974912
201	0xbe8c0acf	-0.27351996
202	0x3ade88a4	0.0016977978
203	0xbea77f12	-0.32714134
204	0x3e076411	0.13221766
205	0xbe343c5a	-0.17601147
206	0xbd6e069e	-0.05811178
207	0x3d2b9dff	0.041898724
208	0x3e972bed	0.295257
209	0x3e30cb0b	0.17264955
210	0x3d177701	0.036978725
211	0xbe925234	-0.2857834
212	0x3e67f91b	0.2265362
213	0x3e85965d	0.2609128
214	0x3eaa17d8	0.33221316
215	0xbd22ceee	-0.039748125
216	0x3d398668	0.045294195
217	0x3e0955c9	0.1341163
218	0x3e8712f5	0.2638165
219	0xbe121bee	-0.14268467
220	0xbdc0f633	-0.09421959
221	0x3e9d7f6b	0.30761275
222	0xbe9fa2b4	-0.3117882
223	0xbd9fd1e8	-0.07803708
224	0x3dfbd872	0.12297143
225	0x3e63f576	0.22261605
226	0xbe12f925	-0.14352854
227	0xbe7ce5ad	-0.2469699
228	0xbb318c2b	-0.0027091603
229	0x3df9bb30	0.12193906
230	0x3e96f614	0.29484618
231	0xbe71b49a	-0.2360405
232	0x3e6b6697	0.22988354
233	0xbd478c0a	-0.048717536
234	0x3dca8d0b	0.09890183
235	0xbd12f2ca	-0.035876073
236	0xbe6a9410	-0.22908044
237	0xbea583f7	-0.32327244
238	0xbd08ad5d	-0.033368457
239	0xbcba0820	-0.022708952
240	0x3c77297e	0.015085576
241	0x3e310fba	0.17291155
242	0x3da7f988	0.08201891
243	0x3e9f38b6	0.31097955
244	0x3e967913	0.29389247
245	0xbe75e4ce	-0.24013063
246	0xbd9d8c5a	-0.076927856
247	0xbb769912	-0.0037627858
248	0xbd094213	-0.03351028
249	0x3cead46d	0.028665746
250	0xbea7ac7c	-0.32748783
251	0x3e92c10f	0.28662917
252	0xbe29b09c	-0.16571277
253	0x3e212584	0.15736967
254	0x3e93fd46	0.2890417
255	0x3e9037fd	0.28167716

conv1.bias f4 [64]
0	0xbc3d09fd	-0.011538026
1	0xbe5b82e8	-0.21436656
2	0x3a080957	0.000518938
3	0x3e70ca70	0.23514724
4	0x3d39d988	0.04537347
5	0x3e29be43	0.16576485
6	0x3dada056	0.08477847
7	0x3d861978	0.065478265
8	0x3e0785ab	0.13234584
9	0xbcff0b9c	-0.031133465
10	0xbe0d6496	-0.13807902
11	0x3e095924	0.1341291
12	0x3d4812f4	0.0488462
13	0x3e72c4e9	0.23707928
14	0xbceb1f18	-0.02870135
15	0x3e3cd7b4	0.18441659
16	0xbe80116e	-0.25013298
17	0xbd515131	-0.05110282
18	0xbe411292	-0.1885474
19	0xbd03f517	-0.032216158
20	0xbea46bb8	-0.32113433
21	0xbe9b40c5	-0.30322853
22	0xbea70a9d	-0.32625285
23	0x3e5c2fdb	0.2150263
24	0x3dfa0153	0.12207284
25	0xbe3f537c	-0.1868419
26	0xbe874c03	-0.2642518
27	0x3dc9cc0b	0.09853371
28	0x3e945b93	0.28976116
29	0xbe3f71c5	-0.18695743
30	0xbe123d63	-0.1428123
31	0xbe3ef172	-0.18646792
32	0xbe5396d5	-0.20663007
33	0xbe9f5588	-0.31119943
34	0x3e9bfbd9	0.30465582
35	0x3e7a2408	0.24427807
36	0x3e9a4fcc	0.30139005
37	0xbc06f006	-0.008235937
38	0x3e609597	0.21932064
39	0x3d5df316	0.054186903
40	0x3e4bba80	0.19895363
41	0x3e0a58b0	0.13510394
42	0x3e6f1c39	0.2335061
43	0xbdc21bf3	-0.09477987
44	0xbdb5b0cc	-0.08871612
45	0xbea2748b	-0.3172954
46	0xbde2da99	-0.110768504
47	0xbea7cc9a	-0.32773286
48	0xbd9a7b48	-0.07543045
49	0xbe9a798f	-0.30170867
50	0x3deb47bb	0.11488291
51	0xbd951760	-0.07279849
52	0xbd5d3640	-0.054006815
53	0x3db7ccde	0.08974622
54	0xbe98813e	-0.29786104
55	0x3d0770e7	0.033066656
56	0xbea25b2d	-0.31710187
57	0xbda8a40a	-0.08234413
58	0x3e0289c8	0.12747872
59	0x3e2b314f	0.16718028
60	0x3e0c297b	0.13687699
61	0xbe811397	-0.25210258
62	0xbdd4c625	-0.103893556
63	0x3d03c03b	0.032165747

bn1.weight f4 [64]
0	0x3f81196f	1.0085887
1	0x3f802420	1.0011024
2	0x3f7f4073	0.99707717
3	0x3f8191cc	1.0122619
4	0x3f7dede9	0.9919115
5	0x3f828fb1	1.0200101
6	0x3f7e235b	0.992727
7	0x3f8193a4	1.0123181
8	0x3f813dde	1.0097005
9	0x3f7deea4	0.9919226
10	0x3f7cc6a4	0.987406
11	0x3f79f385	0.97637206
12	0x3f809152	1.0044348
13	0x3f826576	1.0187213
14	0x3f80ed3a	1.0072396
15	0x3f7f3457	0.9968924
16	0x3f837b34	1.0271974
17	0x3f7eb418	0.9949355
18	0x3f801b30	1.0008297
19	0x3f8171f0	1.0112896
20	0x3f81ba07	1.0134896
21	0x3f8261b7	1.018607
22	0x3f80d833	1.0065979
23	0x3f7c6016	0.98584116
24	0x3f7d3a2c	0.9891689
25	0x3f7d54ac	0.98957324
26	0x3f7cf999	0.98818356
27	0x3f805d41	1.0028459
28	0x3f7ec52b	0.99519604
29	0x3f7c6a81	0.9860001
30	0x3f800af5	1.0003344
31	0x3f76c615	0.96396
32	0x3f80412e	1.0019891
33	0x3f81c2a7	1.0137528
34	0x3f7bcede	0.9836253
35	0x3f804c08	1.0023203
36	0x3f7c6abb	0.9860036
37	0x3f817a25	1.01154
38	0x3f821978	1.0164022
39	0x3f7cfad6	0.98820245
40	0x3f81d811	1.0144063
41	0x3f801637	1.000678
42	0x3f8292e0	1.0201073
43	0x3f7fb580	0.9988632
44	0x3f80b3a4	1.0054822
45	0x3f81af5a	1.0131638
46	0x3f7dabf6	0.99090517
47	0x3f7ae941	0.9801217
48	0x3f7d08d1	0.9884158
49	0x3f82c25d	1.0215565
50	0x3f7d79fa	0.99014246
51	0x3f7c3f34	0.9853394
52	0x3f7e54d1	0.9934817
53	0x3f7c5352	0.98564637
54	0x3f805212	1.0025046
55	0x3f806233	1.0029968
56	0x3f7e525f	0.9934444
57	0x3f7c731d	0.9861315
58	0x3f8263e3	1.0186733
59	0x3f7f8b3c	0.9982183
60	0x3f806906	1.0032051
61	0x3f7dc8a6	0.9913429
62	0x3f7dd203	0.9914858
63	0x3f7ad6a9	0.97983795

bn1.bias f4 [64]
0	0x3bea4447	0.0071492526
1	0xbb1ede09	-0.002424123
2	0xbbe2bae7	-0.006919253
3	0x3b3f4871	0.0029187466
4	0xbc1bcc5b	-0.009509171
5	0xbc0ed2a0	-0.008717209
6	0x3c578471	0.013154135
7	0x3c57584c	0.01314361
8	0xbaf586b2	-0.0018732159
9	0x3c081740	0.0083063245
10	0xbc616235	-0.013756325
11	0xbc456d4f	-0.012049987
12	0x3b2e33ae	0.0026581096
13	0x3c992260	0.01869315
14	0xbb48c685	-0.0030635905
15	0xbbee4aa1	-0.00727208
16	0xbc9bb3cb	-0.01900663
17	0x3c6528f9	0.013986819
18	0xbc55e08f	-0.013054027
19	0xbc82f46f	-0.015985696
20	0x3ca77a5d	0.02044409
21	0xbba5f111	-0.0050641377
22	0x39e96e8e	0.00044523593
23	0xbcaf2a1c	-0.021382384
24	0xbc200583	-0.009766939
25	0xbcace6a8	-0.02110608
26	0xbcb306e9	-0.021853881
27	0x3b097a76	0.0020977533
28	0xbc0c8df0	-0.008578762
29	0xbd092926	-0.033486508
30	0x3ba5abbb	0.0050558723
31	0x3c1a8f2c	0.009433549
32	0xbc93d502	-0.018045906
33	0xbcc6c0a7	-0.024261786
34	0xbbfe244c	-0.007755792
35	0xbc382543	-0.011239353
36	0xbc941771	-0.018077584
37	0x3bcf577a	0.0063275667
38	0x3c5e39a6	0.013563549
39	0x3c64590c	0.013937246
40	0xbbc308a1	-0.0059519564
41	0x3c92c237	0.017914874
42	0x3b28cf51	0.0025758336
43	0x3b1e82b0	0.0024186783
44	0x3bcc58b9	0.0062361625
45	0xbad3e2f6	-0.0016165662
46	0xbc34db47	-0.011038608
47	0xbcbb12b7	-0.022836072
48	0xbb7f2a47	-0.0038935111
49	0xbc219c65	-0.0098639475
50	0xbb2d1054	-0.0026407437
51	0xbc333e26	-0.01094011
52	0x3abda57a	0.0014468872
53	0x3c42738b	0.011868368
54	0xbc1e17ea	-0.009649256
55	0x3bc8df1d	0.006130113
56	0xbcb54f02	-0.0221324
57	0xbc5425d4	-0.012948472
58	0x3c9024f6	0.01759575
59	0xba282800	-0.0006414652
60	0xbb2170c2	-0.002463386
61	0xbaa7dea3	-0.001280744
62	0xba7582f3	-0.0009365521
63	0xbb247d8b	-0.0025099244

bn1.running_mean f4 [64]
0	0xbb27f290	-0.0025626756
1	0xbe54b3e0	-0.20771742
2	0xbb106493	-0.0022032603
3	0x3e6ff6b6	0.23433957
4	0x3d37d85a	0.044884063
5	0x3e361c06	0.17784128
6	0x3db77dc8	0.08959538
7	0x3d8eaeca	0.06966932
8	0x3e074df2	0.13213328
9	0xbd0f8eec	-0.03504841
10	0xbe0aaa2f	-0.13541482
11	0x3e0815e3	0.13289599
12	0x3d464e81	0.04841471
13	0x3e7890b1	0.24273945
14	0xbcca1d1c	-0.024672084
15	0x3e3eca9b	0.18631975
16	0xbe8439a5	-0.2582523
17	0xbd49e93a	-0.049294688
18	0xbe414ca9	-0.188769
19	0xbd0dbe7a	-0.03460548
20	0xbea2c77e	-0.31792825
21	0xbe9fed5d	-0.3123578
22	0xbea1e796	-0.31622
23	0x3e52662b	0.20546786
24	0x3dfc0c01	0.12306977
25	0xbe426759	-0.18984737
26	0xbe85b99d	-0.26118174
27	0x3dc8de19	0.09807987
28	0x3e92e64c	0.28691328
29	0xbe4398f5	-0.19101317
30	0xbe125612	-0.14290646
31	0xbe3f922d	-0.18708105
32	0xbe58d98e	-0.2117674
33	0xbea1ccec	-0.31601655
34	0x3e9e6b60	0.30941296
35	0x3e77dfa9	0.24206413
36	0x3e99333f	0.2992191
37	0x3990325c	0.0002750334
38	0x3e632c57	0.22184883
39	0x3d7a44c1	0.061100725
40	0x3e4bba56	0.198953
41	0x3e0d1693	0.13778143
42	0x3e75bae7	0.23997079
43	0xbdc1f58c	-0.094706625
44	0xbdb78aa1	-0.08961988
45	0xbea22066	-0.31665343
46	0xbdf293b5	-0.11844579
47	0xbeaa60c3	-0.33276948
48	0xbd9cbef9	-0.07653613
49	0xbe99f634	-0.3007065
50	0x3df068eb	0.117387615
51	0xbd998792	-0.07496561
52	0xbd57c848	-0.052681237
53	0x3dc59000	0.096466064
54	0xbe9895a7	-0.29801676
55	0x3d19ec87	0.037579086
56	0xbeaa0e25	-0.33213916
57	0xbdaca355	-0.084295906
58	0x3e064be3	0.13114886
59	0x3e361bbf	0.17784022
60	0x3e099fe8	0.13439906
61	0xbe8325f9	-0.25614908
62	0xbdcf5cdd	-0.10125134
63	0x3d17f0db	0.037094932

bn1.running_var f4 [64]
0	0x3d8825b4	0.06647816
1	0x3c812838	0.015766248
2	0x3d636c91	0.05552346
3	0x3d9e94ce	0.07743226
4	0x3db5f21c	0.08884069
5	0x3d649a77	0.05581137
6	0x3d071631	0.032980148
7	0x3d89ea7f	0.0673418
8	0x3d915e86	0.07098107
9	0x3daa8325	0.08325795
10	0x3dc4dae2	0.09612061
11	0x3da1093d	0.0786309
12	0x3dacc72a	0.08436425
13	0x3d98068b	0.07423123
14	0x3d4ea97b	0.050454598
15	0x3d6be646	0.057592653
16	0x3db6deb9	0.089292
17	0x3da54366	0.08069496
18	0x3dd19db1	0.102351554
19	0x3d19e81f	0.037574884
20	0x3d52fdd2	0.051511593
21	0x3d4afffe	0.04956054
22	0x3d602a6a	0.05472795
23	0x3ddb4a9d	0.10707591
24	0x3d69c820	0.05707562
25	0x3d97132e	0.07376705
26	0x3d366752	0.044532128
27	0x3dafaf53	0.08578362
28	0x3dbf4a6a	0.09340365
29	0x3d2b2045	0.04177882
30	0x3d50301a	0.050827123
31	0x3db2c5fc	0.08729169
32	0x3dd50467	0.1040123
33	0x3dafbc73	0.08580866
34	0x3d826a08	0.0636788
35	0x3dda66e8	0.10664159
36	0x3d9cac1b	0.07650014
37	0x3d00a0c0	0.031403303
38	0x3d79cb8d	0.060985137
39	0x3d416082	0.047211178
40	0x3d3dfdb0	0.046384513
41	0x3da3f939	0.0800652
42	0x3d59be0f	0.05315977
43	0x3dcc91d5	0.09988753
44	0x3d1dc32f	0.03851622
45	0x3dd51562	0.10404469
46	0x3d055ac3	0.03255726
47	0x3d898d4c	0.06716403
48	0x3d9a520b	0.0753518
49	0x3d86e83f	0.06587266
50	0x3d54da66	0.051966093
51	0x3d943af7	0.07237809
52	0x3d2a71c0	0.041612387
53	0x3dba8bf0	0.09108722
54	0x3d8428f8	0.06453127
55	0x3d720ca0	0.05909407
56	0x3d9c8756	0.07643001
57	0x3d8790bb	0.06619402
58	0x3d046603	0.03232385
59	0x3d921aed	0.07134042
60	0x3db5c615	0.08875672
61	0x3d617c4c	0.05505018
62	0x3d2cc41d	0.042179216
63	0x3da1ff68	0.07910043

conv2.weight f4 [64, 64, 3, 3]
0	0xbc00f96b	-0.007871966
1	0xbd269da5	-0.040677685
2	0x3bd50828	0.0065012164
3	0xbaaccd9a	-0.0013183833
4	0xbcf6bb1c	-0.030118518
5	0xb8d4e578	-0.0001015169
6	0x3ab97770	0.0014149975
7	0xbc6ed2d6	-0.014576634
8	0x3cd0a483	0.02546907
9	0xbcdc7fac	-0.026916347
10	0xbc7369c4	-0.014856759
11	0x3c9b0b26	0.018926214
12	0xbc05bac7	-0.008162207
13	0xbc19dedc	-0.009391513
14	0xbcfae2e0	-0.03062576
15	0xbc774f68	-0.0150946155
16	0x3c6ddf5d	0.014518586
17	0xbd1831be	-0.037156813
18	0x3ce39d1d	0.027784878
19	0xbc8c4e21	-0.017127099
20	0x3b42e4a5	0.0029738334
21	0x3c3322d2	0.010933595
22	0xbbce2ca4	-0.0062919427
23	0xbbb03eaf	-0.005378566
24	0x3bba445b	0.005684418
25	0x3d7b85aa	0.06140677
26	0x3cd30c81	0.025762798
27	0xbcff3bbb	-0.031156411
28	0x3d075b4e	0.03304606
29	0x3cdc4bab	0.02689155
30	0x3bfb6a23	0.0076725646
31	0x3ce3d7c2	0.027812842
32	0x3cecff0e	0.028930213
33	0x3cb8df08	0.022567287
34	0xbb0136ed	-0.0019716576
35	0x3b53c251	0.0032311867
36	0xbcc864e1	-0.024462165
37	0xbc83d126	-0.01609094
38	0x3d626468	0.055271536
39	0xbcfe84b9	-0.031069146
40	0xbbd5de11	-0.0065267165
41	0xbcde9819	-0.027172135
42	0x3bb10c38	0.005403068
43	0x3d0e32b4	0.034716323
44	0x3c21448f	0.009843006
45	0xbd20f49c	-0.039295778
46	0xbd699000	-0.057022095
47	0x3c114a4e	0.008867813
48	0x3c74fc33	0.014952707
49	0xbd1b8664	-0.03796996
50	0xbce2e785	-0.027698288
51	0xbceec4c9	-0.029146569
52	0xbc4d0512	-0.012513416
53	0xbc9b2b54	-0.018941559
54	0x3c9e2faa	0.019309837
55	0x3c3679d2	0.011137443
56	0x3bb5d970	0.005549602
57	0xbccf4a3c	-0.025303952
58	0xbd21c66e	-0.039495878
59	0xbd139d86	-0.036038898
60	0x3cbf345a	0.023340393
61	0xbd2a5428	-0.041584164
62	0xbd24c93c	-0.040230975
63	0xba372688	-0.00069866376
64	0x3cc63530	0.024195284
65	0xbd5e93d4	-0.0543402
66	0xbc4ed1e2	-0.012623282
67	0xbb7b15d4	-0.003831257
68	0x3ca0d36a	0.01963206
69	0xbc42e7b0	-0.011896059
70	0x3c3a6b2e	0.011378093
71	0x3c8f3fa0	0.017486393
72	0xbcdf092b	-0.027226051
73	0xbd04cf12	-0.03242404
74	0x3cc1a7b2	0.023639534
75	0x3c5395bc	0.012914117
76	0x3d2c30e1	0.042038802
77	0xbd786946	-0.06064727
78	0xbccc7b80	-0.024961233
79	0xba9fdf64	-0.0012197313
80	0xbcaef25f	-0.021355806
81	0xbd05f719	-0.032706354
82	0xbd727531	-0.059193794
83	0xbd3203f4	-0.0434608
84	0xbcf2107b	-0.029548874
85	0xbcf771b8	-0.030205593
86	0xbce76c87	-0.028249992
87	0x3d392c41	0.04520822
88	0xbd093b46	-0.033503793
89	0xbcfd660e	-0.030932453
90	0xbd17d97c	-0.037072644
91	0xbd2dfa3c	-0.04247497
92	0x3d321b24	0.043482915
93	0x3c8b5af9	0.017011153
94	0xbd6cbde5	-0.057798285
95	0x3c756fac	0.014980238
96	0x3d1ae874	0.03781934
97	0xbcbda286	-0.023148786
98	0x3cc86a45	0.024464736
99	0xbca326d9	-0.019915985
100	0xbbfdd4dd	-0.0077463225
101	0xbcc430fa	-0.023949135
102	0x3c870bb6	0.016485076
103	0x3d4af694	0.04955156
104	0xbcffc59f	-0.031222163
105	0x3d1c0186	0.03808739
106	0xbc1b0eea	-0.009464005
107	0xbc512846	-0.01276595
108	0xbc96a0f1	-0.01838729
109	0x39464ac5	0.00018910605
110	0xbc9e45aa	-0.019320328
111	0x3c03b361	0.008038373
112	0xbbed517c	-0.0072423797
113	0xbc1024c5	-0.008797829
114	0x3c2d5334	0.010578919
115	0xbd109aad	-0.03530376
116	0xbd22495c	-0.039620742
117	0xbd221d15	-0.039578516
118	0xbd433999	-0.04766235
119	0xbc894ed4	-0.016761221
120	0xbc811ead	-0.015761698
121	0xbd1a5ebc	-0.037688002
122	0xbd8691ff	-0.06570815
123	0xbba0500f	-0.004892356
124	0x3ce6b295	0.028161326
125	0x3bef235e	0.0072979173
126	0xbd85c837	-0.065323286
127	0xbc6e1205	-0.014530663
128	0x3b7fedc8	0.003905164
129	0xbcb31b34	-0.021863557
130	0x3d1ef25b	0.038805347
131	0xbcfb867c	-0.030703776
132	0xbc6835c9	-0.01417298
133	0xbd16c5bf	-0.03680968
134	0x3cd5a914	0.0260816
135	0x3d0ca1cc	0.03433399
136	0xbcae54f4	-0.021280743
137	0xbc8808b3	-0.01660571
138	0x3b821dd2	0.00397084
139	0xbd499ae0	-0.049219966
140	0x3b941f4a	0.0045203315
141	0x3cd4b080	0.025963068
142	0x3d433460	0.04765737
143	0xbaa0ab16	-0.0012258019
144	0x3cd9e889	0.02660014
145	0x3cc27aa4	0.02374012
146	0x3ca7291e	0.020405348
147	0xbd18a505	-0.03726675
148	0xbc287708	-0.0102822855
149	0xbd172033	-0.036895942
150	0x3ce6ee8e	0.028189924
151	0xbce92c1f	-0.028463421
152	0x39a7368a	0.00031893357
153	0xbcccaf6c	-0.024985991
154	0x3cfe9e52	0.031081352
155	0x3d2d4278	0.042299718
156	0xbcb9659a	-0.022631455
157	0xbceaa98a	-0.028645296
158	0xbc302942	-0.010752024
159	0xbc937d73	-0.018004155
160	0x3c334515	0.010941763
161	0x3cce3e04	0.025176056
162	0xbd233a0b	-0.039850276
163	0x3cfec97f	0.03110194
164	0x3d1336a3	0.035940778
165	0x3ce3207d	0.027725453
166	0xbd5a0d43	-0.053235304
167	0x3d1ccfca	0.0382841
168	0x3d0837e3	0.033256423
169	0xbd617301	-0.055041317
170	0x3d10648c	0.03525214
171	0x3ce4988b	0.02790477
172	0xbc8644b7	-0.016390188
173	0x3c3ea842	0.0116367955
174	0xbbaf74e1	-0.005354509
175	0xbd2da141	-0.04239011
176	0x3c242b0c	0.010020029
177	0x3b128aca	0.0022360557
178	0x3d1b2e13	0.037885737
179	0xbc917151	-0.017754229
180	0x3d01c5aa	0.031682648
181	0xbc55a9f1	-0.0130410055
182	0x3c28558e	0.010274304
183	0xbcb31eea	-0.021865327
184	0x3c9acf06	0.018897545
185	0xbc9ce8a7	-0.019153906
186	0x3ce0776d	0.027400697
187	0x3cd56d1a	0.026053
188	0x3d314230	0.043276012
189	0x3c4b0014	0.012390155
190	0x3abb32fe	0.0014282165
191	0xbc9abe8d	-0.01888969
192	0xbb679c16	-0.0035340837
193	0xbaec59cf	-0.0018032136
194	0x3cf2c183	0.02963329
195	0xbb9cd329	-0.0047859144
196	0xbd1fce9d	-0.0390154
197	0x39ccf8b9	0.00039095225
198	0xbcb80e6c	-0.022467814
199	0xb948a0f7	-0.0001913345
200	0x3d08be57	0.033384647
201	0x3c138384	0.009003524
202	0xbc322bde	-0.010874717
203	0xbd193635	-0.03740521
204	0xbc79bdf2	-0.01524304
205	0x3d26842c	0.040653393
206	0xbd2cbde1	-0.04217327
207	0x3d02aa5d	0.031900752
208	0xbceb3445	-0.028711447
209	0xbd636d18	-0.05552396
210	0x3c141cb4	0.0090400465
211	0xbc8ee695	-0.017443934
212	0x3c8486ba	0.016177524
213	0xbbfe10d9	-0.0077534732
214	0x39302ad0	0.00016800617
215	0xbbbd2cfd	-0.0057731853
216	0x3c913a54	0.017728008
217	0xbbf1973e	-0.007372766
218	0x3c8902eb	0.016725024
219	0x3c6601f9	0.014038556
220	0xbce9b592	-0.028528962
221	0xbd45c024	-0.048278943
222	0xbcd4d41e	-0.025980052
223	0x3c9648f3	0.018345332
224	0xbc8c472b	-0.01712378
225	0x3c66731f	0.014065533
226	0x3c6b38b5	0.014356782
227	0xb9ed4286	-0.00045253726
228	0xbd3de85b	-0.04636417
229	0x3d0a1831	0.033714477
230	0x3caa2644	0.0207702
231	0xbc82fc12	-0.015989337
232	0x3cea3361	0.028588952
233	0x3cfc72dc	0.030816488
234	0xbcaf471b	-0.02139621
235	0xbd5b2018	-0.053497404
236	0xbcbdfafc	-0.023190968
237	0x3cd3cbfd	0.025854105
238	0xbcf2c716	-0.029635947
239	0x3cac9bfa	0.02107047
240	0x3c8bc50d	0.017061735
241	0xbb25f95b	-0.002532563
242	0xbd017d7d	-0.031613816
243	0xbc243c7b	-0.010024185
244	0xbccc5166	-0.024941158
245	0xba3c1fb5	-0.00071763556
246	0x3b10853f	0.0022052077
247	0xbb7b6bba	-0.003836377
248	0xbc810753	-0.015750563
249	0x3bb9c047	0.005668673
250	0x3d2109ec	0.039316103
251	0x3c38f579	0.011288994
252	0xbd18584c	-0.03719358
253	0x3ca49585	0.020090828
254	0xbd5f6fec	-0.054550096
255	0x3d0cc858	0.03437075

conv2.bias f4 [64]
0	0xbc5308c3	-0.012880507
1	0x3d00156a	0.031270422
2	0x3cdc4cdf	0.026892124
3	0xbb22370f	-0.0024752056
4	0x3cebcb90	0.02878359
5	0x3c5143a1	0.012772472
6	0x3d22f03f	0.039779898
7	0xbc78ee3e	-0.01519352
8	0xbbd9aeaf	-0.0066431384
9	0x3d2e0fe7	0.042495634
10	0xb9a6ca03	-0.00031812498
11	0x3d009433	0.031391334
12	0xbb54ba47	-0.0032459663
13	0xbb910299	-0.0044253585
14	0x3c8b2196	0.016983788
15	0x3d110aef	0.035410818
16	0x3c225add	0.009909359
17	0x3d226df4	0.03965564
18	0xbb999a1c	-0.0046875607
19	0xbd04abaf	-0.032390293
20	0xbcd34107	-0.025787843
21	0x3c71a069	0.014747717
22	0xbb5fb052	-0.0034132195
23	0x3ba38da3	0.0049912496
24	0x3c133f5e	0.008987276
25	0x3c28f688	0.010312684
26	0xbd12d0d1	-0.035843674
27	0xbcd18210	-0.025574714
28	0x3d1d5c22	0.038417943
29	0x3c1bd3f9	0.009510987
30	0x3d122758	0.035682052
31	0xbc72a515	-0.014809866
32	0x3b00963b	0.0019620794
33	0x3b96c5ba	0.0046012076
34	0xbd1ad881	-0.03780413
35	0xbd2b6a21	-0.04184926
36	0x3cbb5250	0.022866398
37	0xbcb367b2	-0.021900032
38	0x3b98b26c	0.0046599414
39	0xba95b6f4	-0.0011422322
40	0x3b6adb1f	0.0035836173
41	0x3d04f54b	0.032460492
42	0x3cb881c5	0.022522816
43	0xbd1f93f7	-0.03895947
44	0x3aeb1a73	0.001793696
45	0xbcf81e03	-0.030287748
46	0x3d07cee3	0.033156287
47	0x3babcea3	0.005243139
48	0x3d167d2a	0.03674046
49	0x3c9943f4	0.01870916
50	0x3b2ef110	0.0026693977
51	0x3c0facfe	0.008769272
52	0xbb89f7f9	-0.004210469
53	0x3d0a5768	0.033774763
54	0xbcb434e6	-0.02199788
55	0xbc76ea83	-0.01507056
56	0xbd044e5f	-0.032301303
57	0xb9f49a6f	-0.0004665437
58	0xbc1ed9e4	-0.009695504
59	0x3d07ea33	0.033182334
60	0xbcacc14e	-0.021088269
61	0x3c8d6b8e	0.0172632
62	0x3a2077a1	0.0006121342
63	0xbc83b16d	-0.016075814

bn2.weight f4 [64]
0	0x3f7bcbc7	0.98357815
1	0x3f81da48	1.0144739
2	0x3f81dbe5	1.0145231
3	0x3f81385a	1.0095322
4	0x3f80eb5e	1.0071828
5	0x3f80f63c	1.0075145
6	0x3f7cb2a9	0.98710114
7	0x3f80ebe0	1.0071983
8	0x3f80cbaa	1.0062153
9	0x3f7f16f9	0.9964443
10	0x3f7fbf36	0.9990114
11	0x3f8159b5	1.0105501
12	0x3f8008d6	1.0002697
13	0x3f7d322b	0.98904675
14	0x3f7da5cb	0.99081105
15	0x3f80840f	1.0040301
16	0x3f809cda	1.0047867
17	0x3f7a9c64	0.97894883
18	0x3f813fd0	1.0097599
19	0x3f7a4d4d	0.977742
20	0x3f7fc6d5	0.9991277
21	0x3f82a1b4	1.0205598
22	0x3f7ca5f5	0.9869073
23	0x3f7aa0b0	0.9790144
24	0x3f7fd880	0.9993973
25	0x3f777227	0.9665856
26	0x3f82cac0	1.0218124
27	0x3f7d0f7b	0.98851746
28	0x3f7e3259	0.99295574
29	0x3f823eda	1.0175431
30	0x3f81b46d	1.0133187
31	0x3f83de7d	1.0302273
32	0x3f80b003	1.0053715
33	0x3f7d5a2f	0.98965734
34	0x3f82fde9	1.0233737
35	0x3f7f1b92	0.99651444
36	0x3f80b908	1.0056467
37	0x3f80a676	1.00508
38	0x3f7cf6b9	0.9881397
39	0x3f80bb94	1.0057244
40	0x3f7e4c35	0.9933503
41	0x3f841ced	1.0321327
42	0x3f81b20d	1.0132462
43	0x3f7b02c2	0.98051083
44	0x3f8102cc	1.0078979
45	0x3f815453	1.0103859
46	0x3f7cb55d	0.9871424
47	0x3f7c287a	0.9849926
48	0x3f8135eb	1.009458
49	0x3f816daf	1.0111598
50	0x3f7d792e	0.9901303
51	0x3f8187b0	1.0119534
52	0x3f81efd1	1.0151311
53	0x3f8308a6	1.0237014
54	0x3f805a4b	1.0027555
55	0x3f7f570e	0.9974221
56	0x3f7dc9ed	0.9913624
57	0x3f7bccd9	0.9835945
58	0x3f7eee46	0.99582326
59	0x3f7d3d42	0.98921597
60	0x3f805db3	1.0028595
61	0x3f8295ce	1.0201967
62	0x3f7d6479	0.98981434
63	0x3f8225a6	1.0167739

bn2.bias f4 [64]
0	0xbb016696	-0.0019744984
1	0x3a5a3b1e	0.0008324849
2	0x3c12b0c2	0.008953275
3	0xbc4a4f38	-0.012347989
4	0xbbdb1887	-0.0066862735
5	0x3c007a69	0.007841685
6	0xbc17724d	-0.00924356
7	0xbc62d3b3	-0.013844418
8	0x3bb37a88	0.0054772533
9	0xb9d72668	-0.0004103661
10	0x3beacf5b	0.007165832
11	0x3cdadad6	0.026715677
12	0xbbc8f189	-0.006132309
13	0xbba7e78e	-0.005124039
14	0x3c88ec91	0.016714366
15	0x3c215efe	0.009849308
16	0x3c81fc4e	0.015867379
17	0xbc477996	-0.012174984
18	0x3c2a7cfc	0.010405775
19	0xbd11ad76	-0.035565816
20	0x3c213291	0.009838716
21	0x3c9f60bc	0.019455306
22	0x3bd4428a	0.0064776586
23	0xb8f6a350	-0.000117606134
24	0xbc45b2fd	-0.0120666
25	0xbb0e729a	-0.0021735788
26	0x3c12ed7c	0.0089677535
27	0xba3ef31c	-0.0007284151
28	0x3ba4b11d	0.0050259964
29	0x3caf44ee	0.021395173
30	0x3c01a471	0.007912741
31	0x3cc4aff4	0.024009682
32	0x3c352946	0.011057204
33	0x3c075be9	0.008261659
34	0x3ce3e885	0.027820835
35	0xbb6b31f1	-0.0035887922
36	0xbb03c755	-0.0020107825
37	0x3c76cf57	0.015064082
38	0x3c534f3a	0.012897307
39	0x3b757496	0.0037453524
40	0x3aeb9df2	0.0017976149
41	0x3c1fa10b	0.0097429855
42	0xba0b9a5f	-0.0005325432
43	0x3ac8b771	0.0015313459
44	0x3c0c5bc2	0.008566799
45	0x3c607975	0.013700833
46	0x3c3a96e4	0.011388514
47	0xbb917ad7	-0.0044396925
48	0xbb98b208	-0.004659895
49	0x3c3258c5	0.010885422
50	0xbb80f64a	-0.00393561
51	0x3b8ff4b6	0.0043931855
52	0x3cc47ef8	0.023986325
53	0x38963de4	7.1640854e-05
54	0xbb8194da	-0.003954512
55	0xbc3fb36a	-0.0117004905
56	0x3c6854ed	0.014180404
57	0xbc8f6ba1	-0.017507376
58	0x3cf808f1	0.030277701
59	0xbc877c55	-0.016538778
60	0xbc2bfe55	-0.010497649
61	0x3c2c3579	0.010510796
62	0x3c81f341	0.015863063
63	0xbbad656e	-0.0052916324

bn2.running_mean f4 [64]
0	0xbdeccd42	-0.11562587
1	0xbed35909	-0.41278866
2	0xbee44a2c	-0.4458784
3	0xbd99eaa5	-0.07515458
4	0x3e0085db	0.12551062
5	0x3e668b05	0.22513969
6	0xbdd0211b	-0.10162564
7	0x3d77e391	0.06051976
8	0xbf6d9cec	-0.9281757
9	0x3ba89824	0.0051450897
10	0x3dde69e0	0.10860038
11	0xbe8ec071	-0.27881196
12	0xbf92d6a0	-1.1471748
13	0x3e6119e8	0.21982539
14	0xbf559459	-0.83429486
15	0x3ecc2dae	0.398786
16	0xbe8c4512	-0.27396446
17	0xbe96b698	-0.29436183
18	0xbf100c57	-0.5626883
19	0xbe5f090c	-0.21780795
20	0x3f4bbdc6	0.79586446
21	0xbdd6a7cf	-0.10481226
22	0xbf5affc4	-0.8554652
23	0x3f3e807e	0.74414814
24	0xbc909b30	-0.017652124
25	0x3ec1bf99	0.3784149
26	0xbf1a6ce4	-0.60322404
27	0xbed8a113	-0.4231039
28	0x3eb86642	0.36015517
29	0xbf8781b2	-1.0586455
30	0x3d4137f7	0.047172513
31	0x3da7aff6	0.08187859
32	0xbf91db93	-1.1395134
33	0xbd929e1d	-0.07159064
34	0x3dc0e422	0.09418513
35	0xbf527978	-0.82216597
36	0xbfbad0dd	-1.459499
37	0xbe29825e	-0.16553637
38	0x3f76c9e4	0.9640181
39	0xbef78c3e	-0.48349184
40	0xbe979e27	-0.29612848
41	0xbf888682	-1.0666049
42	0x3ebfb7b5	0.37444845
43	0x3e8df835	0.2772843
44	0xbf7dc16f	-0.9912328
45	0xbec580d6	-0.38574857
46	0x3edf2c29	0.4358838
47	0x3f1d3744	0.61412454
48	0xbdb1bf5a	-0.086790755
49	0xbf0c94ed	-0.5491474
50	0x3e0c6f9e	0.13714454
51	0xbe72b784	-0.23702818
52	0xbed5fbff	-0.4179382
53	0xbf3dd76c	-0.7415683
54	0xbe61e1f7	-0.22058855
55	0xbebcecfb	-0.36899552
56	0x3f14dcff	0.58149713
57	0x3c1f72c9	0.009731957
58	0xbd32ac26	-0.043621205
59	0xbf5983ee	-0.84966934
60	0x3d65297f	0.055947777
61	0xbdeddfd9	-0.11614961
62	0x3f6336ea	0.8875567
63	0xbf84970c	-1.0358596

bn2.running_var f4 [64]
0	0x3f18057c	0.5938337
1	0x3f0ae86d	0.54260904
2	0x3f3d2a93	0.7389309
3	0x3ed0a2bf	0.40749165
4	0x3f3e4f1a	0.7433945
5	0x3ee12681	0.4397469
6	0x3f51c257	0.81937164
7	0x3f109500	0.56477356
8	0x3fae4740	1.3615494
9	0x3efb1247	0.49037382
10	0x3f09a575	0.5376809
11	0x3ef2c5ba	0.47416478
12	0x3fd891b6	1.6919467
13	0x3f009906	0.50233495
14	0x3fa3d047	1.2797936
15	0x3ef7ec1e	0.4842233
16	0x3f1bf2fa	0.6091763
17	0x3f67f80a	0.9061285
18	0x3f3c341c	0.7351701
19	0x3f205bd8	0.6264014
20	0x3f97d9e9	1.1863376
21	0x3f2a50e8	0.66529703
22	0x3fa92aff	1.3216246
23	0x3f6c868b	0.92392796
24	0x3eff256c	0.49833238
25	0x3f364e8c	0.71213603
26	0x3f29b6c7	0.6629452
27	0x3f33c85b	0.70227593
28	0x3f296fd2	0.6618625
29	0x3fe57e09	1.7929088
30	0x3f0bb067	0.54566044
31	0x3ead0111	0.33789876
32	0x3fbe79b5	1.4880892
33	0x3efb654f	0.4910073
34	0x3ec019a7	0.3751957
35	0x3f8cb0eb	1.0991491
36	0x400d8d40	2.2117462
37	0x3efcc92c	0.49372232
38	0x3f818469	1.0118533
39	0x3f388f7d	0.72093946
40	0x3f1ae843	0.60510653
41	0x3fa77e1d	1.3085362
42	0x3f4ba5c2	0.795498
43	0x3f1f2ac3	0.62174624
44	0x3fc47ac0	1.534996
45	0x3f2eeea9	0.68332916
46	0x3f067bee	0.5253285
47	0x3f4385e7	0.76376194
48	0x3efc5792	0.4928556
49	0x3f4824a6	0.7818092
50	0x3f70ad2e	0.9401425
51	0x3f1336ca	0.57505476
52	0x3f26b9c5	0.6512721
53	0x3f7182cc	0.94340205
54	0x3f2e31c1	0.6804467
55	0x3f4227a5	0.7584174
56	0x3f2c692c	0.6734798
57	0x3eff4408	0.4985659
58	0x3f2f5212	0.68484604
59	0x3f90603d	1.127937
60	0x3f1ce7d3	0.61291236
61	0x3f04ee10	0.51925755
62	0x3f846c14	1.0345483
63	0x3faefdc3	1.3671192

conv3.weight f4 [64, 64, 3, 3]
0	0x3d3cf7f0	0.04613489
1	0xbcdbd825	-0.026836464
2	0x3c05c4a1	0.008164556
3	0xbb9f47d5	-0.004860858
4	0x3c4f92b3	0.012669253
5	0xbc7e2599	-0.015511894
6	0x3cda919b	0.026680758
7	0x3ba2277f	0.004948556
8	0xbbd32b54	-0.006444374
9	0xbd355c3d	-0.04427742
10	0x3b2b1aa7	0.0026108415
11	0x3cefdf57	0.029281301
12	0xba5838c0	-0.00082482025
13	0xbd391f7c	-0.04519604
14	0x3cbad59d	0.022806937
15	0x3cb8b908	0.022549167
16	0x3d8b6ed1	0.06808246
17	0xbc3d568a	-0.011556277
18	0x3d29dd2d	0.041470695
19	0xbbfcad1a	-0.007711065
20	0xbc9fb2fc	-0.019494526
21	0xbc8aef56	-0.016959827
22	0xbccd3329	-0.02504881
23	0xbc2c28f8	-0.010507815
24	0x3ab863ba	0.0014067807
25	0x3cab2df5	0.020895937
26	0xbc091c7a	-0.008368606
27	0x3d1fcc28	0.039013058
28	0xbc89f065	-0.016838262
29	0xbced94ae	-0.02900156
30	0x3cb3374e	0.021876957
31	0x3ca6163f	0.02027428
32	0x3ca9bf9b	0.020721247
33	0x3bcf4704	0.0063256044
34	0x3c6d03c3	0.014466229
35	0x3be2f4d7	0.00692616
36	0x3cfac44f	0.030611185
37	0xbd0f19b6	-0.03493663
38	0xbd18cb8c	-0.037303492
39	0xbae89367	-0.0017744125
40	0xb9f4bc2e	-0.0004667951
41	0x3cef36de	0.029200967
42	0xbd27ae6a	-0.04093782
43	0xbc080a03	-0.008303168
44	0xbc99048c	-0.018678926
45	0xbd0280ab	-0.03186099
46	0x3c4821ee	0.012215121
47	0xbc2b2750	-0.010446385
48	0x3c8dc8a7	0.017307593
49	0x3caddaa2	0.021222416
50	0xbcbef449	-0.023309844
51	0x3cba8c17	0.022771878
52	0xbc8aa46d	-0.016924107
53	0xbd2c3917	-0.042046633
54	0xbbc47acc	-0.005996084
55	0xbbd5fcf6	-0.0065303994
56	0xbb6a4bca	-0.003575074
57	0x3d5e8ea2	0.054335244
58	0xbd034637	-0.032049384
59	0xbcfa2fd0	-0.030540377
60	0x3d2b3f6b	0.041808527
61	0x3d2b3d93	0.04180677
62	0x3cb4c03b	0.022064319
63	0x3d63804f	0.055542286
64	0xbd075c6e	-0.033047132
65	0x3ce72a7d	0.028218502
66	0x3d7d1f5a	0.061797477
67	0x3c239fb7	0.009986809
68	0x3c1f0590	0.009705916
69	0x3c25be74	0.010116208
70	0xbd015cb8	-0.031582564
71	0xbc070ced	-0.008242828
72	0xbced0ec2	-0.028937701
73	0x3d08d0ef	0.03340238
74	0x3d379109	0.04481605
75	0x3cf7c5a5	0.030245611
76	0xbbfab6bc	-0.007651178
77	0xbcd4774e	-0.025935795
78	0xbcab16d8	-0.020884916
79	0xbc328076	-0.010894885
80	0x3bf87829	0.0075826836
81	0xbcfda2ad	-0.030961359
82	0x3ca46e9d	0.020072276
83	0xbd115034	-0.03547688
84	0xbc184ede	-0.009296147
85	0xbd3e23b8	-0.046420783
86	0x3c88f2c5	0.016717324
87	0xbd1a15b5	-0.037618358
88	0xbcca8799	-0.024722861
89	0x3c21f680	0.00988543
90	0xbc3e7e6c	-0.011626821
91	0xbd1f3db7	-0.038877215
92	0xbcf60617	-0.0300322
93	0xbd28fee5	-0.04125871
94	0xbc93a336	-0.018022161
95	0xbcec6a34	-0.028859235
96	0xbce319b7	-0.027722223
97	0x3d016d13	0.031598162
98	0xbbbc45b0	-0.005745612
99	0xbd301398	-0.042987436
100	0xbd1111f0	-0.035417497
101	0xbbc43c9b	-0.00598867
102	0xb9534388	-0.00020147685
103	0x3cec8eca	0.02887668
104	0xba887669	-0.0010411266
105	0x3be88bd9	0.0070967493
106	0xbc4bf9ba	-0.012449676
107	0xbbf78d5e	-0.007554694
108	0xbc110bdf	-0.008852928
109	0xbd79acc9	-0.060955796
110	0xbced3266	-0.028954696
111	0x3c1e7f56	0.009673914
112	0xbbdbf12a	-0.0067120986
113	0xbce56ec6	-0.028006922
114	0x3cd94633	0.026522731
115	0xbd0dbec0	-0.03460574
116	0x3d8b4ced	0.06801782
117	0xbc73b348	-0.014874287
118	0x3c443135	0.0119746225
119	0xbc0eb9bf	-0.0087112775
120	0x3d205fd8	0.039153904
121	0x3ccc500d	0.024940515
122	0xbcd3ec9a	-0.025869656
123	0x3cf239b5	0.029568532
124	0x3c5cfeb6	0.013488462
125	0xbcdff402	-0.027338032
126	0xbd4b0dd0	-0.04957372
127	0x3bdca5a8	0.006733615
128	0xbc3145fd	-0.010819909
129	0x3d1a6ea0	0.037703156
130	0xbbde03be	-0.0067753484
131	0xbcfef849	-0.031124251
132	0xbd209277	-0.03920218
133	0xbd1f09f8	-0.038827866
134	0xbb7f9ea5	-0.0039004472
135	0xbbe25480	-0.006907046
136	0x3b19a8b2	0.0023446498
137	0x3cc2493b	0.02371656
138	0x3cf799b0	0.030224651
139	0x3d05651d	0.032567132
140	0xbcd37edf	-0.025817333
141	0xbd30d3d6	-0.043170772
142	0xbb8696cc	-0.004107332
143	0xbc63846b	-0.013886551
144	0xbcafee05	-0.021475801
145	0x3cc34bd0	0.023839861
146	0x3cf2cd82	0.02963901
147	0xbd1298a0	-0.035790086
148	0xbca906af	-0.02063307
149	0xbc20d79e	-0.009817032
150	0x3d65e34c	0.05612497
151	0x3d2a4b5e	0.041575782
152	0xbced267a	-0.028949011
153	0x3d000ea5	0.031263966
154	0x3b3d742a	0.002890835
155	0xbcfe7a8d	-0.031064296
156	0xbc5dca59	-0.013537013
157	0x3c903ea5	0.017607996
158	0xbb45ad6f	-0.003016319
159	0x3aa3634e	0.0012465508
160	0xbce2f713	-0.027705705
161	0xbcc54f7a	-0.024085749
162	0x3cee9b7b	0.029126873
163	0x3b94814a	0.004532014
164	0x3c9f04d2	0.019411478
165	0xbca83b0d	-0.02053597
166	0xbd1ea30e	-0.03872972
167	0x3c375507	0.011189706
168	0x3c016554	0.007897694
169	0xbc832444	-0.016008504
170	0x3d1c1def	0.038114484
171	0x3c6a5c0e	0.014304174
172	0xbc79776a	-0.015226224
173	0xbc84c297	-0.016206069
174	0x3d188ea0	0.037245393
175	0xbc85a56c	-0.01631423
176	0x3d525942	0.051354654
177	0xbb9c5531	-0.004770898
178	0xbcc3019c	-0.023804478
179	0xbd4bb480	-0.049732685
180	0xbcb1bfca	-0.021697897
181	0xbd3393c1	-0.04384208
182	0x3c496117	0.012291214
183	0xbd0e421d	-0.03473102
184	0xbc97fa71	-0.018552037
185	0x3cdb26c2	0.02675188
186	0xbc85e36b	-0.016343793
187	0xbbc6fb16	-0.0060724122
188	0xbd0834fb	-0.03325365
189	0x3d13e2a9	0.03610483
190	0x3d3c0642	0.045904405
191	0xbd0abe9d	-0.03387319
192	0x3d45d0fa	0.048295
193	0x3c158f64	0.009128425
194	0xbcae4b53	-0.021276152
195	0xbca9aa04	-0.020710953
196	0x3c709d9f	0.014686017
197	0xbd40baf3	-0.04705329
198	0x3d22145a	0.03957019
199	0xbcc68adc	-0.024236135
200	0x3ca932de	0.020654138
201	0xbc329d5a	-0.010901773
202	0xbcabe051	-0.020980986
203	0x3d2f70a4	0.04283203
204	0x3caf5031	0.021400543
205	0xbd563c8c	-0.052303836
206	0x3bb7811d	0.0056001083
207	0x3bcf26c2	0.006321759
208	0xbcb0ac90	-0.02156666
209	0x3caff042	0.021476869
210	0xbcf9c6f9	-0.030490385
211	0x3cb72644	0.022357114
212	0x3b83494f	0.004006542
213	0xbc447c18	-0.011992477
214	0xbd0366a2	-0.0320803
215	0xbc319e86	-0.010841018
216	0x3d17d1f5	0.037065465
217	0x3cb9f06d	0.022697652
218	0xbc468b07	-0.012118108
219	0x3d01a3f6	0.031650506
220	0xbca11ad6	-0.019666117
221	0xbd3b6453	-0.045749974
222	0xbbdf8df0	-0.00682234
223	0xbcb48a07	-0.022038473
224	0xbc9871ec	-0.01860901
225	0x3c560a92	0.013064044
226	0x3c10fd64	0.0088494755
227	0xbba1c769	-0.0049371016
228	0xbc33a993	-0.010965723
229	0xbb8b1854	-0.0042448435
230	0x3c86d2a4	0.016457863
231	0x3bd96355	0.0066341558
232	0xbb431715	-0.0029768397
233	0xbc43c8bd	-0.011949715
234	0x3b2b555a	0.0026143403
235	0x3c656ce3	0.014003011
236	0x3ba9c5e3	0.0051810606
237	0xbc7ae80a	-0.0153141115
238	0xbd2b75dd	-0.04186045
239	0x3a4492b0	0.0007498665
240	0x3c93d2e1	0.01804489
241	0xbbc3c3f7	-0.0059742886
242	0xbc836a43	-0.01604188
243	0x3c8cc236	0.01718245
244	0x3c279d85	0.010230427
245	0x3d019adf	0.031641837
246	0x3c0aac44	0.008463923
247	0x3cb46110	0.02201894
248	0x3c82b88e	0.015957143
249	0xbd2aba76	-0.04168173
250	0xbce36774	-0.027759291
251	0x3c0a12d7	0.008427343
252	0x3ca0a08c	0.019607805
253	0xbd1554b7	-0.036457743
254	0x3cc7a3f2	0.024370167
255	0xbd2af52c	-0.04173772

conv3.bias f4 [64]
0	0xbd03a04f	-0.032135304
1	0x3cea8878	0.028629526
2	0x3d074f36	0.033034526
3	0xbc68b850	-0.0142041
4	0x3cc9edf4	0.024649598
5	0x3be8b407	0.007101539
6	0x3bcb6c14	0.0062079523
7	0x3c0895fe	0.008336542
8	0x3bd35dc8	0.0064503886
9	0xbcf19882	-0.029491667
10	0xbbbd8876	-0.0057840897
11	0x3d117c16	0.03551873
12	0x3c7a4039	0.015274101
13	0xba7e9327	-0.00097112585
14	0xbd0145dc	-0.031560764
15	0xbc8a543a	-0.016885865
16	0x3cf615ac	0.03003963
17	0xbc64c164	-0.013962124
18	0x3d1e7c72	0.0386929
19	0x3cc18713	0.023623979
20	0x3cff73c2	0.031183127
21	0x3bad24ef	0.005283944
22	0x3c0b170e	0.008489383
23	0xbcb6284c	-0.022236012
24	0x3cda5f9e	0.026656922
25	0xbc0f34af	-0.008740588
26	0xbcd2388e	-0.025661733
27	0x3ceb6719	0.028735684
28	0x3d2cabc4	0.042155996
29	0x3b3c72be	0.0028754915
30	0x3b235b94	0.002492641
31	0x3ce37817	0.027767224
32	0xbba42d97	-0.0050103175
33	0xbc60c213	-0.013718146
34	0x3a0c2cd2	0.0005347255
35	0xbc880200	-0.016602516
36	0x3ce5d8a1	0.028057398
37	0xbd253296	-0.040331446
38	0x3b0d353f	0.002154663
39	0x3d0b0957	0.033944454
40	0xbc37ecb2	-0.011225866
41	0xbcff2234	-0.031144239
42	0x3c988bd4	0.018621363
43	0xbd1760a3	-0.036957394
44	0x3d20ece1	0.039288405
45	0x3d1101d4	0.035402134
46	0x3d142c34	0.036174968
47	0x3c9dceb3	0.0192636
48	0xbcdc2e63	-0.026877588
49	0xbc15e7ae	-0.009149475
50	0xbc83d9b6	-0.016095024
51	0xbd0ec926	-0.0348598
52	0xbca65f7b	-0.0203092
53	0x3cd449d6	0.025914114
54	0xbc7720b3	-0.01508348
55	0xbcbbedc3	-0.022940522
56	0x3d1a7d94	0.037717417
57	0xbc2155ed	-0.009847146
58	0x3d26b3ae	0.0406987
59	0xbcc3cd93	-0.023901736
60	0xbd203c5f	-0.039120074
61	0xbb4d6dcc	-0.0031345962
62	0xbcb3cfd5	-0.021949688
63	0x39528922	0.00020078247

bn3.weight f4 [64]
0	0x3f8087f6	1.0041492
1	0x3f841e28	1.0321703
2	0x3f8013fc	1.0006099
3	0x3f7f49d5	0.99722034
4	0x3f8054df	1.0025901
5	0x3f7f13a6	0.99639356
6	0x3f7ea131	0.9946471
7	0x3f7fb29c	0.9988191
8	0x3f8075a6	1.0035903
9	0x3f7ba0de	0.9829234
10	0x3f7f115d	0.9963587
11	0x3f820942	1.0159075
12	0x3f7e8106	0.99415624
13	0x3f7d2d09	0.98896843
14	0x3f7e4c8e	0.99335563
15	0x3f800513	1.0001549
16	0x3f7df7e0	0.9920635
17	0x3f7e5ef1	0.9936362
18	0x3f7dffcd	0.99218446
19	0x3f820c30	1.0159969
20	0x3f8085a5	1.0040785
21	0x3f825b6f	1.0184153
22	0x3f813226	1.0093429
23	0x3f7ef35c	0.99590087
24	0x3f830ca5	1.0238234
25	0x3f80199c	1.0007815
26	0x3f7f3a04	0.996979
27	0x3f81d718	1.0143766
28	0x3f80b49c	1.0055118
29	0x3f822801	1.0168458
30	0x3f7df877	0.9920725
31	0x3f80952d	1.0045525
32	0x3f7e2ca3	0.9928686
33	0x3f7cd8ee	0.9876851
34	0x3f80863a	1.0040963
35	0x3f819678	1.0124044
36	0x3f806193	1.0029777
37	0x3f7c0187	0.9843983
38	0x3f8078db	1.0036882
39	0x3f843e00	1.0331421
40	0x3f7f09e6	0.9962448
41	0x3f7faca0	0.9987278
42	0x3f7ba512	0.9829875
43	0x3f78976a	0.9710604
44	0x3f808318	1.0040007
45	0x3f83a57a	1.0284874
46	0x3f7f2631	0.9966765
47	0x3f7cb430	0.98712444
48	0x3f80805d	1.0039173
49	0x3f7f4fc1	0.9973107
50	0x3f7ca0c9	0.9868284
51	0x3f81492f	1.0100459
52	0x3f833e87	1.0253457
53	0x3f825c11	1.0184346
54	0x3f7dd13c	0.9914739
55	0x3f82f10e	1.0229814
56	0x3f80c996	1.0061519
57	0x3f7fac3a	0.9987217
58	0x3f80204a	1.0009854
59	0x3f7f52c1	0.9973565
60	0x3f8147a0	1.0099983
61	0x3f7e26fb	0.9927823
62	0x3f813c4e	1.0096529
63	0x3f7c027d	0.98441297

bn3.bias f4 [64]
0	0xbb71eb02	-0.0036913757
1	0x3cd90dea	0.026495893
2	0x3c97fb4a	0.018552441
3	0x3c69a445	0.014260356
4	0x3c7fb359	0.015606725
5	0x3be0e8df	0.006863698
6	0xbb8f3bf4	-0.0043711606
7	0x3cdbd243	0.026833659
8	0x3b116fd3	0.0022191897
9	0x3c707d78	0.014678352
10	0x3c62ab77	0.013834826
11	0x3c8adf98	0.016952321
12	0xb9bb6c6c	-0.000357482
13	0xbd0898a0	-0.03334868
14	0xbc054101	-0.008133174
15	0xbb601c87	-0.003419669
16	0x39f175e0	0.00046054926
17	0x3c8aa7be	0.016925689
18	0xbc0c0eda	-0.008548463
19	0x3c00f48c	0.0078708045
20	0xbc079d6f	-0.008277281
21	0x3c24299a	0.010019684
22	0x3c4e73d8	0.0126008615
23	0x3cfa636a	0.030564982
24	0xbb93a580	-0.004505813
25	0xba9b6088	-0.001185433
26	0x3c4fb3f3	0.012677181
27	0xbbfe95be	-0.0077693155
28	0x3bc7aa60	0.0060933083
29	0x3cbf96e5	0.023387382
30	0x3b63f603	0.0034784086
31	0x3c788728	0.0151689425
32	0x3aa410a9	0.0012517172
33	0xbafdb5d4	-0.0019356557
34	0x3a8d6476	0.0010787386
35	0x3c8517c2	0.01624668
36	0xba7ec603	-0.0009718837
37	0xbc23c875	-0.009996523
38	0x3c80839b	0.015687754
39	0x3d29426b	0.041323107
40	0xbc13ddfd	-0.009025094
41	0xbbefa8ae	-0.0073138094
42	0x391795b7	0.00014456255
43	0xbca2a833	-0.019855594
44	0xbc466fb8	-0.012111597
45	0x3c9629a8	0.01833041
46	0x3c969de1	0.01838583
47	0xbb81b5ea	-0.0039584534
48	0xbb193e7b	-0.0023383189
49	0x3b29ffda	0.0025939853
50	0x38c156c1	9.219116e-05
51	0xb8c32b0c	-9.306343e-05
52	0x3c86b93f	0.016445754
53	0x3ca56eeb	0.020194491
54	0x3bb5ec11	0.005551823
55	0x3c0d0bb5	0.008608748
56	0xba24470b	-0.000626669
57	0x3cd2f6f6	0.025752526
58	0x3a6434cc	0.0008705377
59	0xbbf4f3e2	-0.007475362
60	0x3c10766c	0.0088172965
61	0x3934d932	0.00017247049
62	0xbaeeedd8	-0.0018228842
63	0x39337a02	0.00017116222

bn3.running_mean f4 [64]
0	0xbf044eaa	-0.5168253
1	0xbe4b3ce3	-0.19847445
2	0x3e6b393f	0.22971056
3	0x3f1eea81	0.62076575
4	0xbee3cd93	-0.44492778
5	0x3e086bec	0.13322419
6	0x3c37111d	0.011173514
7	0xbdafdab0	-0.08586633
8	0xbf2f4912	-0.6847087
9	0xbf8941f6	-1.0723255
10	0x3f3e3e74	0.74314046
11	0x3ec62c66	0.38705748
12	0xbf2d6370	-0.67729855
13	0x3f43255e	0.7622889
14	0xbef43f73	-0.47704658
15	0xbdd3e959	-0.10347242
16	0xbf6c4207	-0.9228825
17	0x3e2b6fc8	0.1674186
18	0x3f01e290	0.5073633
19	0xbd7206b6	-0.05908843
20	0x3f3333ee	0.70001113
21	0xbe9d8f82	-0.3077355
22	0xbb2fd40d	-0.0026829273
23	0xbe9a4739	-0.30132464
24	0x3dffdd68	0.12493402
25	0xbf30c9ae	-0.6905774
26	0x3e7f25fa	0.2491683
27	0x3d9e26eb	0.07722267
28	0xbe4d49e7	-0.20047723
29	0xbf192095	-0.5981534
30	0x3f1f2a5e	0.6217402
31	0xbf3490b6	-0.7053331
32	0xbf559d6a	-0.8344332
33	0xbe03ae2f	-0.12859415
34	0x3f4975e0	0.7869549
35	0xbe904ba6	-0.28182715
36	0xbea550ce	-0.32288212
37	0xbfa0a160	-1.2549248
38	0x3f78126e	0.9690312
39	0xbd79ded0	-0.061003506
40	0xbf484809	-0.78234917
41	0x3f4d7c6f	0.80267996
42	0x3e5ed0e8	0.21759379
43	0xbf192743	-0.59825534
44	0xbf3c578d	-0.7357109
45	0xbea07fb0	-0.31347418
46	0x3ed3b9da	0.4135273
47	0xbf2b666e	-0.6695317
48	0x3e19843b	0.14991848
49	0x3f2b8e35	0.67013866
50	0x3e11a74e	0.14223978
51	0xbf3d7122	-0.7400075
52	0xbf00fadb	-0.50382775
53	0x3e630542	0.22169974
54	0x3f1ac220	0.6045246
55	0x3d3ceb6c	0.046122953
56	0x3d74ec04	0.059795395
57	0x3ed8668b	0.42265734
58	0x3f306af2	0.68913186
59	0x3f42828e	0.7598046
60	0x3e85ea80	0.26155472
61	0x3f592cb7	0.84833854
62	0xbf29227a	-0.6606823
63	0x3eaac0f6	0.33350343

bn3.running_var f4 [64]
0	0x3e9e67ce	0.30938572
1	0x3ee23a70	0.4418521
2	0x3f266bbc	0.6500814
3	0x3f5317e0	0.82458305
4	0x3eb5f4a2	0.35538203
5	0x3eaf913c	0.34290493
6	0x3ed3903f	0.4132099
7	0x3f0d3e34	0.5517304
8	0x3f68022b	0.9062831
9	0x3eea37d2	0.45745713
10	0x3f342f0a	0.70384276
11	0x3f2c5bb3	0.6732742
12	0x3ebec635	0.37260595
13	0x3eb935ad	0.36173764
14	0x3e877ccc	0.264624
15	0x3e6a6c43	0.22892861
16	0x3fb5ea33	1.4212097
17	0x3f1c89a2	0.6114751
18	0x3ea3b1d0	0.31971598
19	0x3edc06ec	0.4297403
20	0x3f01a30e	0.50639427
21	0x3ed9bc75	0.42526594
22	0x3e6a6620	0.2289052
23	0x3e760afd	0.24027629
24	0x3f1a254a	0.6021315
25	0x3f09370b	0.53599614
26	0x3f417b21	0.75578505
27	0x3eadf590	0.33976412
28	0x3eb3bc18	0.35104442
29	0x3ed2c837	0.41168377
30	0x3fe157b6	1.7604892
31	0x3e938ddb	0.28819165
32	0x3f4e67a8	0.80626917
33	0x3f3bb04f	0.733159
34	0x3f2b5d80	0.66939545
35	0x3f3ccb0c	0.73747325
36	0x3ea3f603	0.3202363
37	0x3edbaa13	0.42903194
38	0x3f97037e	1.1797941
39	0x3ed1a740	0.40947914
40	0x3ec4e9fd	0.3845977
41	0x3f8c4ec0	1.0961533
42	0x3f24efa8	0.64428186
43	0x3ed6c754	0.4194895
44	0x3eaa569a	0.33269197
45	0x3e6e44b9	0.23268403
46	0x3f14b555	0.5808919
47	0x3e83cdf7	0.25743076
48	0x3ee8020c	0.45314062
49	0x3f4f5252	0.80984986
50	0x3f1b3ed5	0.6064275
51	0x3f377c13	0.716737
52	0x3ed47c95	0.415013
53	0x3ef5c5a3	0.48002347
54	0x3ebc4728	0.36773038
55	0x3ecc2a63	0.39876089
56	0x3ef9492a	0.48688632
57	0x3ea8da77	0.32979175
58	0x3f83bc7f	1.02919
59	0x3ee4d96e	0.44697136
60	0x3ea513f7	0.32241794
61	0x3f85c0c2	1.044945
62	0x3eebb87d	0.4603919
63	0x3e8ef501	0.27921298

policy_conv.weight f4 [2, 64, 1, 1]
0	0x3e037f63	0.12841563
1	0xbdaa14c2	-0.083047405
2	0x3d7f6b45	0.06235816
3	0xbc0e5b21	-0.008688719
4	0xbdc9814c	-0.098391145
5	0x3e00ef0d	0.1259119
6	0xbcfaeffc	-0.030632012
7	0x3de5fc11	0.112297185
8	0xbdfdf25c	-0.12399742
9	0x3ce3a388	0.027787939
10	0x3dda11aa	0.106479004
11	0xbe012b64	-0.12614208
12	0xbd8c9813	-0.06864943
13	0xbc843b41	-0.016141536
14	0x3d2d3c16	0.04229363
15	0x3ccc5db8	0.024947032
16	0xbd38fec3	-0.045164835
17	0x3df13e21	0.11779428
18	0xbdaed970	-0.08537567
19	0xbbbb6f53	-0.005720058
20	0x3db56b0a	0.08858307
21	0xbe0a2a72	-0.13492754
22	0x3d620a82	0.055185802
23	0x3dd6d561	0.104899175
24	0xbd03ef92	-0.032210894
25	0xbd485abf	-0.048914667
26	0x3e02bd06	0.12767419
27	0x3d82628f	0.06366455
28	0xbd830fa0	-0.063994646
29	0xbd46dd24	-0.04855074
30	0x3ce37246	0.02776445
31	0x3bf2cf74	0.0074099842
32	0xbe167853	-0.14694338
33	0xbdcfb91a	-0.10142727
34	0x3da1e8f1	0.07905758
35	0xbddad251	-0.10684646
36	0x3cb1dc06	0.02171136
37	0x3cc4f088	0.024040475
38	0x3d449822	0.047996648
39	0xbd64831e	-0.055789106
40	0xb9c68928	-0.00037867692
41	0x3c87d23b	0.016579738
42	0x3d535c7c	0.05160187
43	0x3b202b3e	0.0024439837
44	0x3cd54099	0.02603178
45	0xbd16f8a7	-0.036858227
46	0x3de452f1	0.11148632
47	0xbc550c9c	-0.013003495
48	0x3cee4520	0.029085696
49	0x3dc6a020	0.0969851
50	0x3bc9af4a	0.0061549293
51	0xbe094f91	-0.13409258
52	0xbd82096f	-0.063494556
53	0xbdb7b958	-0.089708984
54	0x3db74cef	0.08950221
55	0xbda17958	-0.078844726
56	0xbd1cf945	-0.03832366
57	0x3d8935e5	0.06699733
58	0x3d04640f	0.032321986
59	0x3af0b707	0.0018365093
60	0x3ddec077	0.108765535
61	0x3dc2c838	0.09510845
62	0xbdee1d0b	-0.11626633
63	0x3c1623e7	0.009163833
64	0x3c96e28b	0.018418571
65	0xbd6772da	-0.056506015
66	0x3b8c1cfb	0.0042759157
67	0xbdecd39d	-0.115637995
68	0x3d971526	0.073770806
69	0x3d455b6a	0.048182882
70	0xbd9cbe0b	-0.07653435
71	0xbd01eaf9	-0.031718228
72	0x3c72a242	0.014809193
73	0x3d0541b4	0.032533363
74	0xbd0ba0fa	-0.034089066
75	0xbc852cf5	-0.016256789
76	0x3de8f389	0.11374576
77	0x3d15a8c2	0.036537893
78	0x3deb3488	0.11484629
79	0x3ce0d40f	0.027444867
80	0x3d1e00cb	0.038574975
81	0x3cfc7e60	0.030821979
82	0xbd7d6943	-0.061867964
83	0x3dd1bf10	0.102415204
84	0xbde403a5	-0.11133508
85	0xbdb74997	-0.08949583
86	0xbd8be74b	-0.06831225
87	0x3d8a5834	0.06755105
88	0xbdec7d64	-0.11547354
89	0x3dab8dd4	0.08376661
90	0x3d804943	0.062639736
91	0x3d525f5a	0.051360466
92	0xbca002ef	-0.019532649
93	0x3ce883c7	0.028383149
94	0xbdc3a1a2	-0.095523134
95	0xbc73c149	-0.014877626
96	0x3d89371f	0.06699967
97	0xbdfc77df	-0.12327551
98	0xbd6bc3f7	-0.057559934
99	0x3dbfde27	0.09368544
100	0xbdbb01f2	-0.091312304
101	0xbc4b651a	-0.012414241
102	0xbde242ce	-0.11047898
103	0xbd098649	-0.03357533
104	0x3df547e1	0.119766004
105	0xbd3bd648	-0.04585865
106	0x3d06bf7a	0.03289745
107	0x3d1218c9	0.03566817
108	0xbccf54ef	-0.025309054
109	0x3da37c04	0.079826385
110	0xbd88dfa9	-0.06683285
111	0x3c2acbb5	0.010424544
112	0xbd8b0756	-0.067885086
113	0xbd9a5f84	-0.075377494
114	0x3d242f1a	0.040083982
115	0x3db2f9bd	0.0873904
116	0xbde38f78	-0.11111349
117	0xbbb7961e	-0.005602612
118	0x3dad3713	0.0845777
119	0xbd562eda	-0.052290775
120	0xbcd7be59	-0.026335882
121	0x3d420453	0.047367405
122	0xbdb41bf6	-0.087943956
123	0x3c292f04	0.010326151
124	0x3b85782f	0.004073165
125	0xbd07bff2	-0.033142038
126	0x3de379c3	0.111072086
127	0xbcaa266c	-0.020770274

policy_conv.bias f4 [2]
0	0xbdb35169	-0.08755762
1	0xbccd5132	-0.025063131

policy_bn.weight f4 [2]
0	0x3f790f49	0.9728895
1	0x3f807829	1.003667

policy_bn.bias f4 [2]
0	0xbc81e866	-0.015857887
1	0x3c945ab5	0.018109659

policy_bn.running_mean f4 [2]
0	0xbd72adeb	-0.059247892
1	0xbe1a78f3	-0.15085201

policy_bn.running_var f4 [2]
0	0x3fb58f09	1.4184276
1	0x3f280eed	0.65647775
