models/connect4_model_epoch_5.pth (torch, 329001 bytes, 30 tensors)

conv1.weight f4 [64, 1, 3, 3]
0	0xbe90e370	-0.2829852
1	0xbe7f6c90	-0.24943757
2	0xbe775a2d	-0.24155493
3	0xbe5209b3	-0.20511512
4	0xbe601b78	-0.21885478
5	0x3b4c2836	0.0031151897
6	0xbe115fbe	-0.14196679
7	0xbdaf9a6c	-0.085743755
8	0x3eb6300a	0.35583526
9	0xbd33ed9b	-0.04392777
10	0x3d3aee38	0.04563734
11	0xbe4ebd07	-0.20189296
12	0xbdd706cb	-0.104993425
13	0xbd83ac95	-0.06429402
14	0xbe4a6e72	-0.19768694
15	0xbdb2093d	-0.08693168
16	0xbd76bcae	-0.060238533
17	0xbdd12197	-0.10211485
18	0x3d3910a2	0.045181878
19	0x3aa1949d	0.0012327615
20	0x3d58f310	0.052966177
21	0xbe17eb8c	-0.14835948
22	0xbe47d08a	-0.19513145
23	0x3cd6a8d8	0.026203558
24	0x3ea2410e	0.31690258
25	0x3e5ec48b	0.21754663
26	0xbb84ba49	-0.0040505272
27	0xbe81757e	-0.25284952
28	0x3d1d6904	0.03843023
29	0x3e909c8e	0.28244442
30	0x3ea42cd5	0.32065454
31	0xbd31fcf0	-0.04345411
32	0xbe0049fc	-0.12528223
33	0x3c97b1a4	0.018517323
34	0x3db93276	0.09042828
35	0xbe8e8250	-0.27833796
36	0xbd9bd1ea	-0.07608397
37	0x3e7a1eac	0.24425763
38	0x3e533573	0.20625858
39	0x3cb5468c	0.022128366
40	0xbe4c3900	-0.19943619
41	0x3e5c9a75	0.21543296
42	0x3e929749	0.28631046
43	0xbe84793e	-0.2587375
44	0xbe840a58	-0.25789142
45	0xbea5bd48	-0.32370973
46	0xbb0cf6c3	-0.0021509386
47	0xbeadb603	-0.33927926
48	0xbe777ebf	-0.24169444
49	0xbd9fea5f	-0.078083746
50	0x3da0ff56	0.078612015
51	0xbe999c05	-0.30001846
52	0xbd8f2bea	-0.06990798
53	0x3c8ccf29	0.017188625
54	0xbe95491f	-0.2915735
55	0xbd023a1e	-0.031793706
56	0x3dd9c78d	0.106337644
57	0xbd69c45f	-0.05707204
58	0xbe664d47	-0.22490416
59	0x3e1ab517	0.15108143
60	0xbdf8f929	-0.121568985
61	0xbd961d10	-0.07329762
62	0xbbf8f499	-0.0075975177
63	0xbe8cf6e0	-0.275321
64	0xbdf4b524	-0.11948612
65	0xbe2bfcec	-0.16795701
66	0xbe6bda90	-0.23032594
67	0xbcbb0420	-0.022829115
68	0xbd98bc05	-0.07457737
69	0x3e746832	0.23867872
70	0xbde274d6	-0.11057441
71	0x3eab3b74	0.33443797
72	0xbae49573	-0.0017439559
73	0xbe28b26f	-0.16474317
74	0xbe7a28ca	-0.24429622
75	0x3e59dfb1	0.21276738
76	0x3e8a9053	0.27063236
77	0xbe8c1450	-0.27359247
78	0x3dc14535	0.09437028
79	0xbe216cca	-0.15764156
80	0xbd30346f	-0.043018755
81	0xbd020c8f	-0.031750258
82	0x3ea3182f	0.31854388
83	0x3e935167	0.28773043
84	0xbe84a1d8	-0.25904727
85	0xbe0ecc1e	-0.13945052
86	0x3d2d8592	0.04236371
87	0xbbd73392	-0.006567427
88	0x3ea52a33	0.32258758
89	0x3daf0fcc	0.08547935
90	0xbe927867	-0.28607485
91	0xbd4d1a59	-0.050073955
92	0x3e86d7af	0.2633643
93	0x3e88afa2	0.26696497
94	0xbe727c87	-0.23680316
95	0xbe5f05bd	-0.21779533
96	0x3e8d5e9f	0.27611253
97	0xbe554c07	-0.20829783
98	0xbd99192d	-0.07475505
99	0xbe637437	-0.22212301
100	0x3da211ee	0.07913576
101	0x3dadd651	0.08488143
102	0x3e29faa1	0.16599514
103	0xbe4b8c7d	-0.19877811
104	0x3dd9306c	0.10604939
105	0xbe687005	-0.22698982
106	0x3e63ad6b	0.22234122
107	0x3e732f0c	0.23748416
108	0x3bb39ab2	0.0054810876
109	0xbe81dc0e	-0.253632
110	0x3e85a637	0.26103374
111	0xbc1792fc	-0.009251352
112	0x3e9b0dda	0.30284005
113	0xbdb4a674	-0.08820811
114	0xbe7689d9	-0.24076022
115	0x3e6cde95	0.23131783
116	0xbe71f8a4	-0.23630005
117	0xbe22cca5	-0.15898378
118	0xbc1f0ea3	-0.0097080795
119	0x3e424659	0.18972148
120	0xbe94ee8b	-0.29088244
121	0xbe8ce778	-0.27520347
122	0x3ea98be9	0.33114555
123	0xbda31f28	-0.07964927
124	0xbe790a56	-0.24320349
125	0x3d20d98f	0.03926998
126	0xbd82ab17	-0.06380289
127	0x3a21e0ef	0.00061751803
128	0x3e6cbf45	0.23119839
129	0x3e52778e	0.20553419
130	0xbdef1ae6	-0.11675052
131	0x3d281418	0.041034788
132	0xbe47a736	-0.1949738
133	0xbdd8bcf2	-0.105829135
134	0xbe9257f9	-0.28582743
135	0x3cea0d4b	0.028570792
136	0x3c63c25c	0.013901319
137	0x3de10bee	0.109886035
138	0xbe28c623	-0.16481833
139	0xbe36255a	-0.17787686
140	0xbe2f1c3c	-0.17100614
141	0x3e88f3dc	0.2674855
142	0xbc13daca	-0.009024331
143	0xbe992b1c	-0.29915702
144	0xbe8def41	-0.277216
145	0x3e13bd2b	0.1442763
146	0x3c877a38	0.01653777
147	0x3e34e460	0.17665243
148	0x3d9185b2	0.071055785
149	0x3ea27c16	0.31735295
150	0x3e9bae7f	0.30406567
151	0x3e76971e	0.24081084
152	0xbe6a9519	-0.22908439
153	0xbe4f48b9	-0.20242585
154	0xbbe46099	-0.006969523
155	0xbc9dc27b	-0.019257775
156	0xbe35958c	-0.17732829
157	0xbddd44b5	-0.108041205
158	0x3e8999f3	0.26875266
159	0x3e9cd03b	0.30627617
160	0xbe9b8a8d	-0.30379143
161	0xbd17a813	-0.037025522
162	0xbe636aeb	-0.22208755
163	0x3e1c8c78	0.1528796
164	0x3e987d86	0.29783267
165	0x3ea2157a	0.3165701
166	0xbea2c940	-0.31794167
167	0xbd50e8d7	-0.051003303
168	0x3e224298	0.15845716
169	0xbe728bc6	-0.23686132
170	0x3da6594b	0.081225
171	0x3d50b6b9	0.050955508
172	0xbda79998	-0.081835926
173	0xbe7ab70e	-0.24483892
174	0xbe0d8fc2	-0.1382437
175	0x3da74894	0.0816814
176	0x3d60b69a	0.054861642
177	0x3e66b5a6	0.22530231
178	0x3dda3a15	0.106556095
179	0x3e25ba12	0.16184261
180	0x3da9ffed	0.08300767
181	0xbe96df14	-0.2946707
182	0x3de4e6fc	0.11176869
183	0xbcacbdf3	-0.021086669
184	0xbc709ea6	-0.014686262
185	0x3e73e116	0.23816332
186	0xbe024eb4	-0.12725335
187	0xbe8c8e7f	-0.27452466
188	0xbd891555	-0.06693522
189	0x3e92e156	0.28687543
190	0xbe2437b1	-0.1603687
191	0xbcc7a357	-0.024369879
192	0x3ea27512	0.31729943
193	0x3d13487b	0.035957795
194	0x3b1780ea	0.002311761
195	0x3e82ef51	0.2557321
196	0x3e668e08	0.22515118
197	0x3d2d1f2b	0.042266052
198	0xbd1af118	-0.03782758
199	0xbe192063	-0.14953761
200	0x3bbbb2d1	0.0057281037
201	0xbe878884	-0.2647134
202	0x3c9ad146	0.018898617
203	0xbea89859	-0.32928732
204	0x3e09fc5c	0.13475174
205	0xbe31f2c4	-0.17377764
206	0xbd67e312	-0.056613036
207	0x3d547174	0.05186601
208	0x3e95039e	0.29104322
209	0x3e41d595	0.18929131
210	0x3d403e55	0.046934444
211	0xbe8cfbe7	-0.27535936
212	0x3e65f6e2	0.2245746
213	0x3e8b4996	0.2720458
214	0x3ea80b21	0.3282099
215	0xbc9ab1bf	-0.018883584
216	0x3d6c1bd4	0.057643726
217	0x3e0acc1e	0.13554427
218	0x3e8a8ebd	0.27062026
219	0xbe0d1419	-0.13777198
220	0xbdaef9f5	-0.08543769
221	0x3e9dad1a	0.3079613
222	0xbe9eab7c	-0.30990207
223	0xbd9ae237	-0.07562678
224	0x3df5c5a4	0.120005876
225	0x3e67691f	0.22598694
226	0xbe0b3bf4	-0.13597089
227	0xbe7b9109	-0.24567045
228	0xbbc7b299	-0.0060942885
229	0x3df176c0	0.11790228
230	0x3e9e00b0	0.308599
231	0xbe6ebf3b	-0.23315136
232	0x3e62300b	0.2208864
233	0xbd34e9fa	-0.04416845
234	0x3dcbfeb7	0.099606924
235	0xbcde8653	-0.02716366
236	0xbe5c287b	-0.21499817
237	0xbeab7cbf	-0.3349361
238	0xbcc49cd1	-0.024000557
239	0xbd18a1c0	-0.03726363
240	0x3c8b9dfb	0.017043104
241	0x3e33f1ee	0.17572758
242	0x3d9ddd8c	0.07708272
243	0x3e9e36ed	0.3090128
244	0x3e98c4ec	0.2983774
245	0xbe63f803	-0.22262578
246	0xbda92a6c	-0.082600445
247	0xbbad8855	-0.005295793
248	0xbceda38d	-0.029008651
249	0x3d0567f1	0.03256983
250	0xbea84b6c	-0.32870042
251	0x3e932980	0.287426
252	0xbe2e8562	-0.17043069
253	0x3e30a42e	0.1725013
254	0x3e923cc9	0.28562
255	0x3e8abe3b	0.2709826

conv1.bias f4 [64]
0	0xbc2b65e0	-0.010461301
1	0xbe561d46	-0.20909604
2	0xba27cff0	-0.00064015295
3	0x3e722d0d	0.23649998
4	0x3d3d8b28	0.046275288
5	0x3e31bf77	0.17358194
6	0x3da840ac	0.0821546
7	0x3d893dd6	0.067012474
8	0x3e0553ff	0.13020323
9	0xbcfd4f36	-0.03092156
10	0xbe0c5916	-0.13705859
11	0x3e0aa05c	0.13537735
12	0x3d4407ab	0.047858875
13	0x3e71fb8e	0.23631117
14	0xbcdca6e3	-0.026935047
15	0x3e34f4a2	0.17671445
16	0xbe8068cc	-0.25079954
17	0xbd58e0fb	-0.052948933
18	0xbe3ddd3f	-0.1854143
19	0xbd02a105	-0.03189184
20	0xbea54a9e	-0.3228349
21	0xbe9a8aa0	-0.30183887
22	0xbea5c99a	-0.32380372
23	0x3e5aabc9	0.21354593
24	0x3dffd3ce	0.124915704
25	0xbe404109	-0.18774809
26	0xbe8658ca	-0.26239616
27	0x3dcdf1c5	0.100558795
28	0x3e93992a	0.28827792
29	0xbe3c3e05	-0.18383034
30	0xbe10c4a0	-0.14137506
31	0xbe3f0a4a	-0.18656269
32	0xbe5445b6	-0.20729718
33	0xbea05231	-0.31312707
34	0x3e99bc05	0.3002626
35	0x3e7a462a	0.24440828
36	0x3e9a1b30	0.30098867
37	0xbae53e6e	-0.0017489919
38	0x3e5f1a1e	0.21787307
39	0x3d5f6142	0.05453611
40	0x3e497240	0.19672489
41	0x3e0a4d5b	0.13506071
42	0x3e6fabb1	0.23405339
43	0xbdc1cbe7	-0.094627194
44	0xbdb53b4a	-0.08849199
45	0xbea36870	-0.31915617
46	0xbde671c5	-0.112521686
47	0xbea7138c	-0.326321
48	0xbd99d8fa	-0.07512088
49	0xbe9c199c	-0.30488288
50	0x3dee7077	0.11642545
51	0xbd93f786	-0.07224946
52	0xbd593f99	-0.053039167
53	0x3db7d038	0.089752614
54	0xbe9b2d66	-0.30308074
55	0x3cef13bf	0.02918422
56	0xbea1ee29	-0.31627014
57	0xbda818ef	-0.08207881
58	0x3e01b0e5	0.12665136
59	0x3e2bbbbc	0.16770834
60	0x3e0abceb	0.13548629
61	0xbe8157fa	-0.25262433
62	0xbdc81e2b	-0.09771379
63	0x3d0b66b8	0.034033507

bn1.weight f4 [64]
0	0x3f814336	1.0098636
1	0x3f806125	1.0029646
2	0x3f806619	1.0031158
3	0x3f80b0a0	1.0053902
4	0x3f7e1bac	0.99260974
5	0x3f810fff	1.0083007
6	0x3f7fe6dc	0.9996164
7	0x3f80b554	1.0055337
8	0x3f803b3d	1.0018078
9	0x3f805d63	1.0028499
10	0x3f7ccf13	0.9875347
11	0x3f7f5994	0.9974606
12	0x3f7ed745	0.99547225
13	0x3f81667b	1.01094
14	0x3f7f1814	0.99646115
15	0x3f8004d5	1.0001475
16	0x3f81ccf9	1.0140678
17	0x3f7f17ec	0.99645877
18	0x3f7d8f72	0.99047005
19	0x3f80f3f1	1.0074445
20	0x3f81c052	1.0136817
21	0x3f8293c5	1.0201346
22	0x3f80efe7	1.0073212
23	0x3f7d62dd	0.9897898
24	0x3f804dba	1.002372
25	0x3f80c50f	1.0060138
26	0x3f7cbb63	0.9872343
27	0x3f808394	1.0040154
28	0x3f7e41cc	0.9931915
29	0x3f7da082	0.9907304
30	0x3f7ff3de	0.99981487
31	0x3f7cb4fc	0.9871366
32	0x3f810e95	1.0082575
33	0x3f818d63	1.0121273
34	0x3f7c4057	0.98535675
35	0x3f7f5ee3	0.9975416
36	0x3f7dea48	0.9918561
37	0x3f8062d2	1.0030158
38	0x3f80f829	1.0075732
39	0x3f7db2f6	0.991012
40	0x3f8125d0	1.0089664
41	0x3f7f429c	0.9971101
42	0x3f813bdf	1.0096396
43	0x3f7f9c24	0.99847627
44	0x3f80658a	1.0030987
45	0x3f82233d	1.0167004
46	0x3f7a53d5	0.9778417
47	0x3f796b82	0.9742967
48	0x3f7cf5d8	0.9881263
49	0x3f81fd37	1.01554
50	0x3f802ecf	1.0014285
51	0x3f7ec5cc	0.99520564
52	0x3f7fab75	0.99871
53	0x3f7db3bd	0.99102384
54	0x3f807a5c	1.0037341
55	0x3f7cf8db	0.98817223
56	0x3f7c8e63	0.98654765
57	0x3f80f8a9	1.0075885
58	0x3f812c7f	1.0091704
59	0x3f7f6d72	0.99776375
60	0x3f813325	1.0093733
61	0x3f7feeb2	0.99973595
62	0x3f7cda6e	0.987708
63	0x3f7bc16d	0.9834202

bn1.bias f4 [64]
0	0x3c14e160	0.009086937
1	0x38c7de15	9.5304255e-05
2	0xbb9c0e5d	-0.0047624544
3	0x3bc62bd0	0.0060477033
4	0x3aa8f8d4	0.0012891539
5	0xbbb34849	-0.0054712635
6	0x3c332c21	0.010935814
7	0x3b2094d8	0.002450278
8	0xbacc244a	-0.001557478
9	0x3c50cd26	0.012744224
10	0xbca2cef3	-0.019874072
11	0x3ba1f157	0.0049421
12	0xbb8eb50a	-0.0043550776
13	0x3c8bbf2a	0.017058928
14	0x3a6b2cd2	0.00089712173
15	0xbb8c83bc	-0.004288165
16	0xbc81fad0	-0.015866667
17	0x3ae18e0f	0.0017208474
18	0xbb4a700b	-0.0030889537
19	0xbc856479	-0.01628326
20	0x3c7f3b43	0.015578094
21	0x3a9bdf02	0.0011892023
22	0x3a9197fc	0.0011107917
23	0xbcbb8871	-0.022892209
24	0x3b90da61	0.004420564
25	0xbc09cd3f	-0.008410751
26	0xbc8cab19	-0.01717143
27	0x3a2284c3	0.00061995926
28	0xbbdc8a53	-0.0067303567
29	0xbcbf9b0a	-0.023389358
30	0xbaadcb6c	-0.0013259477
31	0x3c2b5980	0.01045835
32	0xbbb5e226	-0.0055506406
33	0xbc608f70	-0.013706073
34	0xbc2074ae	-0.009793444
35	0xbc4346a1	-0.011918695
36	0x3b1b641f	0.00237108
37	0xbaadee39	-0.0013269848
38	0xbc2d7f42	-0.010589423
39	0x3c0aa9c0	0.008463323
40	0xbba1354f	-0.004919685
41	0x3c1027ef	0.008798583
42	0xbb88892b	-0.0041667423
43	0x3bd49d26	0.00648846
44	0xb9f99d91	-0.00047610377
45	0x3a1b84d1	0.0005932572
46	0xbb0e0689	-0.0021671376
47	0xbc98bb06	-0.018643867
48	0x3bb5ac87	0.0055442485
49	0xb83d32ac	-4.5108303e-05
50	0x3bf56569	0.0074888957
51	0xbc50eabb	-0.012751277
52	0x3a05e6a0	0.0005107913
53	0x3c651dbe	0.013984142
54	0xb8e0744c	-0.00010702814
55	0xbbe8b945	-0.007102164
56	0xbc869390	-0.016427785
57	0x3be3b816	0.006949435
58	0x3c514f5f	0.012775271
59	0x3ac670fa	0.0015139871
60	0x3be890e1	0.007097349
61	0x3aa5be54	0.0012645223
62	0xbb1a2b09	-0.0023524186
63	0xbbc94252	-0.006141939

bn1.running_mean f4 [64]
0	0xba837be3	-0.0010031428
1	0xbe4dfe74	-0.20116597
2	0xbb78006c	-0.0037842048
3	0x3e718a0f	0.23587821
4	0x3d3fc8cb	0.04682235
5	0x3e3c7dd4	0.18407375
6	0x3db0b46d	0.086281635
7	0x3d8e299f	0.06941532
8	0x3e0694be	0.13142678
9	0xbd1214c5	-0.03566434
10	0xbe092fc2	-0.13397124
11	0x3e079e97	0.13244091
12	0x3d450aa6	0.04810586
13	0x3e783349	0.24238314
14	0xbcafbf56	-0.02145354
15	0x3e394970	0.1809442
16	0xbe84f3b2	-0.25967175
17	0xbd4dd1b0	-0.0502488
18	0xbe3e8ff2	-0.18609598
19	0xbd0dc552	-0.034612007
20	0xbea2d8c3	-0.31806
21	0xbe9f8150	-0.31153345
22	0xbea2067e	-0.31645578
23	0x3e507d9a	0.20360413
24	0x3dfc5b36	0.123220846
25	0xbe433d51	-0.19066359
26	0xbe859689	-0.26091412
27	0x3dccff6a	0.10009654
28	0x3e92891a	0.28620225
29	0xbe424a03	-0.18973546
30	0xbe0f4698	-0.13991773
31	0xbe40ba6a	-0.18821111
32	0xbe58e55e	-0.21181247
33	0xbea2b27d	-0.317768
34	0x3e9d2cbc	0.30698192
35	0x3e7a3aa8	0.24436438
36	0x3e9857e6	0.2975456
37	0x3bb16dab	0.005414685
38	0x3e61d4aa	0.22053781
39	0x3d741890	0.059593737
40	0x3e4bd3f3	0.19905071
41	0x3e0d0bd7	0.13774048
42	0x3e74ecc5	0.23918445
43	0xbdc5c08a	-0.096558645
44	0xbdb8abb2	-0.09017123
45	0xbea336ec	-0.3187784
46	0xbdf5429a	-0.11975594
47	0xbea991f3	-0.33119163
48	0xbd9de482	-0.077096
49	0xbe9b9c9a	-0.30392915
50	0x3def5744	0.116865665
51	0xbd989f03	-0.07452204
52	0xbd599a45	-0.05312564
53	0x3dc508e6	0.09620838
54	0xbe9a8196	-0.3017699
55	0x3d10d77e	0.03536176
56	0xbea9d9dc	-0.33174026
57	0xbdad0d3b	-0.08449789
58	0x3e07672b	0.13222949
59	0x3e3635bc	0.17793936
60	0x3e07a3f3	0.13246135
61	0xbe838b26	-0.256921
62	0xbdc59160	-0.09646869
63	0x3d18cda7	0.0373055

bn1.running_var f4 [64]
0	0x3d88b21d	0.066745974
1	0x3c766ef5	0.015041103
2	0x3d521136	0.051285945
3	0x3d8dd1ef	0.06924807
4	0x3db39d5f	0.087702505
5	0x3d536863	0.051613223
6	0x3cf61193	0.030037677
7	0x3d836646	0.064159915
8	0x3d861dbf	0.06548642
9	0x3d935488	0.071938574
10	0x3dc33e8f	0.095334165
11	0x3d8bc21d	0.068241335
12	0x3db5b9e8	0.088733494
13	0x3d9c429c	0.07629892
14	0x3d3efa98	0.046625704
15	0x3d66cc3f	0.056347128
16	0x3da70cb6	0.08156721
17	0x3da6bd7b	0.08141609
18	0x3dcf5273	0.10123148
19	0x3d09f803	0.033683788
20	0x3d46fedd	0.0485829
21	0x3d4dc417	0.050235834
22	0x3d45aa62	0.048258193
23	0x3dba18ea	0.09086783
24	0x3d68b699	0.056814764
25	0x3d945fb3	0.07244816
26	0x3d31a838	0.043373317
27	0x3da7021e	0.08154701
28	0x3d9fba34	0.07799187
29	0x3d0bb586	0.03410866
30	0x3d40ee77	0.047102418
31	0x3d953f83	0.072875045
32	0x3dbbef06	0.091764495
33	0x3d94c914	0.07264915
34	0x3d7a3430	0.061084926
35	0x3dce27da	0.10066195
36	0x3da35f23	0.0797713
37	0x3cf05d99	0.029341506
38	0x3d706194	0.058686808
39	0x3d3b5332	0.045733638
40	0x3d4bbba2	0.049739487
41	0x3d9ddf90	0.07708657
42	0x3d4c5f12	0.049895354
43	0x3dc1599a	0.09440918
44	0x3d13c00b	0.03607182
45	0x3dbff11d	0.093721606
46	0x3d01ff31	0.03173751
47	0x3d89cf60	0.06729007
48	0x3d970a4b	0.0737501
49	0x3d797b11	0.06090838
50	0x3d3edc32	0.046596713
51	0x3d818473	0.06324091
52	0x3d334476	0.04376646
53	0x3dc6ff05	0.0971661
54	0x3d851d94	0.06499782
55	0x3d59df47	0.05319145
56	0x3d94366b	0.07236942
57	0x3d79b74b	0.060965817
58	0x3d0dbc0a	0.034603156
59	0x3d81a04c	0.06329402
60	0x3daa82e9	0.083257504
61	0x3d54139a	0.051776506
62	0x3d230dd4	0.03980811
63	0x3d9c3b1c	0.07628462

conv2.weight f4 [64, 64, 3, 3]
0	0x3c57f807	0.013181693
1	0xbce1ae9c	-0.02754908
2	0x3c996b77	0.018728001
3	0x3c56b3c5	0.013104384
4	0xbcdb56b6	-0.026774745
5	0xbbbcf0f6	-0.0057660295
6	0x397bba7a	0.00024006693
7	0xba12cf2c	-0.0005600329
8	0x3caa97a5	0.020824263
9	0xbc6230fd	-0.013805625
10	0xbc4ef419	-0.01263144
11	0x3c4d7e7a	0.012542361
12	0xbc8465c6	-0.01616181
13	0xbc25c8d8	-0.010118686
14	0xbd139fcd	-0.03604107
15	0xbcdffbee	-0.02734181
16	0x3c8295f1	0.015940638
17	0xbd0ff749	-0.03514794
18	0x3cd47006	0.025932323
19	0xbc7c1d9e	-0.015387921
20	0x3bd28e25	0.0064256364
21	0x3c4b8cbd	0.012423691
22	0xbc604ecb	-0.013690661
23	0xbc36d51e	-0.01115921
24	0xbbd7cdb8	-0.006585803
25	0x3d335de3	0.04379071
26	0x3cf3a07c	0.02973961
27	0xbcca37ed	-0.02468487
28	0x3d1e24be	0.03860926
29	0x3ccd1953	0.02503649
30	0x3c31c7b5	0.0108508365
31	0x3d0fa439	0.035068724
32	0x3d1d7690	0.038443148
33	0x3cafee14	0.02147583
34	0x3bb5a4cd	0.0055433274
35	0x3ab28c5e	0.0013622155
36	0xbc61d3a0	-0.0137833655
37	0xbb0364f2	-0.0020049182
38	0x3d39dfec	0.045379564
39	0xbd07faa1	-0.033198003
40	0x3b8a0a2b	0.004212638
41	0xbc2df77e	-0.010618089
42	0xbb98773c	-0.0046528857
43	0x3d1dd274	0.038530782
44	0x3c238dde	0.009982554
45	0xbcbfae1e	-0.023398455
46	0xbd0dfccf	-0.034664925
47	0x3b611bb9	0.00343488
48	0x3cf99ac4	0.030469306
49	0xbd1a3262	-0.037645705
50	0xbd07332d	-0.03300779
51	0xbd16a3d6	-0.03677734
52	0xbbf59363	-0.0074943765
53	0xbcc6a41a	-0.024248172
54	0x3cb009b0	0.021488994
55	0x3cf98741	0.030460002
56	0x3c74d3de	0.014943091
57	0xbc5810a3	-0.01318756
58	0xbd1b0de9	-0.037855063
59	0xbc82ab6f	-0.015950887
60	0x3c9d6794	0.019214429
61	0xbcedd77b	-0.029033413
62	0xbd15b86e	-0.03655284
63	0x3c609e95	0.013709684
64	0x3cde0913	0.027103936
65	0xbd1c301d	-0.038131822
66	0xbbdb3699	-0.006689858
67	0xbb52a7c5	-0.0032143455
68	0x3c095d24	0.008384023
69	0xbcb0db00	-0.021588802
70	0x3c969195	0.018379966
71	0x3c734e89	0.014850267
72	0xbcec7c8f	-0.028867988
73	0xbcda516c	-0.026650153
74	0x3d075008	0.033035308
75	0x3b79c4b7	0.0038111636
76	0x3d23ebf9	0.040019963
77	0xbd73a538	-0.059483737
78	0xbce57d90	-0.028013974
79	0xbb10af00	-0.0022076964
80	0xbc9f6526	-0.019457411
81	0xbcba151f	-0.02271515
82	0xbd33db29	-0.04391018
83	0xbcbadf67	-0.022811605
84	0xbd02b94f	-0.031915005
85	0xbcd46790	-0.025928289
86	0xbc21a6fe	-0.009866474
87	0x3d0ea2ef	0.034823354
88	0xbd221c67	-0.039577868
89	0xbcaa1764	-0.020763107
90	0xbcaecda2	-0.021338288
91	0xbd0a26ee	-0.033728532
92	0x3d15961d	0.036520112
93	0x3cd1766d	0.025569165
94	0xbd33ca07	-0.04389384
95	0x3ca2658a	0.019823808
96	0x3d02278b	0.031775992
97	0xbc924e18	-0.017859504
98	0x3cf933a6	0.030420136
99	0xbcb4d0fb	-0.022072306
100	0x3bf96392	0.0076107467
101	0xbc82c309	-0.01596214
102	0x3c752764	0.014963005
103	0x3d22bf5c	0.039733276
104	0xbca44e45	-0.020056853
105	0x3d10996b	0.03530256
106	0xbb8be2a5	-0.0042689615
107	0xbc4c696c	-0.012476306
108	0xbba539a4	-0.0050422717
109	0x3bb2f53c	0.005461363
110	0xbc468895	-0.012117525
111	0x3b815b54	0.0039476547
112	0x3bbaadaf	0.005696974
113	0xbbf97bf7	-0.0076136547
114	0x3c90a828	0.017658308
115	0xbd021ad7	-0.031763878
116	0xbd01b772	-0.031669088
117	0xbcd37ad3	-0.025815403
118	0xbd0dbdb1	-0.034604732
119	0xbb703be6	-0.0036656796
120	0xbc412620	-0.011788875
121	0xbce3d294	-0.027810372
122	0xbd49b10b	-0.049241107
123	0xbc2a5aae	-0.010397596
124	0x3cfa9977	0.030590756
125	0x3c2d720a	0.010586271
126	0xbd798b62	-0.06092394
127	0xbbe6e40f	-0.0070462297
128	0xbb28ab65	-0.0025736925
129	0xbcab5e8f	-0.020919112
130	0x3d2c3278	0.04204032
131	0xbcc9bb71	-0.024625512
132	0xbc54eb2f	-0.012995525
133	0xbccba13c	-0.024857156
134	0x3cbde1dd	0.023178989
135	0x3cfef054	0.031120457
136	0xbc863d33	-0.016386604
137	0xbca26059	-0.019821333
138	0xbb5ddab6	-0.0033852286
139	0xbd34f94e	-0.044183068
140	0x3c0c51ff	0.008564471
141	0x3c9873e3	0.018609947
142	0x3d16258b	0.036656898
143	0x3bc6f4c9	0.006071661
144	0x3cfbc38f	0.030732898
145	0x3d282812	0.04105384
146	0x3c87e4bb	0.01658856
147	0xbd073080	-0.033005238
148	0x3a9b2d6d	0.00118391
149	0xbcd85041	-0.026405456
150	0x3cc52ed9	0.02407019
151	0xbcf5d318	-0.030007884
152	0xbc2ae44c	-0.010430407
153	0xbc0d686f	-0.008630856
154	0x3d30d76b	0.04317419
155	0x3d587480	0.052845478
156	0xbc4c6e79	-0.012477511
157	0xbc6406e1	-0.013917656
158	0xbb74900b	-0.0037317302
159	0xbce62c94	-0.028097428
160	0x3bfd781d	0.007735266
161	0x3ca06e34	0.019583799
162	0xbcc7aee1	-0.024375381
163	0x3d268716	0.04065617
164	0x3d25f0d3	0.04051287
165	0x3d08e207	0.03341868
166	0xbd2cdca5	-0.04220261
167	0x3d5b4507	0.053532626
168	0x3d05dcba	0.032681204
169	0xbd2c5960	-0.042077422
170	0x3d28ae97	0.041182127
171	0x3d1e37a5	0.038627286
172	0xbb853597	-0.0040652263
173	0x3cfc1938	0.030773744
174	0x3b9f3ecd	0.0048597814
175	0xbd3db6d1	-0.046316925
176	0xbc3ce7c7	-0.011529869
177	0xbba9deb6	-0.00518402
178	0x3d16a6cb	0.03678016
179	0xbce279b7	-0.027645929
180	0x3d0ecb7c	0.034862027
181	0xbbe85f81	-0.007091463
182	0x3cc75bd9	0.024335789
183	0xbcbf5ea5	-0.02336056
184	0x3c9bfbdf	0.019041
185	0xbc33428d	-0.01094116
186	0x3d02d9b6	0.031945907
187	0x3c7ca84d	0.015420985
188	0x3d425bcf	0.047450837
189	0x3be996d4	0.007128576
190	0xba2d14fb	-0.00066025526
191	0xbc8e218e	-0.017349984
192	0xbbc8fd70	-0.0061337277
193	0xbbc3a9a6	-0.0059711514
194	0x3c998545	0.018740306
195	0xbc45dde4	-0.012076829
196	0xbd3dec81	-0.046368126
197	0x3a99e29b	0.0011740507
198	0xbb3b3738	-0.0028566848
199	0x3a7e50ce	0.0009701372
200	0x3d04b83b	0.03240226
201	0xbb4623b5	-0.0030233685
202	0xbc086d52	-0.008326845
203	0xbd323421	-0.043506745
204	0xbc734a44	-0.014849249
205	0x3d07ef09	0.033186946
206	0xbd0d0973	-0.03443284
207	0x3d0a9f77	0.033843484
208	0xbc729d68	-0.014808036
209	0xbd4685ca	-0.048467435
210	0x3b98a8fb	0.004658816
211	0xbc76cc2c	-0.015063327
212	0x3cf22188	0.029557005
213	0xbcac7932	-0.021053884
214	0xbc4285ff	-0.0118727675
215	0xbb7ccc6f	-0.0038574
216	0x3c834250	0.016022831
217	0x3c653264	0.013989065
218	0x3cfe3381	0.031030418
219	0x3a8ce898	0.0010750471
220	0xbcfab68d	-0.030604625
221	0xbceb3c99	-0.028715419
222	0xbcd29cfe	-0.025709625
223	0x3c2b3ed2	0.010451989
224	0xbc48fcbc	-0.012267288
225	0x3caf3cd6	0.021391314
226	0x3cec0687	0.028811706
227	0x3c2d3f32	0.010574149
228	0xbd205432	-0.039142795
229	0x3d077d03	0.033078205
230	0x3cd7ff05	0.02636672
231	0xbc9f8d71	-0.019476624
232	0x3cc9bf9e	0.024627503
233	0x3cfb6c9e	0.030691441
234	0xba9a1d4b	-0.0011757998
235	0xbd35e894	-0.044411257
236	0xbbc59d45	-0.006030711
237	0x3cfc6960	0.030811965
238	0xbd0c3d43	-0.03423811
239	0x3c6e98b3	0.0145627735
240	0x3c274cb1	0.010211156
241	0x3ad07ef8	0.001590698
242	0xbd0eaca6	-0.03483262
243	0x3aea14fe	0.0017859039
244	0xbc8678ad	-0.016414965
245	0x3c88a0d1	0.016678246
246	0xbb934b67	-0.0044950726
247	0xbc01d556	-0.007924398
248	0xbc2a209e	-0.010383753
249	0x3befff50	0.007324137
250	0x3d248cd7	0.040173378
251	0x3c470fa8	0.012149729
252	0xbd0e6828	-0.0347673
253	0x3cc9da2d	0.024640167
254	0xbd2cc64a	-0.04218129
255	0x3d03b4ef	0.032154974

conv2.bias f4 [64]
0	0xbc5e9474	-0.013585199
1	0x3d006ef1	0.031355802
2	0x3cdcbb91	0.026944907
3	0xbb1ac1d3	-0.0023614063
4	0x3ce64dc9	0.028113263
5	0x3c4e730f	0.012600674
6	0x3d239ee6	0.03994646
7	0xbc6f4556	-0.014603933
8	0xbbceab29	-0.006307025
9	0x3d2ebcdb	0.042660575
10	0x3a8693b1	0.0010267404
11	0x3d0262c5	0.031832475
12	0xbb4d246a	-0.0031302222
13	0xbb92cdb6	-0.004480089
14	0x3c8882bf	0.016663907
15	0x3d0eaec2	0.03483463
16	0x3c23d8bc	0.010000404
17	0x3d21ce8e	0.039503627
18	0xbba600f7	-0.005066033
19	0xbd04441f	-0.032291528
20	0xbccd1793	-0.025035655
21	0x3c6c1d79	0.014411324
22	0xbb633235	-0.0034667377
23	0x3bab7d0b	0.005233412
24	0x3c0f7423	0.0087557165
25	0x3c280fa9	0.01025764
26	0xbd1404df	-0.036137458
27	0xbcd0372b	-0.025416931
28	0x3d1d347d	0.038380135
29	0x3c208016	0.009796163
30	0x3d13da8c	0.036097094
31	0xbc83184d	-0.016002798
32	0x3b070620	0.0020603016
33	0x3b6b0f78	0.0035867374
34	0xbd119555	-0.035542805
35	0xbd2aa6f5	-0.04166313
36	0x3cbbab46	0.022908818
37	0xbcb09984	-0.021557577
38	0x3baf187a	0.005343494
39	0xba887755	-0.001041154
40	0x3b64dc4a	0.0034921342
41	0x3d05c287	0.03265622
42	0x3cb78e44	0.022406705
43	0xbd2015fc	-0.039083466
44	0x3aed32cd	0.0018096805
45	0xbcfb2976	-0.030659419
46	0x3d090785	0.033454437
47	0x3b844cc8	0.0040374734
48	0x3d188fd8	0.037246555
49	0x3c996b41	0.0187279
50	0x3b2f9ad4	0.0026795166
51	0x3c148ac9	0.009066292
52	0xbb94fa42	-0.0045464346
53	0x3d0a2ba2	0.033733018
54	0xbcaae466	-0.020860862
55	0xbc772d93	-0.015086549
56	0xbd0326b0	-0.032019317
57	0xb906d7ae	-0.00012859583
58	0xbc226537	-0.009911827
59	0x3d090317	0.033450212
60	0xbcaf4d5e	-0.021399196
61	0x3c918074	0.017761447
62	0xbaab1afb	-0.0013054305
63	0xbc853794	-0.016261853

bn2.weight f4 [64]
0	0x3f7cab86	0.98699224
1	0x3f7e0ad6	0.99235284
2	0x3f7f34c0	0.99689865
3	0x3f80f60d	1.0075089
4	0x3f825b00	1.0184021
5	0x3f803e98	1.0019102
6	0x3f7dd574	0.9915383
7	0x3f80cbea	1.006223
8	0x3f7e9067	0.9943909
9	0x3f7ff6ea	0.99986136
10	0x3f808691	1.0041066
11	0x3f80a5f5	1.0050646
12	0x3f7eb32c	0.99492145
13	0x3f80250d	1.0011307
14	0x3f7d9752	0.9905902
15	0x3f811e49	1.0087367
16	0x3f800c02	1.0003664
17	0x3f7bb221	0.9831868
18	0x3f8094bd	1.0045391
19	0x3f7da18a	0.99074614
20	0x3f80c264	1.0059323
21	0x3f81140d	1.0084244
22	0x3f7bbfef	0.9833974
23	0x3f7e874e	0.9942521
24	0x3f7fbf94	0.999017
25	0x3f79f95e	0.9764613
26	0x3f80c269	1.0059329
27	0x3f7dd6fd	0.9915617
28	0x3f807010	1.0034199
29	0x3f818076	1.0117328
30	0x3f814668	1.0099611
31	0x3f81e8da	1.0149186
32	0x3f7d6510	0.98982334
33	0x3f7ef0f6	0.9958643
34	0x3f816085	1.010758
35	0x3f7dade9	0.9909349
36	0x3f80a285	1.0049597
37	0x3f7fb5c5	0.99886733
38	0x3f803cde	1.0018575
39	0x3f7f470e	0.99717796
40	0x3f7e842a	0.99420416
41	0x3f8280aa	1.0195515
42	0x3f81078c	1.0080428
43	0x3f7e3f63	0.9931547
44	0x3f8090ff	1.0044249
45	0x3f7fb638	0.9988742
46	0x3f80e4f2	1.0069869
47	0x3f7fe61d	0.999605
48	0x3f81546c	1.0103889
49	0x3f80be45	1.0058066
50	0x3f7eeba4	0.9957831
51	0x3f7e342e	0.9929837
52	0x3f806395	1.003039
53	0x3f7fbe7f	0.9990005
54	0x3f8047d2	1.0021918
55	0x3f80a7f1	1.0051252
56	0x3f7eac9c	0.9948213
57	0x3f7e278c	0.99279094
58	0x3f80d818	1.0065947
59	0x3f7baa94	0.98307157
60	0x3f7fead4	0.99967694
61	0x3f8079c3	1.0037159
62	0x3f801637	1.000678
63	0x3f80ae2e	1.0053155

bn2.bias f4 [64]
0	0xbc28b41e	-0.0102968495
1	0xbbe33523	-0.0069338246
2	0xbbba84e5	-0.005692112
3	0xbc286734	-0.010278512
4	0x3b4bec33	0.0031116128
5	0xbb72c796	-0.0037045232
6	0xbb4798c4	-0.0030456046
7	0xbb188064	-0.0023269886
8	0xbbc74194	-0.0060808156
9	0x39604617	0.00021388415
10	0x3c21f140	0.009884179
11	0x3c21cd35	0.009875585
12	0xbbbbe3c5	-0.0057339394
13	0x3bdf4bc1	0.0068144505
14	0x3b27ce00	0.0025604963
15	0x3c9835e5	0.018580386
16	0x3a346080	0.00068808347
17	0xbae00ee7	-0.0017094285
18	0x3b0f11f6	0.0021830774
19	0xbc21a112	-0.009865062
20	0x3c40ce82	0.011767985
21	0x3bc40df5	0.005983109
22	0x3ba07512	0.0048967684
23	0xbc0b09b1	-0.008486197
24	0xbc26602c	-0.010154765
25	0x3af16679	0.001841738
26	0x3b456eaf	0.0030125787
27	0xbbc1c607	-0.0059134993
28	0x3bd24601	0.0064170365
29	0x3c897d2a	0.016783316
30	0x3c1325cf	0.008981182
31	0x3b558c0b	0.0032584693
32	0xba980156	-0.0011597078
33	0x3c6da65a	0.014504993
34	0x3c29a32c	0.010353845
35	0xbb9ef02d	-0.0048504085
36	0x3a7c75dc	0.00096305995
37	0x3c6a39bc	0.0142959915
38	0x3bba04b2	0.0056768293
39	0x39c97136	0.00038422056
40	0x3bcad5f2	0.006190055
41	0x3bba4998	0.0056850426
42	0xbba6184c	-0.0050688144
43	0x3c354aee	0.011065228
44	0x3b20d725	0.0024542299
45	0x3bf94965	0.0076076263
46	0x3c9f3f7f	0.019439457
47	0x3aa78d6c	0.0012783236
48	0x3baee901	0.005337835
49	0x3bbf2caa	0.005834182
50	0xba58709e	-0.00082565274
51	0xbbb70246	-0.005584988
52	0x3c775ffd	0.015098569
53	0xbc92371e	-0.017848548
54	0x3c0a4048	0.008438177
55	0x3bba55d6	0.005686502
56	0x3bee95aa	0.007281025
57	0xbc2ed5b7	-0.010671071
58	0x3ca9c42e	0.020723429
59	0xbc19df95	-0.009391685
60	0xbc429134	-0.011875439
61	0x3c4f6f34	0.01266079
62	0x3cc306f1	0.02380702
63	0xbbecc08d	-0.0072251023

bn2.running_mean f4 [64]
0	0x3e395dbd	0.18102165
1	0xbe442207	-0.19153605
2	0xbf433c0a	-0.7626349
3	0x3e96a566	0.29423064
4	0x3e94fa4e	0.29097217
5	0xbd5ebe08	-0.054380447
6	0x3e9af99c	0.30268562
7	0x3eda8272	0.42677647
8	0xbedbe7e9	-0.4295037
9	0xbd53aa5e	-0.051676147
10	0x3d21963e	0.039449923
11	0xbe8edae4	-0.27901375
12	0xbe515420	-0.20442247
13	0x3ee386bb	0.4443873
14	0xbe19a61e	-0.15004775
15	0x3f370f23	0.7150747
16	0xbf2a25aa	-0.6646372
17	0xbd1dd8c0	-0.038536787
18	0xbeb0c9f4	-0.34529078
19	0xbe144448	-0.14479172
20	0x3f4762eb	0.7788531
21	0xbed08cef	-0.40732524
22	0xbed5b289	-0.41737774
23	0x3ee1cb28	0.44100308
24	0x3e023b74	0.12717992
25	0x3ead7ae6	0.33882827
26	0xbe8bb0d1	-0.27283338
27	0xbe3924eb	-0.1808049
28	0x3ee2038f	0.4414334
29	0xbf58b4d4	-0.8465092
30	0x3dfeafcf	0.124358766
31	0xbde4c518	-0.11170405
32	0xbf18909e	-0.5959567
33	0x3ec45c68	0.3835175
34	0x3cb4bfb6	0.022064071
35	0xbf14b500	-0.58088684
36	0xbf925c6e	-1.1434457
37	0xbebaf672	-0.36516148
38	0x3f7ed999	0.9955078
39	0xbed2a774	-0.41143382
40	0xbe801d41	-0.2502232
41	0xbf4c182d	-0.7972439
42	0x3effbecf	0.49950263
43	0x3eef2b9d	0.46712962
44	0xbf63d0da	-0.8899056
45	0xbe87224a	-0.26393348
46	0x3e80f561	0.2518721
47	0x3f1383e3	0.5762312
48	0x3e2eb5a0	0.17061472
49	0xbed1efd5	-0.4100329
50	0xbd9b557f	-0.075846665
51	0xbec6a278	-0.3879583
52	0xbf28a54c	-0.65877223
53	0xbf3f6a21	-0.74771315
54	0xbd3d13da	-0.04616151
55	0xbe1be41d	-0.15223737
56	0x3f536984	0.8258288
57	0x3e27656a	0.1634728
58	0x3ef33fdb	0.47509655
59	0xbedb7ef4	-0.42870295
60	0x3eb646b3	0.35600814
61	0x3d2da7be	0.0423963
62	0x3f75c283	0.95999926
63	0xbf32cb61	-0.6984158

bn2.running_var f4 [64]
0	0x3ec9e59f	0.39433
1	0x3ea7d83e	0.32782167
2	0x3f51ada2	0.8190557
3	0x3eb863cb	0.36013636
4	0x3ee4b5b7	0.44669887
5	0x3ea0d4a6	0.31412238
6	0x3f06f209	0.52713066
7	0x3ed78f9f	0.42101762
8	0x3f13283f	0.57483286
9	0x3ec1b9aa	0.37836963
10	0x3eb462f3	0.35231742
11	0x3ecd5284	0.40102017
12	0x3ecc4c4d	0.39901963
13	0x3f07a5bc	0.52987266
14	0x3ec6decb	0.38841853
15	0x3f105a54	0.5638783
16	0x3f41cc55	0.7570241
17	0x3f071ab1	0.527751
18	0x3ecbaf18	0.39782023
19	0x3ecd8cb4	0.4014641
20	0x3f80755e	1.0035818
21	0x3f1029bb	0.56313676
22	0x3f1d392b	0.61415356
23	0x3f03e80f	0.5152597
24	0x3eb7173b	0.3575991
25	0x3ee2915d	0.44251528
26	0x3ec2205b	0.3791531
27	0x3edc5b71	0.43038514
28	0x3ef3daea	0.47627956
29	0x3f96c8fd	1.1780087
30	0x3ec39436	0.38199013
31	0x3e8c23aa	0.2737096
32	0x3f44ec8a	0.7692343
33	0x3ecdb0ea	0.40174037
34	0x3e87159b	0.2638367
35	0x3f20f459	0.62872845
36	0x3fae42b3	1.3614105
37	0x3ef92a36	0.48665017
38	0x3f85e21d	1.0459629
39	0x3f138e1d	0.5763872
40	0x3ee28c4a	0.44247657
41	0x3f5c08d6	0.8595098
42	0x3f459464	0.7717955
43	0x3f127962	0.57216465
44	0x3f87a2a4	1.0596509
45	0x3f09d2a5	0.53837043
46	0x3ebc8ba9	0.36825302
47	0x3f23d970	0.6400366
48	0x3e938021	0.28808692
49	0x3eea2f42	0.4573918
50	0x3f2b2152	0.6684772
51	0x3f2be74d	0.6714981
52	0x3f3f0194	0.74611783
53	0x3f63dc9a	0.89008486
54	0x3ec83da0	0.39109516
55	0x3ed8920c	0.42298925
56	0x3f7582a7	0.95902485
57	0x3ec952f9	0.39321116
58	0x3f03757f	0.5135116
59	0x3f2ca5ac	0.67440295
60	0x3edc06b7	0.42973873
61	0x3edd9148	0.43274903
62	0x3f86ca43	1.0530475
63	0x3f3ae66a	0.73007834

conv3.weight f4 [64, 64, 3, 3]
0	0x3cf6ec67	0.030142022
1	0xbced2dde	-0.028952535
2	0xbaba08f6	-0.0014193344
3	0xbbdcd466	-0.006739187
4	0x3c6ee088	0.0145799
5	0xbac5109f	-0.0015034861
6	0x3cdaf738	0.026729211
7	0x3c97a33d	0.018510455
8	0x3c52e716	0.012872478
9	0xbce94741	-0.02847636
10	0x3b590dae	0.0033119726
11	0x3d29f533	0.041493606
12	0x3c32d49a	0.010914946
13	0xbd1d321a	-0.03837786
14	0x3cc6cb60	0.024266899
15	0x3cc41a20	0.023938239
16	0x3d5d71e8	0.054063708
17	0xbcc6ab3e	-0.024251577
18	0x3cf506cb	0.029910466
19	0xbc0e4c6e	-0.008685214
20	0xbcb45c6e	-0.02201673
21	0xbc99bd4c	-0.018767022
22	0xbbe772aa	-0.0070632296
23	0xbc4e1c67	-0.012580014
24	0xbabf258b	-0.0014583332
25	0x3c865d6a	0.016401965
26	0xbc6b3806	-0.014356619
27	0x3d17d4cb	0.03706817
28	0xbcfac416	-0.03061108
29	0xbca832a8	-0.020531967
30	0x3c874cdd	0.016516143
31	0x3a96669a	0.001147467
32	0x3d07d201	0.03315926
33	0x3be07e35	0.0068509826
34	0x3b492bbd	0.0030696236
35	0x3c8787fe	0.016544338
36	0x3cdd037c	0.0269792
37	0xbd4115db	-0.047139984
38	0xbd323ad7	-0.043513145
39	0xba83fc8a	-0.0010069769
40	0xbb04bf68	-0.0020255689
41	0x3d0e100f	0.034683283
42	0xbcf3254f	-0.029680876
43	0xbb0dbc2b	-0.002162705
44	0xbbb8676e	-0.005627564
45	0xbcedadf8	-0.029013619
46	0x3bd7e06a	0.0065880315
47	0xbc51bf66	-0.012801981
48	0x3c0efaf1	0.008726821
49	0x3d036e7e	0.032087795
50	0xbba1aa3b	-0.004933623
51	0x3c30bca9	0.010787168
52	0xbca0ea11	-0.019642862
53	0xbd2ba475	-0.041904885
54	0xbc760dff	-0.015017985
55	0xbadd668b	-0.0016891522
56	0xba34b96c	-0.0006894085
57	0x3d26958d	0.040669966
58	0xbcfb522b	-0.03067883
59	0xbcb4ae21	-0.022055687
60	0x3d1ff87b	0.03905533
61	0x3d3f4049	0.046692166
62	0x3d0c163b	0.034200888
63	0x3d231278	0.039812535
64	0xbcdcaadd	-0.026936943
65	0x3cf15de8	0.029463723
66	0x3d5d190d	0.05397897
67	0x3c124b61	0.008929105
68	0x3ccc4d5a	0.024939228
69	0x3c2dd271	0.010609255
70	0xbd160044	-0.036621347
71	0x3aa5814c	0.0012627034
72	0xbca3b79e	-0.019985016
73	0x3d1dc11e	0.03851425
74	0x3d451a0c	0.048120543
75	0x3cf0f628	0.029414251
76	0xbafaefab	-0.0019144913
77	0xbca9dd94	-0.02073554
78	0xbca572f2	-0.020196412
79	0xbb781a0b	-0.003785732
80	0x3bf7e6a9	0.0075653386
81	0xbc7f1727	-0.015569485
82	0x3bf2cd15	0.0074097016
83	0xbd2703f5	-0.040775258
84	0xbb1fa4b2	-0.002435964
85	0xbd3143a7	-0.04327741
86	0x3c8ee99d	0.01744538
87	0xbd26f76b	-0.0407633
88	0xbc9049c0	-0.017613292
89	0x3cbffea4	0.023436852
90	0x39f496d2	0.00046651677
91	0xbd181d9b	-0.03713761
92	0xbccc2462	-0.024919692
93	0xbd244d28	-0.040112644
94	0xbc9a1157	-0.018807096
95	0xbd0ff134	-0.03514214
96	0xbcf0d77d	-0.029399628
97	0x3c8908fb	0.016727915
98	0xbcb756eb	-0.022380313
99	0xbd3e4fc0	-0.046462774
100	0xbcec80d7	-0.02887003
101	0x3bbdc17f	0.005790889
102	0x3b557289	0.003256949
103	0x3ce0f8c6	0.027462374
104	0x3c410f8a	0.01178349
105	0x3c358596	0.011079213
106	0xbc08c1c7	-0.008346981
107	0xbcaf1860	-0.021373928
108	0xbc3f1239	-0.011662059
109	0xbd648890	-0.0557943
110	0xbd14834d	-0.03625803
111	0x3ae6e597	0.001761603
112	0xbc3f374e	-0.0116709005
113	0xbd21ed22	-0.039532788
114	0x3cea5989	0.028607147
115	0xbcd3381b	-0.02578359
116	0x3d5af6cc	0.05345802
117	0xbc4dfbc6	-0.0125722345
118	0x3c9520b7	0.018204076
119	0xba737d2a	-0.0009288365
120	0x3cb4662a	0.022021372
121	0x3cbd7b23	0.023130005
122	0xbcb9acea	-0.02266546
123	0x3d09f57f	0.03368139
124	0x3c757f4a	0.014983961
125	0xbccc1ab7	-0.024915082
126	0xbd3f0504	-0.046635643
127	0x3c6505f8	0.013978474
128	0xbb40012a	-0.0029297569
129	0x3d4c81ad	0.049928356
130	0x3bebfb12	0.007201561
131	0xbc41a86d	-0.011819941
132	0xbc9501a6	-0.018189263
133	0xbcb49985	-0.02204586
134	0xbc22401e	-0.009902982
135	0xbcf139e2	-0.029446546
136	0x3b6062c9	0.0034238568
137	0x3cdeedfe	0.027213093
138	0x3cfcf573	0.030878758
139	0x3d06b18a	0.03288416
140	0xbc558e04	-0.013034347
141	0xbd0e0f68	-0.03468266
142	0x3bbbee49	0.005735193
143	0x3c0f6866	0.008752918
144	0xbcf75bc3	-0.030195123
145	0x3cf6227b	0.030045738
146	0x3cb40997	0.021977229
147	0xbd29cf09	-0.04145721
148	0xbca6fc64	-0.020384021
149	0xbbaf77bb	-0.005354849
150	0x3d3620ef	0.044465
151	0x3d0ea563	0.034825694
152	0xbd2ff7a9	-0.042960797
153	0x3c83bddf	0.016081749
154	0x3c84ef22	0.016227309
155	0xbcdcf6ec	-0.02697321
156	0xbd0cbfd7	-0.03436264
157	0x3ceb5811	0.028728517
158	0x3c0d5da7	0.0086282855
159	0x3b2fcd88	0.0026825387
160	0xbc84b0ce	-0.016197588
161	0xbc644643	-0.013932767
162	0x3d0eea1e	0.03489124
163	0x3ca8d9e9	0.02061172
164	0x3c254c22	0.010088952
165	0xbce0bfcc	-0.027435206
166	0xbd21a458	-0.03946337
167	0x3b8646b8	0.004097786
168	0x3abe1cc9	0.0014504428
169	0xbc9f8561	-0.01947278
170	0x3d0c3f20	0.03423989
171	0x3b870a40	0.004121095
172	0xbcb82139	-0.02247678
173	0xbd11b605	-0.035573978
174	0x3d08ee52	0.033430405
175	0xbc0d9ef4	-0.008643854
176	0x3d48ece2	0.049054034
177	0x3a886dc5	0.001040869
178	0xbc85b972	-0.016323779
179	0xbd3a3caf	-0.04546803
180	0xbcaa85af	-0.020815698
181	0xbd1f0614	-0.038824156
182	0x3cc1956d	0.023630822
183	0xbd1f903c	-0.038955912
184	0xbccf07e2	-0.025272314
185	0x3c95fcdf	0.018309055
186	0xbc800a6b	-0.015629968
187	0xbb861f86	-0.0040931134
188	0xbca7d5c7	-0.02048768
189	0x3d1b30c7	0.037888315
190	0x3d01b8f6	0.031670533
191	0xbcd10260	-0.025513828
192	0x3d5f1e43	0.05447222
193	0xbba3011d	-0.004974498
194	0xbba9bd4a	-0.0051800357
195	0xbc37fea2	-0.011230143
196	0xbb64b841	-0.0034899863
197	0xbd0de765	-0.034644503
198	0x3d31b8fa	0.043389298
199	0xbce54e5c	-0.027991466
200	0x3c1feb16	0.009760639
201	0xbbd02a82	-0.0063527236
202	0xbc49db51	-0.0123203555
203	0x3d2c1d68	0.04202023
204	0x3d02fc95	0.031979162
205	0xbd2f5559	-0.042806003
206	0x3b61ef79	0.0034475012
207	0x3c0a51f5	0.008442392
208	0xbcc0b4ec	-0.02352377
209	0x3ca11465	0.019663045
210	0xbd103c24	-0.035213605
211	0x3d067cf2	0.032834
212	0x3c530d32	0.012881564
213	0xbc7f303b	-0.015575464
214	0xbd0e949c	-0.034809694
215	0xbc4c7ccb	-0.012480925
216	0x3d129470	0.035786092
217	0x3d050cad	0.03248279
218	0xbc31fd99	-0.010863685
219	0x3d06b6fc	0.03288935
220	0xbb7e78ab	-0.0038829248
221	0xbd2212a1	-0.039568547
222	0xbc9e6058	-0.01933305
223	0xbba572ca	-0.0050490843
224	0xbc7c8aa7	-0.015413917
225	0x3bac2fca	0.0052547203
226	0x3b8d1027	0.004304904
227	0x3c70a625	0.014688049
228	0xbc7cc24f	-0.015427186
229	0xbc5db001	-0.013530732
230	0x3c911a61	0.017712774
231	0x3c49b72e	0.01231174
232	0x39f63e6a	0.00046967278
233	0xbb8934cd	-0.0041872025
234	0x3c54e191	0.012993232
235	0x3c0ad087	0.008472568
236	0x3bb47b5c	0.0055078696
237	0xbc9978f8	-0.01873444
238	0xbd14a0e4	-0.03628625
239	0xbc1776f6	-0.009244671
240	0x3c95cd39	0.018286334
241	0xbca9a76d	-0.020709718
242	0xbcc8f625	-0.024531433
243	0x3c23cb60	0.009997219
244	0x3b0830df	0.0020781083
245	0x3d13f488	0.036121875
246	0x3ca5d948	0.02024521
247	0x3c95354b	0.018213889
248	0x3cad9e17	0.021193547
249	0xbd04f731	-0.032462303
250	0xbcaee54f	-0.021349577
251	0x3c72901d	0.014804867
252	0x3c80273a	0.015643705
253	0xbd3f7900	-0.046746254
254	0x3d00a202	0.031404503
255	0xbd33cd84	-0.043897167

conv3.bias f4 [64]
0	0xbd028bee	-0.03187173
1	0x3ce98a0e	0.028508212
2	0x3d07572d	0.03304212
3	0xbc6bd6e8	-0.014394499
4	0x3cc6b554	0.024256386
5	0x3bf0fb29	0.0073541594
6	0x3bd1e27a	0.006405172
7	0x3c066682	0.008203151
8	0x3bd38245	0.0064547383
9	0xbceffb40	-0.02929461
10	0xbbc38cba	-0.0059677036
11	0x3d13c751	0.036078755
12	0x3c6be840	0.014398634
13	0xba597d37	-0.00082965515
14	0xbd00d3c5	-0.03145196
15	0xbc8a6afd	-0.01689672
16	0x3cf5cd10	0.030005008
17	0xbc6d132b	-0.014469902
18	0x3d1ce88f	0.038307723
19	0x3cbce0f6	0.023056488
20	0x3cfa3337	0.030542
21	0x3bb7f60c	0.005614048
22	0x3c0da1d0	0.008644536
23	0xbcb8ca49	-0.022557395
24	0x3cd8d9e5	0.026471088
25	0xbc08ac83	-0.008341911
26	0xbcd6cbee	-0.026220288
27	0x3ceab59c	0.028651051
28	0x3d2bedd7	0.04197487
29	0x3b399124	0.002831527
30	0x3b361bd7	0.002778759
31	0x3cde55ff	0.027140616
32	0xbbc1be10	-0.00591255
33	0xbc635ea3	-0.013877544
34	0x39e357f8	0.00043362356
35	0xbc8bd8f0	-0.017071217
36	0x3cdf84d6	0.02728502
37	0xbd24a67e	-0.04019784
38	0x3b004216	0.001957064
39	0x3d0b98f2	0.034081407
40	0xbc3248fa	-0.010881657
41	0xbd000a99	-0.031260107
42	0x3c99ad1c	0.018759303
43	0xbd170d6e	-0.036878042
44	0x3d1f64ec	0.038914606
45	0x3d1091d0	0.035295308
46	0x3d14eba8	0.03635755
47	0x3c9f1f9d	0.019424254
48	0xbcdd9485	-0.027048359
49	0xbc15ffba	-0.009155208
50	0xbc81d10a	-0.015846748
51	0xbd0dd8e9	-0.03463069
52	0xbcadb2b7	-0.021203382
53	0x3cd319b3	0.02576909
54	0xbc76ffef	-0.015075668
55	0xbcbac871	-0.022800656
56	0x3d1ae8da	0.03781972
57	0xbc2272de	-0.009915082
58	0x3d25d228	0.040483624
59	0xbcc47e8c	-0.023986124
60	0xbd20d167	-0.0392622
61	0xbb447190	-0.0029974915
62	0xbcaec01b	-0.021331837
63	0x36602e40	3.3405522e-06

bn3.weight f4 [64]
0	0x3f7db8f1	0.99110323
1	0x3f83c0ec	1.029325
2	0x3f8056a7	1.0026444
3	0x3f820f41	1.0160905
4	0x3f7dfee5	0.99217063
5	0x3f7fe558	0.99959326
6	0x3f80d98a	1.0066388
7	0x3f7ebddf	0.9950847
8	0x3f809179	1.0044395
9	0x3f7fdef5	0.9994958
10	0x3f802146	1.0010154
11	0x3f81c73c	1.0138927
12	0x3f7ec494	0.99518704
13	0x3f79518d	0.9739006
14	0x3f7e73f1	0.9939566
15	0x3f7f2a0a	0.9967352
16	0x3f8002d2	1.0000861
17	0x3f7dc630	0.99130535
18	0x3f7e4981	0.9933091
19	0x3f8018d3	1.0007576
20	0x3f827bd8	1.0194044
21	0x3f81855d	1.0118824
22	0x3f81015a	1.0078537
23	0x3f7db4fc	0.99104285
24	0x3f81f844	1.015389
25	0x3f7d4e03	0.9894716
26	0x3f7e0f4e	0.99242103
27	0x3f8074de	1.0035665
28	0x3f8191d0	1.0122623
29	0x3f80ef85	1.0073096
30	0x3f810476	1.0079486
31	0x3f80a53f	1.0050429
32	0x3f7d586b	0.9896304
33	0x3f7d3c8a	0.989205
34	0x3f81c6eb	1.013883
35	0x3f80495d	1.0022389
36	0x3f7ec729	0.99522644
37	0x3f7aae42	0.97922146
38	0x3f823a70	1.0174084
39	0x3f84482b	1.0334524
40	0x3f7f595f	0.99745744
41	0x3f81c06e	1.013685
42	0x3f7cb906	0.98719823
43	0x3f791845	0.9730266
44	0x3f7ff308	0.9998021
45	0x3f819e33	1.0126404
46	0x3f80ecbf	1.0072249
47	0x3f7de6ab	0.99180096
48	0x3f811b38	1.0086432
49	0x3f811430	1.0084286
50	0x3f7c75b0	0.98617077
51	0x3f7d9713	0.99058646
52	0x3f82562f	1.0182551
53	0x3f820b0b	1.015962
54	0x3f7b7c64	0.9823668
55	0x3f81e879	1.014907
56	0x3f800361	1.0001031
57	0x3f7dc2fe	0.9912566
58	0x3f8249de	1.0178792
59	0x3f802a62	1.0012934
60	0x3f80466b	1.002149
61	0x3f80a36d	1.0049874
62	0x3f80c974	1.0061479
63	0x3f7d8081	0.99024206

bn3.bias f4 [64]
0	0xbc2c3c52	-0.010512428
1	0x3cd29cc9	0.025709527
2	0x3c0436ca	0.008069703
3	0xb9f48ace	-0.00046642724
4	0x3bec27eb	0.007206907
5	0x3c9e048f	0.019289283
6	0xbbcfa071	-0.006336265
7	0x3c86288f	0.016376762
8	0x3bd6d8a3	0.006556587
9	0x3cd2732e	0.025689688
10	0x3c22a541	0.009927095
11	0x3c544fba	0.012958461
12	0x3c1e705c	0.009670343
13	0xbd169b9c	-0.036769494
14	0xbc007c86	-0.007842189
15	0x3c0b61dd	0.008507219
16	0x3c25ebe1	0.010127039
17	0x3c3abdb6	0.01139777
18	0xbc5c78ac	-0.013456505
19	0x3badb826	0.005301493
20	0xbbfba276	-0.007679279
21	0x3c51354d	0.012769056
22	0x37b25108	2.1256987e-05
23	0x3cdf227a	0.02723812
24	0x3b122722	0.0022301157
25	0xbbe3e6fd	-0.006955026
26	0x3c6d25bb	0.014474328
27	0xbca8fb83	-0.020627743
28	0x3c78157b	0.01514184
29	0x3c883968	0.016628936
30	0xbbdfdecc	-0.0068319794
31	0x3cb130e3	0.021629756
32	0xbbcf3a20	-0.0063240677
33	0xbbf7b024	-0.0075588394
34	0x39cb6e46	0.00038801337
35	0x3c934c69	0.017980771
36	0x3b42b1b1	0.0029707963
37	0xbc6bf1fb	-0.014400954
38	0x3c0aeb8b	0.008479009
39	0x3d1cd213	0.03828628
40	0xbbd19bee	-0.006396762
41	0xbbef6932	-0.0073062414
42	0x3bcdbcfe	0.006278633
43	0xbc951c85	-0.018202076
44	0xbb237058	-0.0024938788
45	0x3c2917dd	0.010320631
46	0x3bfc2eab	0.007695993
47	0xbc0303f6	-0.00799655
48	0xbbfe83aa	-0.0077671604
49	0x3b951c87	0.00455052
50	0x3a750263	0.0009346364
51	0xbb35c479	-0.0027735515
52	0x3c07118e	0.008243931
53	0x3c6b7e05	0.014373307
54	0xbb6b8a9a	-0.0035940767
55	0x3be69b36	0.0070375456
56	0x3b991979	0.004672226
57	0x3c885151	0.016640337
58	0xbb4a9498	-0.0030911323
59	0xbc5ed405	-0.013600354
60	0x3be3cd54	0.0069519673
61	0x3b07eac4	0.0020739296
62	0x3bae9ac1	0.0053285067
63	0xb9c35c66	-0.0003726214

bn3.running_mean f4 [64]
0	0xbef93ef8	-0.48680854
1	0xbe186822	-0.14883474
2	0x3ee49e31	0.4465194
3	0x3f8f60c2	1.1201403
4	0xbefbc8d8	-0.4917667
5	0x3e6d6529	0.23183121
6	0x3f3f1eaf	0.74656194
7	0x3b4116f9	0.0029463156
8	0xbf37ae79	-0.717506
9	0xbf2ac152	-0.66701233
10	0x3f46a2d0	0.7759218
11	0x3ec2fc64	0.38083184
12	0xbf208703	-0.6270601
13	0x3f5b5e8a	0.8569113
14	0xbe5fd4a1	-0.21858455
15	0xbd2fb432	-0.042896457
16	0xbf57ae22	-0.8425008
17	0x3da1e0b9	0.079041906
18	0x3f15a041	0.58447653
19	0x3deaea1a	0.114704326
20	0x3f540efc	0.82835364
21	0xbed35982	-0.41279227
22	0x3e23a8e2	0.15982392
23	0xbe959dfc	-0.29222095
24	0x3f04dcd0	0.51899433
25	0xbf684902	-0.907364
26	0x3df3e96f	0.11909758
27	0x3e3e151d	0.18562742
28	0xbe938704	-0.28813946
29	0xbf33daa3	-0.7025549
30	0x3f89f9df	1.077938
31	0xbf08b4bf	-0.53400797
32	0xbf590fe7	-0.8478989
33	0x3eb9b606	0.36271685
34	0x3f572e2f	0.84054846
35	0xbf06992e	-0.52577484
36	0xbf0aba63	-0.54190654
37	0xbf819cf6	-1.0126026
38	0x3f982263	1.1885494
39	0xbdd277d0	-0.10276759
40	0xbf030bc1	-0.5118981
41	0x3f68342a	0.90704596
42	0x3e3f2606	0.18666849
43	0xbf022df5	-0.50851375
44	0xbf1c47e4	-0.61047196
45	0xbea78541	-0.32718852
46	0x3f166a4e	0.5875596
47	0xbeea9c4e	-0.45822376
48	0x3f28485f	0.6573543
49	0x3f3e400e	0.7431649
50	0xbe4fdd10	-0.20299172
51	0xbf84babc	-1.0369487
52	0xbedbc537	-0.429239
53	0x3e0cac12	0.13737515
54	0x3e4507d3	0.19241266
55	0xbd1ab5b0	-0.037770927
56	0xbea190a2	-0.3155566
57	0x3eb8a6bc	0.36064708
58	0x3f5d3ee6	0.864241
59	0x3f78573f	0.97008127
60	0x3eb053cc	0.34438932
61	0x3f56048e	0.836007
62	0xbf49a3d0	-0.78765583
63	0x3f33c84a	0.7022749

bn3.running_var f4 [64]
0	0x3ec9ddea	0.3942712
1	0x3edb462c	0.42826974
2	0x3f37d709	0.7181249
3	0x3f775c2f	0.96625036
4	0x3f2b3f07	0.6689305
5	0x3e92897e	0.28620523
6	0x3f2630a0	0.64917946
7	0x3f6dbe71	0.92868716
8	0x3fa6f4e3	1.3043483
9	0x3ec0f478	0.37686515
10	0x3f54a8e4	0.83070207
11	0x3ecccd51	0.40000394
12	0x3eb39090	0.3507123
13	0x3e886498	0.26639247
14	0x3ecfc6b9	0.405813
15	0x3e7e7439	0.24849023
16	0x3f7ef0da	0.9958626
17	0x3f41e77a	0.7574383
18	0x3eaff89f	0.3436937
19	0x3eec5ae2	0.46163088
20	0x3f0f817a	0.5605694
21	0x3f8a7887	1.0818032
22	0x3eac6f28	0.33678555
23	0x3eb3bf18	0.3510673
24	0x3e563a0c	0.2092058
25	0x3f2d0b63	0.675955
26	0x3f821438	1.016242
27	0x3eab4c92	0.33456856
28	0x3ed343d3	0.41262683
29	0x3f189dd5	0.5961583
30	0x3faaad81	1.3334199
31	0x3e491a8d	0.19639035
32	0x3f315a85	0.69278747
33	0x3f39921c	0.7248857
34	0x3f7af3e1	0.9802838
35	0x3f519aa7	0.81876606
36	0x3f511439	0.8167148
37	0x3eee0555	0.46488443
38	0x3fb734eb	1.4313024
39	0x3edbaa80	0.4290352
40	0x3f059c8c	0.52191997
41	0x3f8a8500	1.0821838
42	0x3f7236a0	0.946146
43	0x3ea6cf36	0.32579964
44	0x3e5766bf	0.21035288
45	0x3eb70eb9	0.3575342
46	0x3f549efb	0.83055085
47	0x3e409bc1	0.18809415
48	0x3f25f20a	0.6482245
49	0x3f559963	0.83437175
50	0x3eee5190	0.46546602
51	0x3fbdf2c4	1.4839711
52	0x3f264b22	0.64958394
53	0x3ea653d6	0.32485837
54	0x3ec1ce9c	0.37852943
55	0x3eff6340	0.4988041
56	0x3fad00ed	1.3515908
57	0x3ef90fe4	0.48644936
58	0x3f806610	1.0031147
59	0x3efacf0f	0.48986098
60	0x3eb91eff	0.3615646
61	0x3f961500	1.1725159
62	0x3f0d6747	0.55235714
63	0x3e84a64e	0.2590813

policy_conv.weight f4 [2, 64, 1, 1]
0	0x3df17d6c	0.117915004
1	0xbdb76d20	-0.08956361
2	0x3d788650	0.060674965
3	0xb8a96b94	-8.078586e-05
4	0xbda4f413	-0.08054366
5	0x3dfe2b60	0.12410617
6	0xbce21b36	-0.027600866
7	0x3dd711b1	0.10501421
8	0xbdf920bc	-0.12164447
9	0x3d2b8811	0.04187781
10	0x3dded077	0.10879605
11	0xbdfc8d83	-0.12331679
12	0xbd8e72f7	-0.069555216
13	0xbbe0b81c	-0.006857885
14	0x3d15049c	0.03638135
15	0x3c8ad7f8	0.016948685
16	0xbd6c0854	-0.05762513
17	0x3df734df	0.12070631
18	0xbdb6ba68	-0.08922273
19	0x3bfcf924	0.0077201296
20	0x3dbe6b06	0.09297757
21	0xbe07faf5	-0.13279326
22	0x3d4a4e77	0.049391236
23	0x3dc7da2c	0.0975841
24	0xbd01b138	-0.03166315
25	0xbd5cae6c	-0.05387728
26	0x3dfcdd11	0.123468526
27	0x3d873cfb	0.06603428
28	0xbd9929e9	-0.07478697
29	0xbd1d5779	-0.0384135
30	0x3cfcf38c	0.030877851
31	0x3c9fdd60	0.01951474
32	0xbe0f1ea5	-0.13976534
33	0xbdbe50f4	-0.09292784
34	0x3dad3790	0.08457863
35	0xbdd8fe48	-0.10595375
36	0x3cb61ca0	0.022230446
37	0x3cde59ec	0.027142487
38	0x3d5aff0e	0.053465895
39	0xbd8e1d91	-0.06939233
40	0x3b136b73	0.0022494465
41	0x3c80fa69	0.015744405
42	0x3d56c355	0.052432377
43	0x3ac8016c	0.0015259213
44	0x3d08e4f2	0.033421464
45	0xbd09eff6	-0.03367611
46	0x3df07b2c	0.11742243
47	0xbc051138	-0.008121781
48	0x3cbaf337	0.022821052
49	0x3dd3f4f9	0.10349459
50	0x3c2fb56b	0.010724406
51	0xbe0489c7	-0.12943183
52	0xbd8e952f	-0.06962048
53	0xbdadef10	-0.08492863
54	0x3db9058f	0.09034263
55	0xbd9880f9	-0.074464746
56	0xbd369f92	-0.04458577
57	0x3d855f55	0.06512324
58	0x3d0b3e5f	0.03399503
59	0x3c63c918	0.013902925
60	0x3dd1908a	0.10232647
61	0x3dc68544	0.09693387
62	0xbdfeebbb	-0.12447306
63	0x3c8dad4b	0.017294547
64	0x3ca2ef74	0.01988957
65	0xbd3d3ed1	-0.046202485
66	0x3a0e1b15	0.00054209057
67	0xbe08ed36	-0.13371739
68	0x3d8a01ca	0.067386225
69	0x3d5304be	0.051518194
70	0xbdd3a075	-0.10333339
71	0xbcff5454	-0.03116814
72	0x3b2ab9f7	0.0026050785
73	0x3d177afe	0.03698253
74	0xbd256cd5	-0.040386993
75	0xbbea78fd	-0.007155536
76	0x3dead6bc	0.114667386
77	0x3c8002a8	0.015626267
78	0x3df06845	0.11738638
79	0x3ccd08e5	0.025028655
80	0x3d01593a	0.031579234
81	0x3d018213	0.03161819
82	0xbd8e7bba	-0.06957193
83	0x3db7e5e6	0.089793965
84	0xbe09c36f	-0.13453458
85	0xbdadcdc6	-0.08486514
86	0xbd904179	-0.07043738
87	0x3d999a94	0.075001866
88	0xbdd2e25a	-0.102970794
89	0x3d8fecdd	0.070276
90	0x3d7eaf18	0.0621787
91	0x3d02f859	0.031975124
92	0xbc74869f	-0.014924674
93	0x3c77df29	0.015128889
94	0xbde7acd5	-0.11312262
95	0xbba490a8	-0.005022127
96	0x3d8bd485	0.06827644
97	0xbe0a29bb	-0.13492481
98	0xbd8f5e47	-0.07000404
99	0x3da81dee	0.08208834
100	0xbda9f299	-0.08298225
101	0xbc2cda1d	-0.010550049
102	0xbdff8061	-0.12475658
103	0xbc99e05f	-0.018783746
104	0x3df7b8ca	0.120957926
105	0xbd75d834	-0.06002064
106	0x3d1bdae4	0.038050547
107	0x3cb267d4	0.021778025
108	0xbc2f8116	-0.010711929
109	0x3d889a2f	0.06670033
110	0xbda2e983	-0.07954695
111	0x3c9fd20c	0.019509338
112	0xbda2e4a3	-0.07953765
113	0xbda65f9a	-0.08123703
114	0x3d10c35a	0.03534255
115	0x3d8f4b08	0.06996733
116	0xbdd4d4d6	-0.10392158
117	0x3a8d4268	0.0010777237
118	0x3d9d9a83	0.076954864
119	0xbd0ebd71	-0.034848634
120	0xbcbfb9a8	-0.023403957
121	0x3d217fcd	0.03942852
122	0xbdd90b22	-0.105978265
123	0xba923f64	-0.0011157808
124	0x3be81655	0.0070827403
125	0xbd4438af	-0.04790562
126	0x3dcf42fc	0.10120198
127	0xbccb3dc4	-0.024809726

policy_conv.bias f4 [2]
0	0xbdb6eede	-0.08932279
1	0xbca22fd4	-0.019798197

policy_bn.weight f4 [2]
0	0x3f759141	0.95924765
1	0x3f7953cf	0.97393507

policy_bn.bias f4 [2]
0	0xbcd8f00a	-0.026481647
1	0xbc4e14a1	-0.0125781605

policy_bn.running_mean f4 [2]
0	0xbb8d8ccc	-0.004319763
1	0xbe442102	-0.19153216

policy_bn.running_var f4 [2]
0	0x3fdcfaa5	1.7263991
1	0x3f76d1c3	0.9641382
